code/models/big_obs_decoder_8.pth (torch, 143371 bytes, 7 tensors)

fc1.weight f4 [3200, 8]
00000000: f0f1 69bd afd1 3abe 5087 a93e ee59 023d
00000010: bb35 0cbe 0f08 a2be 4dfa 68be c124 51bd
00000020: b08c 883e 6c4e c2be d485 ae3e 39a2 903e
00000030: eac7 64bd 1909 95be 7492 563e ab08 963e
00000040: e5f9 eebc d56a dabd f5db 96be 2108 c63e
00000050: baf0 17bd 20f1 973d bd70 e83d 9f6c e43d
00000060: f1c8 7a3e ef59 52be f962 383e 98ae c1bd
00000070: ad71 71be 0fd8 f63d 5b6a ab3e 15e3 343e
00000080: c5a1 bf3d f338 bfbe 1769 95be a40d 01bd
00000090: 8dc4 1c3e d877 a73e 4f14 89be 8416 213e
000000a0: 983d 5d3c b191 03be 0c1f 19bd 4224 2d3e
000000b0: 018e ab3e 399f 72bb d6e3 9b3c b615 74bd
000000c0: 33a2 0cbe edbd 8d3c 7d7d c4bd f224 b0bd
000000d0: 50f5 a23e 529a 523e 3cb5 d63d 34b6 d7bd
000000e0: ec1e 8cbe c2b9 3dbd 4e09 033e afac 67bd
000000f0: e976 083e 85be 1c3e 7508 69be bd7e 8bbe
00000100: d2b5 163d 982f a73e e53f a2be 4e0c 3bbe
00000110: fb2a 423e 45ce 963d d965 9dbc 3157 483e
00000120: a48f 233d db0d f9bd 6c3c 413e 227c 0ebe
00000130: b381 8a3b 1816 40be 195c f2bd 70dc a23e
00000140: cb2c 84be 7448 d53d 3c51 b6be 2ff3 9bbc
00000150: c285 8e3e b1c9 133e 535a 933e df55 a7be
00000160: 9a49 77be 0e7e b4bd 9d19 373e 4bf1 03bd
00000170: 7c93 0e3d 6b3d 193e 75f0 83be c982 253a
00000180: d56f 8bbd 2f10 77bd 4059 9abe ae34 53be
00000190: 08d5 9dbe e5ed 293e 0f86 8dbe a8c4 2b3e
000001a0: 7404 83be 6da7 fe3d 7c23 ee3d 5171 813a
000001b0: 6c9f 0a3d 85a0 a8be 0493 6d3e 5bda 8f3e
000001c0: 5cca 6abe dc28 b7be abdd d7bc 8bdf 44bd
000001d0: 23b9 cc3b 7d14 043e ec14 bcbc 1d5e 2ebe
000001e0: e3f2 213e a847 183e d644 463e 7de1 033e
000001f0: f021 9e3e fbc6 78be b475 3a3e fb61 a6be
00000200: 50a5 14be b7dc 33be 600c ecbd 278e 33bd
00000210: e44e 96be 2ba1 78be c5f1 e7bd d373 37be
00000220: dd78 aabe 2765 3d3e 9c3c 0c3c 00c9 9b3e
00000230: 74c7 9c3d 22ba 1dbc 8203 7cbc 7886 da3c
00000240: d2ae 15be ab60 acbe 2c4a ef3d e776 273d
00000250: 57c5 a9be f884 093e 703d 443e 7ff3 4a3e
00000260: 0f3f 97be a5a0 debd 1950 94be 483c 0e3e
00000270: f428 703e ba7f a73d b415 7fbd 237b 133e
00000280: fd5f 82be b265 ac3e e6a9 3dbe 7500 33be
00000290: f636 bdbd 8f2b ebbd 309b 263d f6df 21be
000002a0: 155a 73be d1bb 2e3e 4de7 3c3e c751 503e
000002b0: e2e9 863e 3219 a8be dbf2 863e 8f77 d6bd
000002c0: a1e8 a13e 16b5 813e 76bc 893e 5526 2cbe
000002d0: a3ab 1dbe 39b8 123e d30b bdbd 97e9 963e
000002e0: c72c 8cbc d687 8c3e 2bb4 82be e475 a4be
000002f0: 705e 2c3e bf70 703e 9233 763e 27a7 673e
00000300: 17f5 163e e5fe 813e 8440 f83d 1d7a d7bd
00000310: 4b41 28be a1b7 1d3e 5774 d83c af62 b1be
00000320: f4f6 7b3e ddad 843e f6f2 c2be fa32 323e
00000330: c779 ea3d 405a b0be cbb8 a5be e231 93be
00000340: ab42 07be 5333 d9bd f3ae 82be 308c a8bd
00000350: 2f54 9e3d 3241 7c3e 6a7b d43d 0f5b fbbd
00000360: fc2e 8f3e 82c3 febd 8f15 943e d429 a2be
00000370: d970 b43e b303 6ebd 801f 703e ab9a a5be
00000380: 61ce 8e3d 97cf 913c c868 5abe 5427 00be
00000390: 7aa0 5dbe e571 943e 2faf 933e d9a8 b6bc
000003a0: 5542 b43e 32be b43d ce80 97be 97bd 98bc
000003b0: 65a4 4abc 2bdd c53c 142c 243c 8e20 a83c
000003c0: de3d c23e 7e62 a73e 5dd4 97be 6c1c cb3c
000003d0: 8859 9bbe 0d06 30bd 85ed 8a3e 11bf 063e
000003e0: b339 37be 6c43 b53e 52ab 3c3e 86cd bd3e
000003f0: 9bf5 063e 2faa 38be b16e 37bd a6ba 8a3d
-0.057115495 -0.1824405 0.33111048 0.031824045 -0.13692372 -0.31646773 -0.22751732 -0.051060442
0.26669836 -0.37950456 0.34086478 0.28248766 -0.055854715 -0.29108503 0.20954305 0.29303488
-0.029171893 -0.10664908 -0.2946469 0.38678077 -0.03709481 0.07419038 0.11349628 0.1115353
0.24490716 -0.2054212 0.18006505 -0.09457129 -0.2357852 0.12052929 0.3347958 0.1766475
0.09357027 -0.37348136 -0.2918174 -0.03150715 0.15309353 0.3270862 -0.26773307 0.15731245
0.013503455 -0.12848546 -0.037383124 0.16908363 0.33506778 -0.0037021174 0.01902954 -0.059591018
-0.13733749 0.017302478 -0.095942475 -0.08600797 0.31827784 0.20566681 0.104837865 -0.10532799
-0.27367342 -0.04631973 0.12796518 -0.05656117 0.1332661 0.15307052 -0.22757132 -0.2724513
0.03679449 0.326535 -0.31689373 -0.18266413 0.18961708 0.073635615 -0.019213604 0.19564511
0.03993191 -0.12160846 0.18870705 -0.1391454 0.004226887 -0.18758428 -0.118339725 0.31808805
-0.25815424 0.1041421 -0.35608852 -0.019036857 0.27836424 0.14432408 0.2877985 -0.32682702
-0.2414917 -0.088131055 0.17880864 -0.032212537 0.03480862 0.14964835 -0.25769392 0.0006313739
-0.0680844 -0.06031817 -0.30146217 -0.20625564 -0.30826592 0.16594656 -0.2764134 0.16774237
-0.25589335 0.12434278 0.11627862 0.000987569 0.033843443 -0.32934967 0.23200613 0.2809628
-0.22928756 -0.3577336 -0.026350817 -0.04806475 0.006247656 0.1289844 -0.022959195 -0.17028089
0.1581531 0.14871085 0.19362196 0.12878986 0.30885267 -0.24294655 0.18208963 -0.32496628
-0.14516187 -0.17564665 -0.11525798 -0.04383674 -0.29357064 -0.2428023 -0.11325411 -0.17915277
-0.33295336 0.18495618 0.008559372 0.30426788 0.0765523 -0.009626897 -0.015381696 0.026675448
-0.1461747 -0.33667502 0.11684069 0.04088488 -0.3315837 0.1342963 0.19164062 0.19819449
-0.29540297 -0.10870484 -0.2896736 0.13890183 0.23453122 0.08178659 -0.062276557 0.14402442
-0.25463858 0.33671337 -0.18521842 -0.17480643 -0.092389986 -0.114829175 0.040675342 -0.1580809
-0.23764832 0.17063834 0.18447609 0.20343696 0.26350313 -0.32831722 0.2635716 -0.10472023
0.31622794 0.2533347 0.26901597 -0.16811498 -0.15397505 0.14328088 -0.09230771 0.2947509
-0.017111195 0.27447385 -0.25528082 -0.32121193 0.168329 0.23480509 0.2404311 0.22622357
0.14741932 0.25389782 0.121216804 -0.10521338 -0.16431157 0.1540208 0.026422663 -0.34645602
0.24605924 0.25913897 -0.3807599 0.17402259 0.114490084 -0.34443855 -0.32367548 -0.28748995
-0.13209026 -0.106054924 -0.255241 -0.08229864 0.077309005 0.24634245 0.10375102 -0.122732274
0.27965534 -0.12439634 0.28922698 -0.31672537 0.35242346 -0.058108997 0.23449516 -0.32344565
0.069729574 0.017799182 -0.21329033 -0.12515002 -0.21643248 0.28993145 0.28844592 -0.02229731
0.35206857 0.088253394 -0.29590458 -0.018645091 -0.012368296 0.024153313 0.010020275 0.020523336
0.37937826 0.3269233 -0.29654208 0.024793826 -0.30341744 -0.04297452 0.27134338 0.13158824
-0.17893104 0.35403 0.18424729 0.37070864 0.13179629 -0.1803367 -0.044783298 0.067738816

fc1.bias f4 [3200]
00000000: 923f d73e 1fa6 40bd d268 b43b 6446 fd3c
00000010: 5e3d f93e 81d9 633e 5c97 36be 5ea6 623e
00000020: e982 f33d cc2e 59be f3b6 5ebe fdfc c03d
00000030: 2b59 513d d642 d9bd 04ac 3f3e 5001 93be
00000040: 1d21 333e a524 603e ba85 1b3e 2b8b 99be
00000050: 6f6d 94be d562 f63d 107e 413e baf1 9b3e
00000060: 4304 18be 50c4 43be 20ab 48bd 782e a93e
00000070: 046a 3ebc c5da 1a3e d122 3abd 9e79 903e
00000080: 0463 8a3e c47d 713e 52cd 16be 33de 263d
00000090: 284a 593d 3ace 26bd 3065 db3d 7fc9 b83b
000000a0: 7e50 013e 8f26 053e 2317 93bd 3dbf 9cbe
000000b0: 312b 60bd 195c bc3e 8bde ea3d 722b b73e
000000c0: 4066 6cbe b36f f1bd e71b bd3e cadd c2bd
000000d0: ec86 66be 3d58 993e bfbe 943e 52e0 f8bd
000000e0: 8916 643d 6ef0 84be 8a8f 05be 2b97 d83e
000000f0: 462a cb3d a099 be3e 6382 623e b361 6bbe
00000100: fd2b d83e 9878 df3d 1f5a 80be 9a9e 353d
00000110: 8ba9 a03e 518a ab3d 3c0a b03e 765a 5e3e
00000120: 1eda 95bd 73e6 c63d c756 c93e ae76 85bd
00000130: 80de 453e ff5c 93be 3840 bcbe 4972 4fbc
00000140: e8b0 873e 49d2 4f3e 762c 623e 469c 903d
00000150: 5cfb 483d 7be6 c13e 8db2 cc3c 279e cabd
00000160: 2146 49bd 5f1b f5bd d84e 7c3e 0e62 973c
00000170: e476 5e3e 4994 73be 4dc6 593d 5264 f7bc
00000180: 3e77 ca3d d87d b9be 512b 7a3e aaa5 9cbe
00000190: 9af4 bbbd ca0b 883e cb89 8cbe 80e1 1a3d
000001a0: 0ed8 303d 7f56 b03e 6588 2b3e 15d5 c2bd
000001b0: a1e6 73be 0510 3fbe c1fb 6d3e 5bf2 f6bd
000001c0: 53e8 9cbe ad51 ffbc 9cc8 f03c afcd 12be
000001d0: 8ca2 133d 5197 5ebe 97e1 04bd 366c 80be
000001e0: 8763 143e 004e a2bc b43c 1dbe b073 a63e
000001f0: 4640 9dbe 162c e1be 80c7 f33d d2ab ba3d
00000200: 6ece 85be ff4c cabd 7783 1bbe 3f13 af3e
00000210: 8a15 a73e b851 8c3d 2619 17be 5e3d 873e
00000220: dbe3 11be ff7b 783e 48e9 e13d e420 d13d
00000230: 48a9 763e 0104 9dbd c965 473e 224f b2bd
00000240: 7afe 873e 6f79 83be 4057 4bbe b856 8ebd
00000250: 7c16 2dbe e52b 32be 22a6 f73d 0b49 9bbd
00000260: 193e c1bd 2a10 513e c2db ce3d 6ea0 ff3d
00000270: 04de 76be e3a0 3f3e 02ec 79be 4a8b 7ebe
00000280: 24cf a7be 8f8e ccbc d76c 0cbe 6394 03be
00000290: 0068 cd3d 9959 bfbd 8c41 9e3e c89f 2f3e
000002a0: 9380 b63c 4ce7 e2bc 5ba7 36bd 8ed9 aa3d
000002b0: 89b1 9cbe e714 523e cbe6 6f3d 2d8b 96be
000002c0: 6c78 75be 3354 4a3e 0942 9fbe cde3 003e
000002d0: ef3e 8fbe d18a b23d 781b 093e be4c 2f3e
000002e0: e0ce 71be 846b cebd 5222 51be f956 17be
000002f0: f6a4 7bbe fdce 493e 6701 5abe 6dbc 62be
00000300: 4724 81bd deac 5dbe 3e35 823e 83de 8cbe
00000310: 675c f93d 391d a3bd b97e c6bd ea8a 833e
00000320: 6363 923c af57 243e 37b0 18be dd46 cabe
00000330: e324 a9be de66 e2bc 01f0 84bd 4bee 8a3d
00000340: 5e01 aabc 9f89 80bd a585 e53e f321 313e
00000350: e3cf 62be b96a 183e 7403 adbd c70f 9cbd
00000360: c04d cc3d 4c66 a33e bacc f83d 1158 35bd
00000370: e22f 11be 51e6 4b3d 38e2 d6be 2021 6ebe
00000380: b895 a5be 924e 8cbe 631d c3bd 32c0 0dbe
00000390: d4e5 893e a332 ea3c c7c0 e43d 740b b2bd
000003a0: 8b9d 7ebe 445c 423e 0601 75bc 0632 963e
000003b0: bf22 91be bada 56be bc72 643e b803 0c3e
000003c0: 076b 79bd a68d a43e d372 67bd 52cb 2e3e
000003d0: fc4a c93d 52bc 05be b08d 853e 8bac ca3d
000003e0: 05e9 6d3e 179b 443e cecd cb3d 3dfc 1f3e
000003f0: ba76 f2bc cd50 8a3e 7d1c ed3d 7cad 0e3e
0.42040688 -0.047033425 0.0055056596 0.030917354 0.48679632 0.2225094 -0.17831177 0.22133777
0.118902035 -0.21209258 -0.21749477 0.09423254 0.051110428 -0.10608451 0.18717963 -0.2871194
0.174931 0.21888979 0.15187731 -0.2998899 -0.2898974 0.120305695 0.18895745 0.3045786
-0.14845376 -0.19117856 -0.048991323 0.33043265 -0.011621956 0.15122516 -0.04544336 0.28217787
0.27028668 0.23583132 -0.14726761 0.04073925 0.053049237 -0.040724017 0.10712659 0.0056392546
0.12628362 0.1300299 -0.07182147 -0.30614653 -0.05472869 0.36789015 0.11468228 0.35775334
-0.2308588 -0.11788883 0.3693535 -0.09514959 -0.22512406 0.29950133 0.29051778 -0.12152161
0.055685554 -0.25964683 -0.13043037 0.42302832 0.099201724 0.37226582 0.22120051 -0.22986488
0.4222106 0.10911673 -0.25068757 0.044340707 0.3137935 0.08375991 0.34382808 0.21714196
-0.07316993 0.097119235 0.39324018 -0.06516777 0.19323158 -0.28781888 -0.36767745 -0.012661525
0.26502156 0.20295061 0.22087273 0.07061057 0.04906784 0.37871155 0.024987483 -0.098934464
-0.049139146 -0.11968111 0.24639452 0.018479373 0.2172504 -0.23787035 0.05316763 -0.030199204
0.09886025 -0.36228824 0.24430586 -0.30595142 -0.091775134 0.26571494 -0.27448878 0.03781271
0.043174796 0.3444099 0.16751249 -0.095132984 -0.23818447 -0.18658455 0.23240568 -0.120579444
-0.30646 -0.031166876 0.029392533 -0.14336275 0.03604369 -0.2173741 -0.0324417 -0.25082558
0.14491092 -0.019812584 -0.15355188 0.32510138 -0.307131 -0.43978947 0.11903286 0.091148034
-0.26134056 -0.09877967 -0.15186869 0.3419437 0.3263362 0.06851524 -0.14755687 0.26414007
-0.14247076 0.24266051 0.11030823 0.102113515 0.24088013 -0.07666779 0.19472422 -0.087065
0.26561338 -0.25678584 -0.19857502 -0.06950134 -0.16903108 -0.17399557 0.12092234 -0.07582291
-0.09435672 0.20416322 0.10100509 0.124817714 -0.2410813 0.18713717 -0.24406436 -0.24857822
-0.32775223 -0.024970321 -0.13713394 -0.12849574 0.10029602 -0.09343261 0.30909383 0.17150795
0.022278106 -0.027698182 -0.044593196 0.083422765 -0.306042 0.20515786 0.05856971 -0.29403058
-0.23971719 0.19758682 -0.31105068 0.12586899 -0.27977702 0.087178834 0.13389385 0.17119119
-0.23614073 -0.10079101 -0.20423248 -0.14779271 -0.24574646 0.19707866 -0.21289597 -0.22142191
-0.063057475 -0.21647975 0.25431246 -0.27513513 0.121758275 -0.07964558 -0.09692139 0.2569192
0.017869657 0.16049074 -0.1491097 -0.3950719 -0.33035955 -0.027636942 -0.064910896 0.06783732
-0.020752605 -0.06276249 0.44828525 0.17298107 -0.22149615 0.14884461 -0.08447924 -0.07620197
0.09975767 0.31913984 0.121484235 -0.04427344 -0.14178422 0.049780194 -0.41969466 -0.23254824
-0.3234079 -0.27403694 -0.095270894 -0.13842848 0.26933157 0.028588599 0.11169582 -0.08693591
-0.24864785 0.18980509 -0.014953857 0.2933504 -0.28346822 -0.20981875 0.22309393 0.13673294
-0.060893085 0.3213932 -0.05650599 0.17069748 0.09828755 -0.1306012 0.2608466 0.09896191
0.23233421 0.19199787 0.099513635 0.15623565 -0.029597629 0.2701477 0.11577699 0.13933367

conv_transpose1.weight f4 [32, 16, 3, 3]
00000000: 72a4 ca3d cf47 9f3c 700e 9e3d f2f5 17bd
00000010: c9ac 213d 8691 543d 9509 28bd c890 763c
00000020: 8101 823d 0447 83bd 4ffd e0bd 8015 a13c
00000030: 86b3 f33c a273 713d e1e6 a4bd 0d02 1e3d
00000040: 5538 5f3d 7895 9f3c 3060 9abd 89c0 433b
00000050: f069 bdbc 7eda 55bd 41a8 a93d 2ad7 d3bc
00000060: d086 eabc bb20 b63c 0837 22b8 44da d7bb
00000070: 50e5 8b3c 0ea5 fb3c 0f4b 273d d228 7f3a
00000080: 3a8e a93c 6334 bb3b 92c2 393d 7273 b6bc
00000090: de21 a53d 32a8 cc3d b2c3 bbbc 87ba bc3d
000000a0: 215b 8a3d 3249 9fbc fcaa b33d 5d8b b53d
000000b0: f29e 353c 9aa4 4a3d fafe 113d 1d66 183d
000000c0: 768a 6abd 2b20 5cbd 3a90 aa3c 9206 afbc
000000d0: d8eb b0bc 843a 643c d02b 9d3d 4ec6 5c3d
000000e0: 0ca1 4fbd 995e 7dbd 66c0 c23b 26ef a63d
000000f0: 6200 aa3c 3b9d af3c fd2a a33d b9ff b5bd
00000100: a6ba 6e39 7ae4 4fbc b214 9b3c f6ea b23c
00000110: 883f 3dbd 4d67 47bd 0f4f 02bd 3835 5d3d
00000120: 86aa 22bd 1f2c 843d 7976 7c3c a490 45bd
00000130: 9ff6 e0bd 358f 2e3d 5f70 9c3d 414b 573d
00000140: 5204 2fbd f6e4 9bbb 9387 b33d c33d b93c
00000150: 2d11 9d3c afb9 7f3c 187f 9fbd 44da 853d
00000160: a0a8 e4bc 0eef 05bd 01a0 0e3c fa2b 0ebd
00000170: 66c2 c5bd 91c1 943b 9d96 dcba f5d1 2abd
00000180: 4435 a33d b420 e0bc 8031 84bd 8d26 0fbc
00000190: f056 8c3b b550 b53d 63aa 743d 85ea 1fbd
000001a0: 2d8b 3ebd ebee 56bd 70a9 883d da47 b23d
000001b0: 211a 02bd 3316 043c 6afc 36bc 8709 373d
000001c0: f88c 8bbd a8dc c03a 77c2 e13c 603a acba
000001d0: 5dc3 b83d ccff 073c 1b6e ed3c cef9 3fbd
000001e0: 6a80 6bbc 208a b43b 8356 fe3a fb06 a3bd
000001f0: b874 aabd d2dd c2bd 4978 cdbc a32f 9fbd
00000200: 18cc 8c3d d02b 033d b9d4 0dbd 33fb 89bc
00000210: 4eba 633d d642 a2bc 37b7 a0bd d87d 333c
00000220: 62db 623d 832d 093d adde b5bd 304e 21bd
00000230: 8aa8 903d 34d1 07bd 5bed adbd d331 7b3d
00000240: 581d 24bc a47c 66bd 9ea6 bfba b6ee 7bbc
00000250: b970 223d e706 21bd c448 4b3d 00aa d13b
00000260: 344c e23c 0bd4 3b3d 71dd 4fbd d374 853d
00000270: 0b1f 563d e579 083d e605 193c 45a6 1d3d
00000280: 1d41 a23d e429 54bd 5494 3dbb 5d8b cabd
00000290: a310 3ebd 8265 da3c 2822 233d 841c 223d
000002a0: d30e 94bd 3924 383d da8c b9bd c288 3a3d
000002b0: f2d4 3ebd 2c08 5fbd 2274 89bb 10bb 96bd
000002c0: 11f3 ba3c 79ea 603c ad93 79bd c031 84bc
000002d0: 2060 95bd 358a a53c 7ae7 bf3c 7ebd 103d
000002e0: c607 5bbd d789 1ebc 8dfc a3bd 3cfd 123d
000002f0: 7d64 ec3c 0735 9ebd c62d 1c3d 5d18 923d
00000300: d50d 9abd da04 2e3d 94eb 0fbc 24ca f6bc
00000310: 62a1 4bbd abaa 69bd c31f d63c 27d1 dd3c
00000320: 81be d6bd 7d79 ccbb 22b8 ba3d 9be9 7c3d
00000330: 2284 c9bc a4f3 a83d 6944 fabb 02ba a53d
00000340: 2048 9c3c 9849 74bd 6618 54bd 1dde 3f3d
00000350: 7945 97bc 82ca 8c3c a8e5 ce3c 4432 26bd
00000360: 091b 64bd 2628 913d bd12 eabd b00e 963c
00000370: cc17 8ebd 66a5 023c 92c7 79bc efed 92bc
00000380: 8ba0 a2bd e035 9ebc 6ad3 67bd 5691 9fbd
00000390: fccf 713d 40bd 99bc 774b 9ebc d663 42bd
000003a0: cc3f a33c f61f cf3c d7e9 94bc c28a abbb
000003b0: 963d 97bc bee3 853d e529 b13c 0ff2 bb3c
000003c0: ed58 ae3c 4572 d2bc 49ca a1bb b81e 24bd
000003d0: 0640 953d ba8f 903c e2b1 42bd 2b16 203d
000003e0: 8574 3e3d 2d67 ae3d 9c61 b03c 888c 4b3c
000003f0: 9fa3 38bc 9c0b 29bd 7874 273d a023 d8bd
0.09894647 0.01944342 0.077175975 -0.037099786 0.03947142 0.051896594 -0.041024763 0.015049167
0.06347943 -0.064100295 -0.10985815 0.019663572 0.02974869 0.058948167 -0.08051849 0.038576175
0.05449708 0.019480452 -0.075378776 0.0029869399 -0.023121804 -0.052210324 0.08284045 -0.025859434
-0.028628737 0.022232404 -3.867506e-05 -0.0065872986 0.017077118 0.030718353 0.040843066 0.0009733561
0.020697702 0.005713032 0.045351572 -0.022271845 0.080631 0.09993018 -0.022920463 0.09215265
0.06755663 -0.019444082 0.08772847 0.08864472 0.011085259 0.049473383 0.035643555 0.037206758
-0.057260953 -0.053741615 0.020820726 -0.021365438 -0.021596834 0.013929967 0.07674372 0.053900056
-0.050690696 -0.061857793 0.005943346 0.08151083 0.020752136 0.021437278 0.07967184 -0.08886666
0.0002276698 -0.01268875 0.018930767 0.021840554 -0.046203166 -0.0486825 -0.031813677 0.05400583
-0.039713405 0.06453728 0.015409105 -0.048233643 -0.10984539 0.04261704 0.076386206 0.052562002
-0.04272873 -0.004757519 0.08766093 0.022612458 0.01917323 0.015608235 -0.07787913 0.065357715
-0.027912438 -0.032698683 0.00870514 -0.034709908 -0.09656219 0.0045396765 -0.0016829554 -0.041704137
0.07969144 -0.027359344 -0.06454754 -0.008737219 0.0042828247 0.08853284 0.059732806 -0.039042015
-0.046519447 -0.052473944 0.06672943 0.08705111 -0.0317632 0.008061933 -0.011168579 0.04468682
-0.06813997 0.0014714198 0.027558548 -0.0013139956 0.090216376 0.008300733 0.028983166 -0.04686909
-0.014373878 0.00550963 0.0019404445 -0.07960316 -0.083230436 -0.09514965 -0.02508177 -0.07772758
0.06874865 0.032024205 -0.034626696 -0.016843414 0.055597596 -0.01980726 -0.078474455 0.010955296
0.055385 0.03349067 -0.08880363 -0.039381206 0.07063396 -0.033158496 -0.084925376 0.061326813
-0.010016762 -0.05627121 -0.0014621799 -0.015376737 0.039658282 -0.039313223 0.04962994 0.0063984394
0.027624227 0.045856517 -0.050748292 0.06516423 0.0522757 0.033319373 0.009339785 0.038488645
0.079225756 -0.051797763 -0.0028927522 -0.09889863 -0.046402585 0.02665973 0.039827496 0.039577976
-0.0722939 0.04495642 -0.090600684 0.04554058 -0.0465898 -0.054451153 -0.0041947523 -0.07359898
0.022820981 0.013727778 -0.06093185 -0.016137004 -0.07293725 0.020207504 0.023425806 0.035336964
-0.05347421 -0.009676418 -0.080071546 0.035886034 0.02885651 -0.07724958 0.03812959 0.07133553
-0.075221695 0.042485096 -0.008784194 -0.030125685 -0.049714454 -0.057047527 0.026138192 0.02707727
-0.104855545 -0.0062400685 0.09117152 0.06174622 -0.024599139 0.08249596 -0.0076375497 0.08092119
0.01907736 -0.059640497 -0.05178108 0.046842683 -0.018465744 0.017186407 0.025255993 -0.04057528
-0.055689845 0.07087736 -0.11429355 0.01831755 -0.06938133 0.007974004 -0.015245335 -0.017935721
-0.079407774 -0.019312799 -0.056598105 -0.077913925 0.05903624 -0.018767 -0.019323094 -0.047458492
0.019927882 0.025283795 -0.01817791 -0.005235047 -0.018461984 0.06537579 0.021626422 0.022942571
0.021282637 -0.025689254 -0.0049374443 -0.04006836 0.07287602 0.01764666 -0.047532924 0.03908364
0.04649784 0.08515773 0.021530919 0.012423642 -0.011269479 -0.041270837 0.040882558 -0.1055367

conv_transpose1.bias f4 [16]
00000000: e0d0 6f3d 3541 e2bd 75bf 923d 44d0 203d
00000010: b128 b03c 4cc4 88bd bf47 283e 5d47 db3a
00000020: 6b90 bebd 653c 9e3d 5598 54bd 0f26 213c
00000030: ebaa e83d 8e45 adbd b1be 483d 434b 8fbd
0.058548808 -0.110475935 0.07165424 0.039261118 0.021503778 -0.06678066 0.16433619 0.0016729642
-0.09304889 0.07726363 -0.051903088 0.009835734 0.11360725 -0.08460532 0.049009982 -0.06996777

conv_transpose2.weight f4 [16, 8, 3, 3]
00000000: 05e1 913d d64d d23d acbe 093d 2164 083e
00000010: 8e54 70bd 3a33 8e3d d858 80bc 6bdb ea3c
00000020: 7024 a83d 43df 053e 70e1 223d 670b 703d
00000030: e265 dc3d a7de f83d a757 df3d 077d c83d
00000040: 3455 9abd 6f4b 873d 5d34 d3bd 8a79 5f3d
00000050: baba afbc 367b 63bd 9a04 1bbd 4cbb 27bd
00000060: 3a01 853d b56a e23b 6741 873d 9183 c53b
00000070: a18f eb3c 04e9 c13d a8b3 673d 7181 8fbc
00000080: 8ff4 d33d 9038 6cbd a783 e13d e8f7 0fbc
00000090: 0711 82bc 539d adbd d471 caba 9fec 3f3d
000000a0: 1d5c 61bd c62f a3bd b3c8 c3bb a19a ba3d
000000b0: ef84 bebd b24b 523d 32c6 b73c d0d8 b23c
000000c0: 0c71 68bd d34f a73d 49c1 cebd 96e0 a6bb
000000d0: a019 3a3c 844b 2abd 5926 0bbc 3a8e 0abd
000000e0: 1b74 2c3d 6962 633d 8503 18bd 7365 76bd
000000f0: 6646 22bd d585 913d 4fb8 7c3d e4d1 6c3c
00000100: 207c 9cbd ec81 f83c b733 d3bd 40b6 2abd
00000110: a8f3 a73d f7a7 c7bd 8882 3f3d 3591 f53d
00000120: a9fa e33b 45c7 8f3d 17e4 b53d 953b de3d
00000130: 7158 fc3d 1d77 c73d 96e7 b8bd c077 273d
00000140: 29c8 1abd cda2 d73d a108 bbbc ab67 dd3c
00000150: 0e91 98bd 480b a0bc 7525 8dbd bd97 38bd
00000160: 2689 8bbd 1a4b 833d bbb6 e3bd d5da f4bd
00000170: 06fc 43bd ebe4 863d 83b0 d73b b697 a3bc
00000180: fd5b 083d 419d 88bd 6dd2 a93c 079f 0b3d
00000190: 4626 04be f2c7 a0bd afa0 17bd 0c30 c9bc
000001a0: 951f 4e3d b602 393d 090b ff3c cc09 efbd
000001b0: 66cd 03bd 684e 7a3d af2d 97bd cbe9 b03d
000001c0: bfec 85bd 6a35 67bc 643d 523d c5c9 663d
000001d0: ff3c 983d a1fb 3f3d 4b09 823d d75d ccbc
000001e0: a46b d5ba 763d b2bd a87a 2cbd ba8c ec3c
000001f0: c56d 803d f45d bb3d 0a0b a33d 0a81 ee3c
00000200: 6ceb 0c3d b570 783d c8b4 2dbd aa51 ab3d
00000210: cf44 35bd 08d4 893d b0cf bc3d cd63 71bd
00000220: a71c ad3d 0f2c bb3d 099e 2e3d fcf9 aa3d
00000230: 2c72 ac3d 20a0 9a3b c412 db3c 12a7 ecb8
00000240: adf0 f6bd 6aa8 dfbd b5ec 723d 9c4d d8bc
00000250: f9bb 14be 9bf5 09be 7d16 a2bd dfa0 dbbc
00000260: fc77 e1bd 56dc e1bd 4d4c dbbd da37 9d3c
00000270: 11f8 eabd 7a83 763c acb7 b6bb b2ed d8bc
00000280: 67df 01bc 9155 5dbd d1f6 abbb 5ec1 7bbd
00000290: 5323 a9bd cb2e 36bd 9223 d5bd bd75 823d
000002a0: 4c1c 923c 9b74 27bc 7b6c 833d 7d0a c43d
000002b0: 2b01 af3d 46c6 bebb bacd 9dbd c1d0 2e3c
000002c0: d704 d3bd ff31 a3bc 6815 9bbb 54f7 dcbc
000002d0: 397d efbd 6e76 d8bd 8e0c 96bd ea8c 6abb
000002e0: c317 0dbe 5de6 69bc dec9 6f3d fd38 d8bd
000002f0: 894c 613d 47a5 9fbd 0785 573d 3d28 a33c
00000300: e9c3 b03b 4c86 c23b 5b8c 99bc b9c0 473d
00000310: 72ac 1fbe c65a 8b3d deb3 463d 7c6d c5bd
00000320: 487c b53d 2712 ad3c 5508 debd e1e3 3e3b
00000330: 0c91 77bd f9a9 10be 0395 c93c abfd 19bd
00000340: 23f6 be3d a0a8 843d 6769 1fbd abaf d93c
00000350: eeff 57bd 8b21 c53d dae0 da3d cb09 20bb
00000360: 362b cd3d 029b a33d 4379 e73d a79b ab3c
00000370: 19da 063e 5f56 65bc b266 66bd 4cfd 5c3d
00000380: 2c88 3d3d fa3d c6bd d3cb 8cbc ad66 e63d
00000390: f1da 88bd 0e25 8dbd ae6d c1bd f7b4 89bd
000003a0: 8c6c 053d 9fa3 7a3d 1a2c 6d3d 857f 283d
000003b0: 39b3 c6bc 5caf f53d 678c a3bd 6f0b eabc
000003c0: 329c 083e d257 a53d a761 9739 cf70 bf3d
000003d0: c775 a83d 9f79 97bd 880e 83bd a206 6cbd
000003e0: f44b cb3d d003 fbbc 73fe 27bd 1e34 453b
000003f0: e32d c1bd 088a b63d 453a 943a b026 b9bd
0.07122997 0.10268752 0.033629104 0.13319446 -0.058674388 0.069433644 -0.015667364 0.02866908
0.08210075 0.13073449 0.039765775 0.058604624 0.1076162 0.121518426 0.1090539 0.09789472
-0.075357825 0.06606185 -0.10312722 0.054559268 -0.021451343 -0.055537425 -0.037846185 -0.040950105
0.064943746 0.006909693 0.066042714 0.006027647 0.028755011 0.09468272 0.056567818 -0.017517777
0.1034938 -0.05767113 0.11011439 -0.008787133 -0.01587726 -0.08477273 -0.00154453 0.04685652
-0.055019487 -0.079680964 -0.005974853 0.091115244 -0.09302699 0.05134172 0.022433374 0.0218319
-0.056748435 0.08169522 -0.1009546 -0.0050926907 0.011358649 -0.041575924 -0.0084930295 -0.033827044
0.042102914 0.055513773 -0.03711273 -0.060155343 -0.03961792 0.071056046 0.061699208 0.014454339
-0.076408625 0.03033539 -0.10312598 -0.041677713 0.082007706 -0.097488336 0.046755344 0.11990587
0.0069573713 0.070204295 0.08881395 0.10851208 0.12321556 0.09739516 -0.090285465 0.040885687
-0.037788544 0.10529099 -0.022831263 0.027026972 -0.07449542 -0.01953663 -0.0689191 -0.045066584
-0.06813268 0.06410809 -0.111188374 -0.119558014 -0.04784777 0.065866314 0.006582321 -0.019969802
0.03329085 -0.06670619 0.020730222 0.034087207 -0.12905225 -0.078506365 -0.037018474 -0.024559043
0.050323088 0.0451686 0.031133192 -0.116717905 -0.032178305 0.06110993 -0.0738176 0.086383425
-0.06539296 -0.014111856 0.051328078 0.056344766 0.07433509 0.04687083 0.06349429 -0.02494709
-0.001628269 -0.08703129 -0.04210916 0.028875697 0.06270937 0.091487795 0.0796109 0.029114265
0.034404203 0.06065436 -0.042408735 0.083651856 -0.044255074 0.06729895 0.09219301 -0.058933068
0.084527306 0.09139263 0.042631183 0.08348462 0.08420214 0.0047187954 0.026742347 -0.00011284476
-0.12057624 -0.10920794 0.059307773 -0.026404195 -0.14524831 -0.13472597 -0.079144455 -0.026810108
-0.11009213 -0.11028354 -0.107079126 0.019191671 -0.11473096 0.015045995 -0.0055760946 -0.02648053
-0.007926798 -0.05403668 -0.0052479287 -0.061463706 -0.08258691 -0.04447822 -0.10407175 0.06370113
0.017835759 -0.010220672 0.064171754 0.09572313 0.08545145 -0.005821976 -0.07705255 0.010669888
-0.103036575 -0.019921301 -0.0047327764 -0.026973404 -0.11693806 -0.10569464 -0.07326613 -0.0035789558
-0.13778596 -0.014276114 0.058542125 -0.10557745 0.05500463 -0.07795196 0.0526171 0.019916648
0.005394448 0.0059364196 -0.018743685 0.04876778 -0.15593126 0.06804423 0.04851138 -0.09640023
0.088615954 0.02112682 -0.10841433 0.0029127526 -0.06044106 -0.1412734 0.024607187 -0.037595432
0.093242906 0.06477475 -0.03891888 0.026573023 -0.052734308 0.096255384 0.10687418 -0.00244199
0.100180075 0.0798855 0.11302426 0.020948244 0.13169135 -0.013997643 -0.05625028 0.0539525
0.04627244 -0.0967979 -0.017187035 0.112500526 -0.06682385 -0.06891833 -0.09444748 -0.067239694
0.03257422 0.061191197 0.057903387 0.041137237 -0.024255382 0.11996338 -0.07985764 -0.028569905
0.13340834 0.08073391 0.0002887372 0.093476884 0.08225589 -0.07396244 -0.06399256 -0.057623513
0.09926596 -0.030641466 -0.041014146 0.0030090879 -0.0943258 0.08913046 0.001130887 -0.09040582

conv_transpose2.bias f4 [8]
00000000: eba4 e13c 9358 ca3d f92c 18be 330e 163e
00000010: bae2 28be 67ef dabc 6292 203d 9f7f d9bd
0.02754446 0.098801754 -0.14860906 0.14653854 -0.1649274 -0.026725484 0.0392021 -0.10620045

conv_transpose3.weight f4 [8, 1, 5, 5]
00000000: 810c 783e 27c6 f3bd 9695 9fbd 798f fdbc
00000010: 7fc5 08be e0f8 753e 253d af3d 5568 013e
00000020: 1a13 b73b 026c 38be 8f0e 153e 71a1 d53d
00000030: f620 0b3e dac9 20be db23 e1bd 7d4b a83d
00000040: 85a0 363e 88d9 d8bd 4702 74bd 0419 9dbd
00000050: 9cea a8bd 0ac0 aebc 073f 12bd e252 20be
00000060: 1877 4d3d 58f5 1b3e 8860 79bc 4ac4 c4bd
00000070: 6d80 a33d 1e18 2cbe e347 223d a28b 373c
00000080: 559b 46bd 8e21 163d a0f5 7bbe 189b 3a3e
00000090: c819 943d f4c2 abbc a2ca 73be 0802 4cbe
000000a0: 845a c43c 408b 9c3d a566 ae3d a482 5abe
000000b0: 0520 2ebe 29c9 09be 3d18 9fbd d0f4 dc3d
000000c0: 2aef 0b3e c0c1 053d 58ca 89bc e53e 0fbd
000000d0: 879e b23d 7c44 8d3c fcbd a2bd d738 823d
000000e0: 4217 9bbd 9da4 213e 0ec6 033e 2c59 173e
000000f0: 729e c13c 2839 f83c 5264 4d3e b21f e13d
00000100: a3dd 1e3e 0486 ed3d f5b2 653d 382d 15be
00000110: 4c03 92bc 5267 14be 80e6 90bd 6424 4f3a
00000120: 6720 51be aec2 e43c 795e 00be 1b36 e63d
00000130: 15ff 01be 8640 14be 57bc b4bd c8c4 48be
00000140: cdcc 21be 170b 16be 03e4 be3d 3cf9 a43c
00000150: d775 e9bd 6e2f 3bbd e1a2 a43c e719 cf3c
00000160: c785 06be b938 3cbe e922 11be 9371 12bd
00000170: 9232 25be 2002 febd 4d75 40bd c22d 65bd
00000180: 14e6 d4bd e27f 5cbe 7f4e 15be 761d 0b3e
00000190: ed74 0dbd 2564 3d3d cf82 88bc e0eb 023e
000001a0: 6ab8 3b3d 3976 583e cebf b93d c814 1b3e
000001b0: 9e4a 9e3b d73c e0bc abab 793d 182b 5f3e
000001c0: 57fb 18be 4aa7 99bd 24ec c83d ca32 f03d
000001d0: ecca 1abe 04cd b23d 85b4 073e d459 1a3e
000001e0: 491f 563e 879e fc3d 2e32 953d c9df 123e
000001f0: 161b 80bd c59c fbbc 6b1e 683e bdda b83d
00000200: 0499 c83d 8314 573e 6967 273e f3db 0b3e
00000210: c14c e6bd 21dd fdbd 0216 693d fa21 3b3e
00000220: 87b1 b83d 7b85 f9bd 00cc a63d 52b5 78bc
00000230: 379e cebd f9f1 cdbd 2ba4 a5bd 4340 ccbd
00000240: 6756 cc3d 3287 58be 724d 063d e439 6ebc
00000250: 549c b63c 4ead 673d 07c2 1d3e 6c78 433d
00000260: cda2 803d d0a6 a0bd c3fb 79bc 756d 8e3d
00000270: fd9f dbbd ae4c 133d fb77 4fbd b7ae 9fbd
00000280: 0e78 90bd 0fe6 0b3e 4738 d63c fe10 2d3e
00000290: d6dd 7abd 49be cd3d 6180 bc3d d20d 14be
000002a0: 0d40 f23d 2180 e9bd e87e 113e 5d6e 31be
000002b0: dc9f 3cbe f47b ffbd 0fb3 d7bd d438 c53c
000002c0: 230b de3c 73e5 813c 5e72 16be e469 c33d
000002d0: 85b2 8dbd 3517 303e cfa1 99bb 83cf f03c
000002e0: d4bb c9bd 8bd9 0cbd 4e2d 8b3d bd5a acbd
000002f0: 4e62 383e 2db3 333e 1b04 13be 6880 a0bb
00000300: 1812 12be 4146 583e 07dd 2b3e 7cad 20be
00000310: c3fd c63d 4eb7 8d3d 9510 413c 5cea 06be
0.2422352 -0.11903029 -0.07792203 -0.030952202 -0.13356589 0.2402072 0.08556584 0.12637456
0.005586994 -0.18009952 0.14556335 0.10431183 0.13586792 -0.15702 -0.10993167 0.08217523
0.17834671 -0.10588366 -0.059572484 -0.07670787 -0.08247873 -0.021331806 -0.03570464 -0.15656617
0.050162405 0.1523031 -0.015220769 -0.09607752 0.0798348 -0.16806075 0.039619338 0.011202725
-0.04848798 0.036653094 -0.24605417 0.18223226 0.0723148 -0.020966984 -0.23807767 -0.1992265
0.023968942 0.07643747 0.08515672 -0.21338898 -0.17004402 -0.13455643 -0.07768295 0.10788882
0.13665453 0.032655478 -0.016820118 -0.03497209 0.08721643 0.01724457 -0.07946393 0.063584976
-0.075727955 0.15785451 0.1286852 0.1478011 0.023635123 0.030300692 0.200578 0.109923735
0.15514235 0.11597827 0.05607887 -0.14568031 -0.017823838 -0.14492539 -0.070752144 0.0007901846
-0.20422517 0.027924862 -0.12536038 0.112407885 -0.12694962 -0.14477739 -0.088249855 -0.19606316
-0.15800782 -0.14652668 0.093208335 0.020138375 -0.11399429 -0.04569953 0.020097198 0.025280906
-0.1313697 -0.18381013 -0.14173473 -0.035752844 -0.16132572 -0.12402749 -0.046986867 -0.05595184
-0.103954464 -0.21533158 -0.14580725 0.13585457 -0.034535337 0.046238083 -0.016663937 0.12785292
0.045830168 0.21138848 0.09069787 0.15144646 0.0048306724 -0.02737276 0.06095473 0.21793783
-0.14939629 -0.07502611 0.09810665 0.11728437 -0.15116471 0.0873051 0.13252456 0.15073329
0.20910372 0.12334924 0.07284962 0.1434318 -0.06255166 -0.030714402 0.22667854 0.09026096
0.097948104 0.21003918 0.16348042 0.13658123 -0.112451084 -0.123956926 0.056905754 0.1827468
0.09018236 -0.121836625 0.08144379 -0.015179949 -0.10088771 -0.10055918 -0.08087953 -0.099731945
0.099774174 -0.21145323 0.0327887 -0.014540169 0.02229134 0.05656176 0.15406047 0.047722265
0.06281052 -0.07844317 -0.015257779 0.06954471 -0.10723875 0.0359618 -0.05065153 -0.07796996
-0.070541486 0.13661979 0.026149882 0.16901013 -0.061246715 0.1004606 0.09204174 -0.14458397
0.11828623 -0.11401392 0.14208567 -0.17327257 -0.18420357 -0.12474814 -0.105321996 0.02407495
0.02710492 0.01585648 -0.14692065 0.095416814 -0.069188155 0.17196353 -0.0046884785 0.029395824
-0.098502785 -0.034387153 0.067957506 -0.084157445 0.1800625 0.17548819 -0.14357035 -0.0048981197
-0.14264715 0.2112055 0.16783534 -0.15691179 0.0971637 0.06919728 0.011783739 -0.13175339
