code/models/big_obs_encoder_16.pth (torch, 438506 bytes, 10 tensors)

conv1.weight f4 [8, 1, 5, 5]
-0.122313514 -0.03440976 0.2115912 -0.044619914 -0.1687482 0.14530659 0.1004542 0.09402461
0.1975813 0.2360583 0.14591187 0.019264845 -0.16527286 -0.15815468 0.19396476 0.275864
0.036998425 0.19503224 0.23776679 -0.120217524 -0.04022162 -0.16998774 -0.22248206 0.13941215
-0.008656997 -0.04879283 -0.048513003 -0.09209966 -0.027091583 -0.16745992 0.15396792 0.23744346
0.10744006 -0.012627786 -0.16815197 0.108059265 0.09856926 0.11380646 0.014375255 0.06994695
0.107036926 0.042925198 0.2704821 0.027552193 -0.1287748 0.1847591 0.2585044 0.20017569
0.19597973 0.24914788 0.18370643 0.087040275 0.062263582 0.15698223 0.07166053 -0.105226174
-0.10287851 -0.25346553 -0.13078418 0.1299833 -0.07978244 -0.15321752 -0.049259625 0.09084407
-0.073220566 0.1798288 -0.1971624 0.10201841 -0.0730431 0.014989584 0.09463063 0.14927904
0.043864705 0.007486722 0.22102179 0.1109939 -0.015600034 -0.17285539 0.16374062 -0.049025383
-0.022484288 0.121266976 0.20825121 0.21169227 -0.0014699067 0.18082827 0.12462675 0.17787215
0.25406867 -0.008711381 -0.16056393 -0.025637917 0.080026776 0.20777637 0.046377122 0.030201174
-0.21193881 -0.19888511 0.1687046 0.08620861 0.19032459 0.14913118 -0.074916005 0.1476422
0.10996553 0.24654084 -0.052829217 -0.2615438 0.018601408 -0.03894674 0.13051158 -0.003916473
-0.09826804 -0.164333 -0.16403465 0.27591577 -0.29522267 -0.26093546 -0.10974513 -0.22010028
0.014814659 0.027524713 -0.17425029 -0.19640501 -0.19619139 0.13562173 0.12615576 -0.052645814
0.2853475 0.119691096 -0.19972563 -0.1515394 -0.03943418 0.103618175 0.058478218 0.14931773
0.26132113 0.100872785 0.24085389 0.157315 -0.053066637 -0.11792057 0.11337322 0.19874562
0.18827045 0.018466355 0.15253456 -0.032947928 0.039677165 -0.0012120627 -0.013935173 0.18146883
-0.03929452 0.072988726 -0.01553681 0.30687717 0.3588645 0.007232692 -0.05709788 -0.041707426
0.12063232 0.26203343 0.2019541 -0.15476695 0.16006799 -0.0656211 0.031199535 0.13159844
0.09043527 -0.057320006 -0.119974405 0.22359444 0.09466682 -0.09303728 -0.039489232 -0.21863292
-0.13035668 -0.1040309 0.08970371 0.114122115 -0.088474415 0.07002268 0.045350928 0.27017233
0.087855324 0.14706321 0.006039271 0.20736615 0.26522717 -0.12998967 0.075594455 0.27736607
0.06757088 -0.092051886 -0.044594783 0.06692931 0.1467982 0.18877387 -0.1996891 -0.12175217
00000000: 827f fabd 40f1 0cbd 5dab 583e 5fc3 36bd
00000010: 54cc 2cbe 40cb 143e eeba cd3d fa8f c03d
00000020: c152 4a3e 44b9 713e ec69 153e 4fd1 9d3c
00000030: 4a3d 29be 4df3 21be b39e 463e 0c3e 8d3e
00000040: a98b 173d 88b6 473e 2379 733e 9b34 f6bd
00000050: 6dbf 24bd 4411 2ebe 56d2 63be 0fc2 0e3e
00000060: 14d6 0dbc feda 47bd 92b5 46bd bf9e bcbd
00000070: 2bef ddbc 9d7a 2bbe c4a9 1d3e 6124 733e
00000080: 8909 dc3d c6e4 4ebc 0830 2cbe 2d4e dd3d
00000090: aede c93d 5c13 e93d 3186 6b3c 5940 8f3d
000000a0: 2d36 db3d 55d2 2f3d a17c 8a3e 23b5 e13c
000000b0: 8bdd 03be 7d31 3d3e b05a 843e dbfa 4c3e
000000c0: e9ae 483e 9f20 7f3e 8a1d 3c3e 2c42 b23d
000000d0: 1908 7f3d f3bf 203e c2c2 923d d280 d7bd
000000e0: f8b1 d2bd 3cc6 81be 4aec 05be 581a 053e
000000f0: fa64 a3bd 0ee5 1cbe 76c4 49bd 750c ba3d
00000100: aaf4 95bd 0a25 383e f1e4 49be 07ef d03d
00000110: 9f97 95bd df96 753c b4cd c13d 9bdc 183e
00000120: 7aab 333d 2d53 f53b 8953 623e c550 e33d
00000130: 4997 7fbc 0101 31be 9fab 273e d7ce 48bd
00000140: f830 b8bc d25a f83d ce3f 553e dcc5 583e
00000150: e2a9 c0ba 0c2b 393e 4f3c ff3d 1e24 363e
00000160: 4a15 823e 2eba 0ebc df6a 24be 9c06 d2bc
00000170: 14e5 a33d 54c3 543e f0f5 3d3d 7468 f73c
00000180: 7d06 59be 8aa8 4bbe e6c0 2c3e 248e b03d
00000190: 73e4 423e d8b5 183e 906d 99bd 842f 173e
000001a0: 9c35 e13d 3475 7c3e 7363 58bd 12e9 85be
000001b0: fb61 983c 9e86 1fbd d4a4 053e c255 80bb
000001c0: c140 c9bd e946 28be b3f8 27be d544 8d3e
000001d0: 6d27 97be 5599 85be 0ec2 e0bd f861 61be
000001e0: 2fb9 723c 827b e13c ab6e 32be 651e 49be
000001f0: 65e6 48be 6ce0 0a3e fa2e 013e 23a3 57bd
00000200: 1119 923e 9b20 f53d e084 4cbe 252d 1bbe
00000210: bc85 21bd c435 d43d db86 6f3d bfe6 183e
00000220: e2cb 853e 6496 ce3d 67a2 763e 2f17 213e
00000230: 675c 59bd 5780 f1bd 3830 e83d f983 4b3e
00000240: f8c9 403e c146 973c 0532 1c3e 68f4 06bd
00000250: 8684 223d 13de 9eba 5a50 64bc f7d2 393e
00000260: 4af3 20bd 1d7b 953d 1b8e 7ebc 011f 9d3e
00000270: 16bd b73e 3800 ed3b 77df 69bd 68d5 2abd
00000280: 140e f73d 3f29 863e 0ecd 4e3e 3a7b 1ebe
00000290: dde8 233e 5b64 86bd 2b96 ff3c bec1 063e
000002a0: 2036 b93d 62c8 6abd 24b5 f5bd f1f5 643e
000002b0: ade0 c13d 548a bebd 76bf 21bd 4fe1 5fbe
000002c0: 397c 05be 270e d5bd 94b6 b73d dbb8 e93d
000002d0: 1332 b5bd 0d68 8f3d e5c1 393d 0754 8a3e
000002e0: 7eed b33d bd97 163e 14e5 c53b cb57 543e
000002f0: dbcb 873e 031c 05be 44d1 9a3d ed02 8e3e
00000300: 9a62 8a3d b385 bcbd 05a9 36bd 3c12 893d
00000310: 4452 163e f04d 413e 4d7b 4cbe 3459 f9bd

conv1.bias f4 [8]
0.08015067 -0.08556695 0.200435 -0.10132541 -0.083323695 -0.007154027 -0.00010100515 -0.001571643
00000000: 0926 a43d ba3d afbd d53e 4d3e b283 cfbd
00000010: 9da5 aabd 546c eabb bad2 d3b8 97ff cdba

conv2.weight f4 [16, 8, 3, 3]
0.010045776 0.1347158 0.14457306 0.14315501 0.13690995 0.22388037 -0.11484255 -0.0036066137
-0.10170697 -0.11223316 0.119758226 -0.03649037 -0.052144643 0.13803887 0.066801384 -0.1301617
-0.100318156 0.07425498 -0.06620861 -0.11159053 -0.030364461 0.07391887 -0.034039326 -0.1169721
0.10281219 0.050632045 0.18048061 0.01141591 0.054737 -0.03990809 -0.021310262 0.13734779
-0.042317275 -0.113796875 0.013762056 0.03756415 0.019484706 -0.009898137 0.045026604 -0.025466198
-0.1443952 0.03660015 0.13508022 0.052659404 0.08102365 0.09692569 0.059918337 0.035002824
0.06284914 0.11375394 -0.058867726 0.060277525 0.15656924 0.124952085 0.08200076 0.03576899
-0.07322804 -0.050867744 0.07213446 0.064363584 0.017651182 0.0423183 -0.033534817 -0.09375527
0.1848647 -0.01484982 0.09869174 -0.0070123575 0.061288383 0.08854127 0.024672464 -0.11115125
0.14556989 -0.006971635 -0.048967358 0.02060562 -0.09605714 -0.07817611 -0.017832777 -0.07016923
0.008472815 -0.04756821 -0.30928305 -0.24378215 -0.058793265 -0.04528366 -0.08516734 0.1779371
0.041714698 0.060553193 0.09850416 0.105781026 0.2614821 0.11660352 0.23913369 0.01585999
0.2195074 0.041230462 0.14483565 -0.14915152 -0.10846739 -0.0399514 -0.26572874 -0.27611226
0.05139308 0.013643141 -0.16507995 -0.13291904 0.19178735 -0.02554628 -0.19586147 0.10719175
-0.09210203 -0.17071448 0.07737497 -0.024234332 -0.154127 0.08320667 -0.044598643 0.043464232
-0.17414941 -0.024804505 0.1068979 -0.07819205 -0.09424683 0.015925577 -0.07325689 -0.056860402
-0.02000851 -0.110047966 -0.24638848 -0.23817778 -0.04706369 -0.030709628 0.03840436 0.05716747
-0.17530832 -0.18466075 0.011306874 -0.14507546 -0.12367038 -0.1627512 -0.037311435 0.08053123
-0.012918649 -0.05219189 0.09303925 0.15560642 0.12434469 0.20143491 0.0011305083 0.07222661
0.02823794 0.07800297 0.15377285 -0.05020345 0.063387014 0.044078708 0.041404746 0.0072086235
-0.036734525 0.08746806 0.08923589 -0.11041686 0.04891675 0.043473065 -0.049774405 0.028595075
0.14033462 -0.06083096 0.0681988 -0.020139003 0.092190854 -0.005261561 0.036822457 0.13029811
-0.013282225 0.10724642 0.06824256 -0.046620756 -0.07365589 -0.14962488 -0.030343145 -0.037938006
0.06030487 -0.0066772588 0.008596814 -0.07977472 0.06160401 -0.056136888 0.10514042 0.013113479
-0.0202649 0.12352755 -0.03850541 0.18075672 0.047082275 0.016496822 0.00012546111 0.004989981
0.057430346 -0.05091821 0.18288684 0.14652105 -0.092621244 0.014843428 0.085935585 0.06737617
0.030718584 0.0148614 0.13861224 0.19770186 -0.10693408 0.18155247 -0.02043385 -0.05185001
0.0737757 0.10689179 -0.053793646 -0.031801518 0.15322597 0.14992593 -0.10659442 -0.0850421
-0.055334922 0.09742997 0.10362408 -0.07500942 0.08805316 0.17967072 0.14688855 -0.05334817
0.12759215 -0.052557036 4.155472e-05 -0.04555581 0.13908601 -0.0024182957 0.02293251 0.028558424
0.13105258 -0.10229017 -0.017795485 -0.062520206 -0.05152166 -0.12610026 0.1472341 0.15183868
0.027610747 -0.018844403 0.0037422965 0.16429085 -0.046124995 -0.123028465 0.12552705 -0.08740323
00000000: 0a97 243c f0f2 093e f60a 143e 3a97 123e
00000010: 1f32 0c3e e540 653e 9232 ebbd f05c 6cbb
00000020: be4b d0bd 80da e5bd cd43 f53d ed76 15bd
00000030: 9f95 55bd 105a 0d3e 2acf 883d 1c49 05be
00000040: 9b73 cdbd ff12 983d 6198 87bd 9389 e4bd
00000050: e4be f8bc c762 973d d26c 0bbd 128f efbd
00000060: 338f d23d 8c63 4f3d e9cf 383e cc09 3b3c
00000070: e833 603d aa76 23bd dc92 aebc e6a4 0c3e
00000080: e154 2dbd 560e e9bd 3f7a 613c dedc 193d
00000090: 649e 9f3c cc2b 22bc d16d 383d 7d9e d0bc
000000a0: 56dc 13be 0aea 153d 7852 0a3e 63b1 573d
000000b0: baef a53d fa80 c63d ee6c 753d 1f5f 0f3d
000000c0: 0db7 803d d3f7 e83d 491f 71bd 91e5 763d
000000d0: b053 203e e1e6 ff3d 04f0 a73d 8182 123d
000000e0: 95f8 95bd b25a 50bd 3bbb 933d 0ed1 833d
000000f0: 3699 903c f455 2d3d ce5b 09bd c302 c0bd
00000100: 2c4d 3d3e a94c 73bc e51e ca3d ebc7 e5bb
00000110: 8709 7b3d 2055 b53d e81d ca3c 44a3 e3bd
00000120: 4610 153e 5072 e4bb ff91 48bd 1ecd a83c
00000130: 9bb9 c4bd cc1a a0bd 0b16 92bc e3b4 8fbd
00000140: 90d1 0a3c e2d6 42bd 595a 9ebe 07a2 79be
00000150: 35d1 70bd 5c7b 39bd 376c aebd 2535 363e
00000160: 08dd 2a3d a006 783d 8dbc c93d b9a3 d83d
00000170: fbe0 853e d4cd ee3d 76df 743e cfec 813c
00000180: 8cc6 603e 46e1 283d cc4f 143e 2dbb 18be
00000190: 2724 debd 14a4 23bd 990d 88be 965e 8dbe
000001a0: 8d81 523d 7b87 5f3c b80a 29be ee1b 08be
000001b0: e763 443e 6f46 d1bc e98f 48be 5987 db3d
000001c0: fd9f bcbd c7cf 2ebe c576 9e3d 1487 c6bc
000001d0: 78d3 1dbe 4268 aa3d 11ad 36bd 8d07 323d
000001e0: 3954 32be d132 cbbc 49ed da3d 2723 a0bd
000001f0: 7b04 c1bd 5b76 823c b507 96bd 74e6 68bd
00000200: e3e8 a3bc d460 e1bd 434d 7cbe e0e4 73be
00000210: dbc5 40bd c292 fbbc e44d 1d3d 7028 6a3d
00000220: 0684 33be b517 3dbe 7840 393c a98e 14be
00000230: e546 fdbd 40a8 26be e0d3 18bd 8fed a43d
00000240: bea8 53bc 2ac7 55bd 5d8b be3d 4a57 1f3e
00000250: 6ea8 fe3d f444 4e3e 902d 943a 8beb 933d
00000260: 4153 e73c 05c0 9f3d a176 1d3e 22a2 4dbd
00000270: 0dd1 813d e08b 343d 0698 293d 5136 ec3b
00000280: f176 16bd 7422 b33d 4ec1 b63d 3c22 e2bd
00000290: ee5c 483d d010 323d 3fe0 4bbd 3840 ea3c
000002a0: e1b3 0f3e e229 79bd d0ab 8b3d 8dfa a4bc
000002b0: 8fce bc3d 2c69 acbb 25d3 163d de6c 053e
000002c0: b09d 59bc 03a4 db3d c1c2 8b3d 68f5 3ebd
000002d0: e6d8 96bd 4437 19be 3092 f8bc e264 1bbd
000002e0: 3d02 773d e8cc dabb a7d9 0c3c ee60 a3bd
000002f0: 7d54 7c3d cbef 65bd dc53 d73d ebd9 563c
00000300: 9302 a6bc 03fc fc3d d9b7 1dbd 4a18 393e
00000310: 58d9 403d 5824 873c 368e 0339 ff82 a33b
00000320: 153c 6b3d 9d8f 50bd b046 3b3e 9d09 163e
00000330: 35b0 bdbd d931 733c fffe af3d 84fc 893d
00000340: 8aa5 fb3c 3b7d 733c 5ef0 0d3e 5b72 4a3e
00000350: 4100 dbbd e4e8 393e e464 a7bc ad60 54bd
00000360: b717 973d 15ea da3d ba56 5cbd 4f42 02bd
00000370: 45e7 1c3e 2f86 193e 2d4e dabd 8d2a aebd
00000380: dfa6 62bd 5d89 c73d dd38 d43d 8a9e 99bd
00000390: 3755 b43d 9afb 373e f469 163e 9c83 5abd
000003a0: 84a7 023e 0c46 57bd 0a4b 2e38 bb98 3abd
000003b0: 906c 0e3e 457c 1ebb f6dc bb3c 5bf3 e93c
000003c0: a632 063e 827d d1bd d6c7 91bc 980a 80bd
000003d0: 6008 53bd 6d20 01be 89c4 163e 997b 1b3e
000003e0: ef2f e23c 945f 9abc 5141 753b dc3b 283e
000003f0: 90ed 3cbd 59f6 fbbd 2a8a 003e 7700 b3bd

conv2.bias f4 [16]
0.009946718 0.24354179 0.020046059 0.029870356 -0.017773878 0.1099912 0.121027105 -0.00810271
0.052439768 0.16513522 0.076652594 -0.11467661 0.008936944 0.08711468 0.047148563 -0.044703867
00000000: 8ff7 223c 0563 793e a237 a43c adb2 f43c
00000010: 869a 91bc 1143 e13d 0fdd f73d 3bc1 04bc
00000020: 15cb 563d 3519 293e 09fc 9c3d 92db eabd
00000030: 436c 123c 2e69 b23d da1e 413d 671b 37bd

conv3.weight f4 [32, 16, 3, 3]
0.032322034 0.08379465 0.05659657 0.10013541 0.03469442 0.06418766 -0.045283776 -0.04684552
-0.013257368 0.03399802 -0.023797544 -0.118566595 -0.08027497 -0.11841071 -0.0988395 0.12908989
0.052628372 0.06762379 0.04876946 0.016139494 -0.020527534 -0.004282321 -0.00686799 0.10658803
0.017951949 -0.024839351 0.08044524 0.07108173 0.04971982 0.023318151 0.032830376 -0.021049207
-0.03384439 -0.12449618 -0.047279958 -0.06511075 -0.013884644 0.12573168 0.076864064 -0.008249498
0.07134709 0.020553699 -0.09650767 -0.11566733 0.04928074 0.072168544 -0.020419853 -0.024016883
0.0481269 0.12147587 0.08441761 0.009474044 0.10481863 -0.01660678 0.06607137 -0.06437984
-0.007917218 0.008662703 -0.08679095 -0.03193621 0.13918997 0.06988107 0.08660143 0.052533735
0.042476475 0.098479725 0.12889618 -0.002399199 -0.01170184 0.09307812 0.021857087 0.027342817
0.10587394 0.12972704 0.07891828 0.07035856 0.12910877 -0.017542718 0.060481194 -0.0012097543
0.039351925 -0.08073574 -0.08718854 -0.09820683 0.065086395 -0.008380979 -0.114614904 0.0114536695
0.035686284 0.08970245 0.0017589008 -0.048399877 -0.060831696 -0.020700969 0.036719434 -0.030521384
0.0713638 0.054972295 0.07639777 0.012062715 -0.13420139 -0.064379595 -0.1126062 -0.12124442
0.042302005 -0.00637179 0.07483715 0.00489538 0.08353298 0.1735322 -0.013690532 0.061900914
0.052999612 0.0583101 0.032510486 0.042462442 -0.018966483 0.056808252 -0.07237435 -0.07696486
-0.008061524 -0.051701866 -0.042180113 0.12595543 0.12537107 -0.0031784538 0.10143729 0.12359253
0.104813665 0.010336931 0.04266557 0.12939095 0.061055962 -0.017975241 0.0053994553 0.010397348
0.09602919 -0.021521173 -0.05688295 0.07778634 0.107039824 -0.005377695 -0.016355582 0.010838722
0.023273593 -0.0406129 -0.03042579 -0.06488356 -0.027066553 -0.115449674 0.05132209 -0.09543981
-0.05328956 0.22842622 0.28697944 0.31010962 0.33362567 0.38712808 0.31271216 0.11672582
0.18886091 0.1813773 0.033351503 -0.014467311 -0.055193115 -0.0877359 0.012850092 -0.053364724
0.060905203 0.07005491 0.03746114 -0.07703347 -0.16365148 -0.08231123 0.040945794 -0.07888395
-0.055326737 0.099683456 -0.054562878 -0.06094285 -0.064863555 -0.10117952 -0.07916254 0.06492951
-0.1371269 -0.06402606 0.055317767 -0.059821665 0.0048585227 0.081348345 -0.0124621885 0.061495923
0.02912682 0.009574029 0.000640299 -0.00020632322 0.0032716799 0.010804923 0.04437431 0.27232373
0.392445 -0.026278317 0.34968877 0.44004261 -0.0878854 0.017830199 0.25871235 -0.0018517018
-0.097351335 0.072669744 0.0062190914 -0.14115079 -0.023278112 0.08447258 0.04702104 -0.0034177825
-0.067958005 -0.072517075 0.011337783 -0.05916044 -0.02909837 0.060042307 0.0152976895 0.018054297
0.08902677 0.30283302 0.38364652 0.29267496 0.30095652 0.3226813 0.33617058 0.04216582
0.32255122 0.22461435 0.21394782 0.3541534 0.3216794 0.3001187 0.30276036 0.15828075
0.04455132 0.17653376 0.05720239 0.047615018 0.08604497 0.046304025 -0.034962714 -0.015368746
-0.054642014 0.024284514 0.0063555683 -0.13697252 -0.10956178 -0.12592845 -0.018715607 -0.0013829828
00000000: 1c64 043d 889c ab3d ced1 673d cb13 cd3d
00000010: bc1b 0e3d d274 833d 7b7b 39bd 17e1 3fbd
00000020: 6e35 59bc 8241 0b3d 11f3 c2bc 0bd3 f2bd
00000030: 3467 a4bd 5081 f2bd 5d6c cabd 2430 043e
00000040: d990 573d 577e 8a3d 7cc2 473d f936 843c
00000050: 5c29 a8bc b652 8cbb e00c e1bb d34a da3d
00000060: f70f 933c e57b cbbc 79c0 a43d 4c93 913d
00000070: 03a7 4b3d b505 bf3c 2579 063d 636f acbc
00000080: 6aa0 0abd daf7 febd a1a8 41bd c958 85bd
00000090: 6b7c 63bc cebf 003e e86a 9d3d e728 07bc
000000a0: 6c1e 923d 3b60 a83c d0a5 c5bd fee2 ecbd
000000b0: 9ada 493d 1acd 933d 8947 a7bc 0ebf c4bc
000000c0: b620 453d 57c8 f83d 24e3 ac3d 0539 1b3c
000000d0: 26ab d63d f10a 88bc 6d50 873d 94d9 83bd
000000e0: 38b7 01bc 03ee 0d3c 74bf b1bd 8bcf 02bd
000000f0: d187 0e3e ce1d 8f3d 175c b13d 9d2d 573d
00000100: d0fb 2d3d bdaf c93d 5cfd 033e e13b 1dbb
00000110: 13b9 3fbc be9f be3d a20d b33c 0bfe df3c
00000120: 70d4 d83d 2ad7 043e e89f a13d 2618 903d
00000130: 1735 043e bfb5 8fbc 21bb 773d 9e90 9eba
00000140: 7c2f 213d c858 a5bd e88f b2bd aa20 c9bd
00000150: 044c 853d 6050 09bc 38bb eabd 2ca8 3b3c
00000160: c82b 123d ebb5 b73d eb8a e63a f33e 46bd
00000170: a82a 79bd 1495 a9bc 1e67 163d fb07 fabc
00000180: 2f27 923d a12a 613d 6f76 9c3d b2a2 453c
00000190: 176c 09be 73d9 83bd 149e e6bd ff4e f8bd
000001a0: de44 2d3d 73ca d0bb 3844 993d 6d69 a03b
000001b0: 5713 ab3d 6db2 313e 414e 60bc d08b 7d3d
000001c0: 1f16 593d 92d6 6e3d b729 053d 19ed 2d3d
000001d0: 995f 9bbc c5af 683d 0139 94bd c19f 9dbd
000001e0: 7b14 04bc 56c5 53bd 0ec5 2cbd 76fa 003e
000001f0: 4661 003e 9b4d 50bb 5bbe cf3d 151e fd3d
00000200: 8ca8 d63d 3b5c 293c 18c2 2e3d 107f 043e
00000210: d115 7a3d d040 93bc eaed b03b a359 2a3c
00000220: f4aa c43d 2c4d b0bc 19fe 68bd 724e 9f3d
00000230: b237 db3d 6037 b0bb 24fc 85bc e594 313c
00000240: 43a8 be3c b659 26bd 823f f9bc ace1 84bd
00000250: adba ddbc e170 ecbd 1d37 523d f275 c3bd
00000260: 2746 5abd 90e8 693e f8ee 923e b0c6 9e3e
00000270: fcd0 aa3e a735 c63e cf1b a03e f20d ef3d
00000280: c164 413e f9ba 393e 969b 083d 4d08 6dbc
00000290: 2d12 62bd e1ae b3bd 3189 523c f894 5abd
000002a0: bc77 793d f378 8f3d da70 193d b9c3 9dbd
000002b0: 4194 27be ca92 a8bd c7b6 273d e98d a1bd
000002c0: 4a9e 62bd d726 cc3d 537d 5fbd 369f 79bd
000002d0: 2fd7 84bd 3537 cfbd f81f a2bd c3f9 843d
000002e0: fe6a 0cbe 1820 83bd e294 623d 9007 75bd
000002f0: 3e34 9f3b f699 a63d 352e 4cbc 26e3 7b3d
00000300: 5e9b ee3c 63dc 1c3c bdd9 273a 7858 58b9
00000310: ae69 563b 2207 313c d6c1 353d 046e 8b3e
00000320: 8dee c83e a045 d7bc 680a b33e 444d e13e
00000330: 43fd b3bd a310 923c f275 843e cdb4 f2ba
00000340: 2360 c7bd e0d3 943d 85c9 cb3b d589 10be
00000350: bdb1 bebc f6ff ac3d 2299 403d e0fc 5fbb
00000360: 912d 8bbd d583 94bd 1cc2 393c 3852 72bd
00000370: b45f eebc ecee 753d 29a3 7a3c 9be6 933c
00000380: ab53 b63d ee0c 9b3e 516d c43e 7ed9 953e
00000390: f916 9a3e 7c36 a53e 8d1e ac3e 11b6 2c3d
000003a0: 6f25 a53e 4e01 663e 2315 5b3e 9853 b53e
000003b0: 2ab3 a43e 29a9 993e 6803 9b3e 5914 223e
000003c0: 727b 363d 44c5 343e 0e4d 6a3d f707 433d
000003d0: 5838 b03d 4aa9 3d3d 1035 0fbd 31cd 7bbc
000003e0: 4ed0 5fbd 51f0 c63c 5f42 d03b 8642 0cbe
000003f0: ed61 e0bd 63f3 00be 7951 99bc 3445 b5ba

conv3.bias f4 [32]
0.015759487 0.021484016 -0.04333882 0.011314626 -0.015619798 0.047013357 0.065282226 0.12916476
-0.054446973 0.12555483 -0.030974917 0.03721936 0.026131319 0.15502538 -0.0342845 -0.047197215
0.05302465 0.0846914 0.0195702 0.04968836 0.040383864 0.06800533 -0.009448709 0.06322684
0.01383892 -0.059769098 -0.0053885044 0.103834644 0.10808109 -0.018511001 0.07442925 0.025680609
00000000: 0a1a 813c 3fff af3c 0c84 31bd fb60 393c
00000010: 2eea 7fbc 1491 403d b0b2 853d c443 043e
00000020: ca03 5fbd 7291 003e 1cbf fdbc 5473 183d
00000030: 5911 d63c f9be 1e3e e76d 0cbd de51 41bd
00000040: 6030 593d af72 ad3d af51 a03c 0686 4b3d
00000050: 8d69 253d 6146 8b3d c2ce 1abc 137d 813d
00000060: a3bc 623c 71d0 74bd 0d92 b0bb 42a7 d43d
00000070: 9e59 dd3d 62a4 97bc 5d6e 983d 2460 d23c

fc1.weight f4 [16, 3200]
-0.03863159 -0.028800104 0.00468732 0.022259895 0.05584566 0.065993935 0.049742654 0.054820884
0.082289375 0.0950735 -0.04318922 -0.0129194865 -0.029148685 0.009589648 0.0060829963 0.016428087
0.04886104 0.059393175 0.03667555 0.06667789 -0.017283624 -0.01974352 -0.014943616 -0.020329272
0.0029931935 -0.024335794 0.015075227 0.0267783 0.04504585 0.04548532 -0.013476145 -0.0150469
-0.002668085 -0.012560087 -0.013759302 -0.005349506 -0.017199928 0.009674028 0.02686397 0.030578172
0.012719613 0.013494893 -0.0028594858 -0.0069539887 -0.006154684 -0.016940778 -0.0002889484 -0.0013459028
0.002542448 -0.026962837 0.019749489 0.019728579 0.0018820695 0.0039436943 0.014894243 0.0015488438
-0.0020245237 -0.007886717 -0.03449829 -0.042406503 0.021372465 -0.005796834 0.011868874 -0.013091283
0.0039214673 -0.0016127776 0.007324512 -0.012665094 -0.020706479 -0.04206509 0.017148005 0.0003807522
0.0017736609 -0.027043102 -0.025431676 0.019775363 0.013970468 0.00576796 -0.028823629 -0.061874717
-0.013488031 -8.77145e-05 -0.031350024 -0.022271236 -0.0027864676 -0.015599025 0.030865427 0.0065039117
-0.0042813276 -0.030007508 -0.010784604 -0.021862648 -0.0137109775 -0.006460914 -0.009310136 -0.020823233
-0.007806737 0.009874648 -0.009593153 0.005629268 0.051544774 0.036588337 0.027923374 0.013268751
-0.029380577 -0.051813588 -0.045542423 -0.081102096 -0.059586346 -0.03518728 0.00087031367 0.03872913
0.038682148 0.0177047 -0.023124397 -0.018331608 -0.045601826 -0.06302846 -0.057682525 -0.05068653
-0.013760954 0.01528586 0.0034015973 0.026579237 0.0043387143 0.042787157 0.030895155 -0.018847996
-0.010417374 -0.030626068 -0.027408255 -0.03151351 -0.009510569 0.010090457 0.008282203 0.031479392
0.05032098 0.03869603 0.011604785 0.041852634 -0.054661896 -0.03229182 0.0026929756 0.005143472
0.024290653 0.011129539 -0.006501408 0.028909374 0.05419265 0.058381107 -0.055466384 -0.0068665324
-0.009765263 -0.0031986427 -0.006107636 -0.032030594 -0.039289262 -0.005793874 0.040040776 0.06391311
-0.033280123 -0.021386838 0.018285504 0.012232711 -0.0058954996 -0.021414991 -0.039829396 -0.0017410215
0.008316131 0.05820186 -0.03042574 -0.017815445 0.0229008 0.010900916 0.020577068 0.002583756
-0.025871012 -0.022684846 -0.004975678 0.03525534 -0.0072277593 0.01498012 0.033246156 0.036308784
0.056966137 0.02514947 -0.014082041 -0.022092162 -0.010988451 0.01416619 -0.018316355 -0.0035171232
0.022858515 0.03688592 0.042752627 0.036808062 -0.0022758606 -0.0006414037 -0.020320693 -0.026966425
-0.025185373 -0.015693128 -0.023082165 -0.008686686 0.017282577 -0.006940207 0.0070937574 0.013891482
0.02127155 0.07267134 -0.010245 -0.020576486 -0.015591852 -0.023134401 -0.022861162 -0.023015637
-0.018209936 0.011587805 0.030326756 0.035953246 0.038182113 -0.0130729405 -0.00031441002 0.007355824
-0.0106397355 -0.0058655697 -0.0022367162 -0.012522304 -0.017353237 -0.0016287841 0.024845835 0.0111308405
0.016978942 0.015617026 -0.01019693 -0.04080691 -0.02107009 -0.021948438 -0.023164738 -0.010263673
0.05093856 0.018716104 -0.012055657 -0.0058286185 0.017678434 -0.015043592 -0.0045607025 -0.018962324
-0.008962023 -0.025152858 0.02976733 0.026311005 0.011325641 -0.0038207609 0.013651357 0.016923513
00000000: 283c 1ebd 32ee ebbc 1798 993b 625a b63c
00000010: 6bbe 643d d427 873d f4be 4b3d dd8b 603d
00000020: 5587 a83d e5b5 c23d 2ee7 30bd 41ac 53bc
00000030: 39c9 eebc e61d 1d3c df53 c73b 3294 863c
00000040: 8422 483d 4246 733d 1a39 163d 6b8e 883d
00000050: 6396 8dbc 2abd a1bc 12d6 74bc 9389 a6bc
00000060: 7429 443b dc5b c7bc 16fe 763c 2a5e db3c
00000070: ff81 383d d14e 3a3d 0dcb 5cbc 4687 76bc
00000080: 0adb 2ebb d3c8 4dbc b26e 61bc e94a afbb
00000090: dde6 8cbc d07f 1e3c d411 dc3c 137f fa3c
000000a0: ec65 503c af19 5d3c 3666 3bbb 49de e3bb
000000b0: 3bad c9bb 63c7 8abc ff7d 97b9 0169 b0ba
000000c0: 339f 263b 2be1 dcbc aec9 a13c d49d a13c
000000d0: c6af f63a 1b3a 813b fc06 743c 9302 cb3a
000000e0: dfad 04bb 4a37 01bc 144e 0dbd 71b2 2dbd
000000f0: 4f15 af3c 5ef3 bdbb aa75 423c d27c 56bc
00000100: a77f 803b d663 d3ba 7602 f03b 4181 4fbc
00000110: a2a0 a9bc 724c 2cbd f979 8c3c b29f c739
00000120: 2f7a e83a 7f89 ddbc 1756 d0bc f1ff a13c
00000130: 64e4 643c 2801 bd3b 881f ecbc 5870 7dbd
00000140: e7fc 5cbc 5df3 b7b8 e268 00bd 2b72 b6bc
00000150: 2b9d 36bb 0e93 7fbc 7ed9 fc3c c41e d53b
00000160: 614a 8cbb 4ed2 f5bc e8b1 30bc 4c19 b3bc
00000170: 02a4 60bc 13b6 d3bb 8a89 18bc 7c95 aabc
00000180: a8cf ffbb 47c9 213c 9a2c 1dbc b975 b83b
00000190: 9d20 533d a7dd 153d 8fbf e43c 2d65 593c
000001a0: 89af f0bc 7c3a 54bd b18a 3abd db18 a6bd
000001b0: d010 74bd 8a20 10bd c325 643a 70a2 1e3d
000001c0: 2c71 1e3d 7209 913c 606f bdbc 2b2c 96bc
000001d0: fbc8 3abd 1115 81bd 8344 6cbd ae9c 4fbd
000001e0: a075 61bc 8b71 7a3c 55ed 5e3b b3bc d93c
000001f0: c62b 8e3b 9641 2f3d d617 fd3c 1d67 9abc
00000200: a2ad 2abc 85e3 fabc 4787 e0bc 4f14 01bd
00000210: 38d2 1bbc 7252 253c 14b2 073c 89f0 003d
00000220: 5f1d 4e3d ba7f 1e3d ff21 3e3c ab6d 2b3d
00000230: 27e5 5fbd 6d44 04bd a27c 303b 928a a83b
00000240: 31fd c63c ac58 363c c309 d5bb 5ad3 ec3c
00000250: 1df9 5d3d 0721 6f3d b830 63bd a600 e1bb
00000260: 7bfe 1fbc 52a0 51bb 9022 c8bb 8332 03bd
00000270: c7ed 20bd 8ada bdbb cc01 243d e0e4 823d
00000280: bd50 08bd 7333 afbc 7bcb 953c b56b 483c
00000290: 092f c1bb 7e6e afbc 2624 23bd fd32 e4ba
000002a0: 6240 083c 1365 6e3d 673f f9bc b2f1 91bc
000002b0: 759a bb3c c199 323c 3d91 a83c 3c54 293b
000002c0: 72ef d3bc 92d5 b9bc 030b a3bb e767 103d
000002d0: d7d6 ecbb 2d6f 753c 1f2d 083d 85b8 143d
000002e0: 5355 693d 4306 ce3c 5cb8 66bc 9ffa b4bc
000002f0: e708 34bc 4f19 683c 2e0c 96bc 897f 66bb
00000300: c841 bb3c b115 173d 611d 2f3d 0dc4 163d
00000310: 9b26 15bb e023 28ba 9577 a6bc b1e8 dcbc
00000320: 8e51 cebc e08e 80bc cf16 bdbc 9a52 0ebc
00000330: 3194 8d3c ad6a e3bb c072 e83b 1999 633c
00000340: ac41 ae3c b6d4 943d a5da 27bc 0590 a8bc
00000350: f874 7fbc 5b84 bdbc 5547 bbbc 4a8b bcbc
00000360: 012d 95bc c7da 3d3c d16f f83c b643 133d
00000370: d964 1c3d e32f 56bc 66d7 a4b9 2009 f13b
00000380: 4952 2ebc f733 c0bb df95 12bb 5a2a 4dbc
00000390: 6028 8ebc ed7c d5ba 7e89 cb3c 215e 363c
000003a0: 6c17 8b3c 8ede 7f3c 0611 27bc 2525 27bd
000003b0: 2e9b acbc 36cd b3bc fac3 bdbc f728 28bc
000003c0: f4a4 503d 8452 993c 1785 45bc fffd bebb
000003d0: 5dd2 903c 6679 76bc f271 95bb e056 9bbc
000003e0: 73d5 12bc 5e0d cebc 9eda f33c 2d8a d73c
000003f0: 2e8f 393c bb65 7abb f1a9 5f3c 2ea3 8a3c

fc1.bias f4 [16]
-0.009563425 -0.014442527 0.021464674 -0.03511109 0.022364145 0.0022093263 -0.017880734 0.07605634
-0.010532953 -0.006241035 0.009256651 -0.031616412 0.04324105 0.021851288 -0.038974725 0.014502877
00000000: e9af 1cbc 59a0 6cbc afd6 af3c a5d0 0fbd
00000010: 0335 b73c 58ca 103b 9e7a 92bc 6dc3 9b3d
00000020: 6892 2cbc 9981 ccbb 35a9 173c 3680 01bd
00000030: 871d 313d 7901 b33c f6a3 1fbd 7a9d 6d3c

fc2.weight f4 [16, 3200]
0.005933013 0.0026361907 0.009344858 9.6406926e-05 -0.01731064 0.01290471 0.016503138 0.022664994
0.0094860075 0.0014186561 -0.018539598 -0.019595472 0.0005479084 -0.001530903 -0.014062752 -0.012213735
0.02004747 0.0042904727 -0.011956941 0.001764819 -0.007234731 -0.0034353537 -0.016281981 0.009653778
-0.005108806 -0.0008030679 -0.01552222 0.0078079132 0.0127738835 -0.0061976383 -0.0010243409 -0.013246497
0.0016002323 -0.009077266 -0.017946426 -0.0077366987 -0.006858969 -0.008651789 -0.005260484 0.0019882633
-0.019222343 -0.00023422237 0.0012550248 0.0088810595 2.7499278e-05 -0.003583318 0.0018675495 -0.010051974
-0.019247558 0.006187789 0.003576238 -0.012917126 -0.0013925377 -0.0152160125 0.0019489562 -0.0103228595
-0.013398897 0.009598901 -0.017031481 0.0026513569 -0.008488345 0.007430267 -0.009935564 -0.00077075296
-0.014984365 0.008329989 -0.01623919 0.013101147 0.010943692 0.0092904875 0.007072849 -0.0004603578
-0.015867695 0.0007374831 -0.022283455 -0.0012757683 -0.02004297 0.0025284542 0.011540853 0.007243204
-0.0032772797 0.0033087682 -0.003221049 -0.011379821 -0.013678922 -0.020897295 0.0014833263 -0.0026424308
-0.0019847653 -0.003703 -0.015567571 0.0026703218 -0.007211847 0.005458217 -0.019105567 0.012097479
-0.004572367 0.012091611 0.013433112 0.0019637663 -0.0017588575 -0.014240408 -0.0013019664 0.0054646125
-0.0131632 -0.013679637 -0.0126647735 -0.0024871489 -0.009067763 -0.010159663 -0.009712814 0.01850427
-0.009493131 -0.0079881335 0.0022365302 -0.017632302 -0.013555674 -0.018454347 -0.020008568 -0.01563384
0.013627472 -0.013684215 0.017179385 0.0070014712 -0.008675907 -0.0053417897 -0.015263116 -0.01928831
-0.004759791 -0.010281984 0.0037413954 0.0077419067 0.0058971057 -0.0143288 -0.014676798 -0.012816359
-0.015786173 -0.0024988635 0.004657817 0.006164954 -0.011614807 0.0136844115 -0.014924428 -0.012017753
0.014273746 0.0014869388 -0.01517686 -0.015275926 0.001268005 0.00010463679 0.002572342 -0.007357555
-0.0029806502 -0.015960349 0.014751686 -0.008208121 0.0123579735 0.0105351275 -0.011074017 0.0025497407
0.004472298 -0.012560205 0.012528747 -0.01230691 -0.012426667 0.008530575 -0.012113647 0.0014555467
0.0026400327 -0.008023177 0.0090840375 0.019550517 -0.004599208 -0.013159682 -0.0009790832 -0.0064680576
0.013988802 -0.014839952 -0.010527374 -0.0008148502 0.0039393553 -0.012422852 -0.012040871 0.0046966467
0.0032543496 0.009842734 -0.013294675 -0.0037035826 -0.001028283 0.00861783 0.017305616 0.020151317
0.003809516 -0.009697697 0.0015832608 0.0050046663 -0.008584966 -0.013903404 0.010996834 -0.010006751
-0.0050569475 0.00094920665 -0.016321922 -0.01381921 -0.01223039 -0.019107047 0.015774569 -0.01440421
-0.0009885934 -0.008774993 -0.01619252 -0.0076217568 -0.012231114 -0.02177886 0.0012053588 -0.019250635
-0.00079003355 -0.02019026 0.01514747 -0.0023653903 0.0048144893 -0.016162286 -0.010118901 0.0110670235
-0.022800865 0.0009907057 -0.00926522 0.01236249 0.010730418 0.0026078264 0.013192382 -0.009949444
-0.00081721594 -0.008061312 -0.021424342 -0.007567937 -0.013202454 0.0103600845 -0.011243537 -0.007833286
0.00034887696 -0.0025062005 -0.021183254 0.012465994 0.0027614983 -0.012158378 -0.008453089 -0.012192178
-0.011247945 -0.0016550814 -0.0062766564 -0.013478179 0.0015041112 -0.00086198654 0.009601588 -0.0027137569
00000000: b869 c23b f1c3 2c3b 2d1b 193c 132e ca38
00000010: 0bcf 8dbc 476e 533c 9731 873c f0ab b93c
00000020: 336b 1b3c 33f2 b93a 5be0 97bc af86 a0bc
00000030: 83a1 0f3a 95a8 c8ba 7567 66bc 1e1c 48bc
00000040: 983a a43c 1897 8c3b 0ce7 43bc 8051 e73a
00000050: 5311 edbb ac23 61bb ca61 85bc e12a 1e3c
00000060: c567 a7bb f984 52ba e950 7ebc 86d9 ff3b
00000070: 8d49 513c 8f15 cbbb 2d43 86ba d607 59bc
00000080: e3be d13a d0b8 14bc 6204 93bc 2284 fdbb
00000090: 34c1 e0bb 3cc0 0dbc 2360 acbb 864d 023b
000000a0: 2d78 9dbc 9799 75b9 a57f a43a dd81 113c
000000b0: 40ae e637 1ad6 6abb 90c8 f43a 09b1 24bc
000000c0: 0ead 9dbc f0c2 ca3b 515f 6a3b 5aa2 53bc
000000d0: d085 b6ba 954c 79bc 1e74 ff3a 3621 29bc
000000e0: 0c87 5bbc b544 1d3c 9b85 8bbc 63c2 2d3b
000000f0: b312 0bbc 9979 f33b c7c8 22bc 5b0c 4aba
00000100: fb80 75bc 827a 083c 0d08 85bc 31a6 563c
00000110: 2c4d 333c 2137 183c 5cc3 e73b 2e5c f1b9
00000120: f8fc 81bc a753 413a cb8b b6bc ae37 a7ba
00000130: 2831 a4bc 6cb4 253b d915 3d3c 6658 ed3b
00000140: a1c7 56bb ebd7 583b 3c18 53bb 6e72 3abc
00000150: 8f1d 60bc ce30 abbc 2c6c c23a a22c 2dbb
00000160: d612 02bb 08ae 72bb 200f 7fbc 9100 2f3b
00000170: 5c51 ecbb d8da b23b 4783 9cbc 8134 463c
00000180: cbd3 95bb e41b 463c 8e16 5c3c 88b2 003b
00000190: 7789 e6ba 9a50 69bc bea6 aaba 7e10 b33b
000001a0: 76aa 57bc 8e20 60bc e97f 4fbc 6fff 22bb
000001b0: f490 14bc b774 26bc 7f22 1fbc 4496 973c
000001c0: 1489 1bbc a9e0 02bc c092 123b 9e71 90bc
000001d0: 9e18 5ebc 922d 97bc 02e9 a3bc 8a12 80bc
000001e0: c345 5f3c c233 60bc c8bb 8c3c 996c e53b
000001f0: 6425 0ebc 2e0a afbb 2612 7abc 8502 9ebc
00000200: 05f8 9bbb c475 28bc 3332 753b d2af fd3b
00000210: 823c c13b 58c3 6abc f476 70bc b5fb 51bc
00000220: 0152 81bc f9c3 23bb 9aa0 983b 6203 ca3b
00000230: 084c 3ebc 9534 603c 9785 74bc 1ce6 44bc
00000240: 6edc 693c 63e5 c23a 5da8 78bc e147 7abc
00000250: 3033 a63a 7370 db38 bd94 283b a517 f1bb
00000260: 0357 43bb 47bf 82bc 0eb1 713c 5b7b 06bc
00000270: 1979 4a3c 879b 2c3c cb6f 35bc 8d19 273b
00000280: 5b8c 923b 51c9 4dbc 6045 4d3c eca2 49bc
00000290: 3899 4bbc d3c3 0b3c 5178 46bc 0bc8 be3a
000002a0: 6604 2d3b a573 03bc 37d5 143c 6828 a03c
000002b0: f4b4 96bb b59b 57bc 9554 80ba 00f2 d3bb
000002c0: 4a31 653c 4523 73bc 027b 2cbc ac9b 55ba
000002d0: b515 813b 3889 4bbc 1347 45bc 54e6 993b
000002e0: ed46 553b 6b43 213c e9d1 59bc ceb7 72bb
000002f0: 74c7 86ba cd31 0d3c 82c4 8d3c 6014 a53c
00000300: 13a9 793b 17e3 1ebc 6b85 cf3a 2ffe a33b
00000310: f5a7 0cbc 1acb 63bc 112c 343c 5bf3 23bc
00000320: c0b4 a5bb 2ed4 783a 8db5 85bc f869 62bc
00000330: f961 48bc 6286 9cbc ab39 813c a3ff 6bbc
00000340: b193 81ba fdc4 0fbc 2da6 84bc eebf f9bb
00000350: 0365 48bc 9469 b2bc 21fd 9d3a 82b3 9dbc
00000360: 411a 4fba 0b66 a5bc 182d 783c aa04 1bbb
00000370: ddc2 9d3b c566 84bc bfc9 25bc 7652 353c
00000380: e1c8 babc 91da 813a 26cd 17bc 0b8c 4a3c
00000390: a3ce 2f3c 11e8 2a3b dc24 583c fe02 23bc
000003a0: 6f3a 56ba 9813 04bc 1a82 afbc 75fc f7bb
000003b0: 1b4f 58bc 58bd 293c d036 38bc 2f57 00bc
000003c0: 79e9 b639 113f 24bb 8188 adbc 2b3e 4c3c
000003d0: 41fa 343b ef33 47bc d37e 0abc b3c1 47bc
000003e0: 4d49 38bc 51ef d8ba 69ac cdbb 95d3 5cbc
000003f0: 9925 c53a f0f6 61ba fb4f 1d3c 49d9 31bb

fc2.bias f4 [16]
-0.014038348 -0.010033912 -0.011072518 -0.0014935659 0.006487335 0.01399494 0.0027654404 -0.013755985
-0.011990458 0.0076517044 -0.010175203 -0.0068964274 0.008167989 0.008407238 0.013792342 0.0013617951
00000000: 1901 66bc 4765 24bc 8269 35bc c1c3 c3ba
00000010: b693 d43b 084b 653c 643c 353b c860 61bc
00000020: a073 44bc 26bb fa3b e5b5 26bc 6dfb e1bb
00000030: 07d3 053c 83be 093c 46f9 613c 437e b23a
