code/models/big_obs_encoder_8.pth (torch, 233561 bytes, 10 tensors)

conv1.weight f4 [8, 1, 5, 5]
0.20675401 0.022315267 0.20813745 -0.026034525 -0.1144254 -0.036196977 0.121107824 -0.1482264
0.060507175 -0.23505405 0.15860592 0.042647388 0.18203199 0.13136348 0.065337546 0.17521821
0.13190572 0.05721615 -0.1616535 -0.08767752 0.08759659 0.17398879 -0.13564305 -0.032537
-0.05345405 0.22688298 -0.024049848 0.17515436 -0.037587326 0.062100083 0.2380012 0.31046504
0.1103252 -0.15184133 -0.04988515 0.07990252 0.15123416 0.115634225 0.12579526 0.19719772
-0.09184793 0.23197033 -0.09846439 0.20617028 0.071083404 -0.13583387 -0.14098872 0.1596051
-0.09265832 -0.090413414 -0.030525332 -0.019051926 0.1397655 0.19545378 0.24778023 0.10486599
0.12638558 0.10200644 0.03086903 0.21445559 0.014736586 -0.15513699 -0.12488342 -0.21622108
-0.09192046 -0.20039155 -0.03749057 0.1338393 0.02562487 0.09689159 0.11814995 -0.06600587
0.051124923 0.15539236 0.13691257 0.15364766 0.16031517 0.25152758 -0.02322828 0.119977966
-0.115757085 0.197452 0.021009797 0.14106782 0.1016463 -0.013191243 -0.02898297 -0.006683816
0.17030063 0.10158359 -0.12695633 0.30183077 0.07110585 -0.03526743 -0.100680575 0.029498763
0.059314724 -0.18675286 -0.12876816 -0.13123678 -0.18846765 -0.27961394 -0.23929116 -0.21581785
-0.005651894 0.11580276 -0.111232385 -0.06557068 -0.21169585 0.09377635 -0.084877454 0.05895032
-0.05641014 -0.1665124 0.028867202 0.022745669 -0.024880694 -0.050394833 0.035667703 0.07504914
-0.009202167 0.0050457125 0.08849732 0.28628236 0.21551767 0.17887937 0.23159051 -0.08593222
-0.016785199 0.041230388 0.11452071 0.0738986 0.18345633 -0.03199363 0.10358073 0.10987185
0.19641288 -0.1853357 -0.10482932 -0.010256075 0.10612674 0.12094086 -0.15291901 -0.13026425
-0.017778229 0.23922434 0.24542186 0.23142563 0.16462672 -0.007401223 -0.11913384 0.0282924
-0.1298969 -0.116472155 0.07501858 -0.16999398 -0.107101 -0.244059 0.015623695 0.24780108
0.115212426 -0.26771438 -0.17753546 -0.078368746 0.22280756 -0.27011538 -0.1678156 -0.16448492
0.080410786 0.031296287 0.10331031 -0.13866898 0.008315266 -0.19452672 0.27003962 -0.09194157
0.18174271 0.054184236 -0.13066529 -0.027277332 -0.036824927 0.07027781 0.20293993 0.2376513
0.1553694 0.11955201 0.14440732 0.06486916 -0.012096744 -0.11466971 0.04621111 0.24924605
0.23513126 0.15062615 -0.0625815 -0.015240644 0.0074687325 -0.15449943 -0.018245937 0.035068255
00000000: 53b7 533e 82ce b63c fc21 553e 5b46 d5bc
00000010: dd57 eabd 4843 14bd 6107 f83d a9c8 17be
00000020: 5fd6 773d 02b2 70be 9769 223e 07af 2e3d
00000030: 9866 3a3e 2684 063e b1cf 853d 676c 333e
00000040: 4b12 073e 7b5b 6a3d 7f88 25be 4690 b3bd
00000050: d765 b33d 1e2a 323e 03e6 0abe 8445 05bd
00000060: a2f2 5abd 0354 683e 3004 c5bc aa5b 333e
00000070: 2bf5 19bd a85c 7e3d 96b6 733e 46f5 9e3e
00000080: 2ef2 e13d 4b7c 1bbe 5f54 4cbd efa3 a33d
00000090: 21dd 1a3e a3d1 ec3d 79d0 003e 33ee 493e
000000a0: c41a bcbd a189 6d3e b3a7 c9bd 4d1e 533e
000000b0: 2d94 913d 0918 0bbe 595f 10be 856f 233e
000000c0: a5c3 bdbd ab2a b9bd 4310 fabc c912 9cbc
000000d0: b01e 0f3e 0925 483e 1aba 7d3e fbc3 d63d
000000e0: 396b 013e c1e8 d03d 0ce1 fc3c 3f9a 5b3e
000000f0: b971 713c 3bdc 1ebe e1c2 ffbd 0f69 5dbe
00000100: cb40 bcbd 7133 4dbe b68f 19bd 2b0d 093e
00000110: 3feb d13c 196f c63d 9af8 f13d 162e 87bd
00000120: 5e68 513d 2d1f 1f3e cf32 0c3e d055 1d3e
00000130: a929 243e 39c8 803e 3c49 bebc 02b7 f53d
00000140: 0d12 edbd db30 4a3e bd1c ac3c 1574 103e
00000150: ef2b d03d 1520 58bc b26d edbc ea03 dbbb
00000160: 4a63 2e3e 0f0b d03d d700 02be 9089 9a3e
00000170: f29f 913d 9574 10bd 9e31 cebd 64a7 f13c
00000180: fff3 723d 243c 3fbe cddb 03be ef62 06be
00000190: aafd 40be 8f29 8fbe be08 75be 5bff 5cbe
000001a0: 8633 b9bb ff29 ed3d cecd e3bd ec49 86bd
000001b0: ccc6 58be d10d c03d 3bd4 adbd e475 713d
000001c0: 520e 67bd 3a82 2abe e97a ec3c 2055 ba3c
000001d0: 99d2 cbbc d06a 4ebd 4c18 123d 5db3 993d
000001e0: b0c4 16bc 8156 a53b 153e b53d 9a93 923e
000001f0: aab0 5c3e 272c 373e 1026 6d3e 3bfd afbd
00000200: 1d81 89bc 32e1 283d d689 ea3d 2658 973d
00000210: fadb 3b3e c10b 03bd 2222 d43d 7e04 e13d
00000220: 7520 493e a4c8 3dbe c1b0 d6bd 1909 28bc
00000230: fa58 d93d d7af f73d cd96 1cbe fe63 05be
00000240: a6a3 91bc 3af7 743e de4f 7b3e d7fa 6c3e
00000250: e893 283e f585 f2bb 71fc f3bd 77c5 e73c
00000260: b103 05be f488 eebd 57a3 993d e712 2ebe
00000270: c557 dbbd 9aea 79be 87fa 7f3c 91bf 7d3e
00000280: 7ef4 eb3d dc11 89be dbcb 35be cb7f a0bd
00000290: aa27 643e 904c 8abe dad7 2bbe bc6e 28be
000002a0: 69ae a43d 8930 003d 5b94 d33d 3eff 0dbe
000002b0: c13c 083c 0332 47be a242 8a3e dd4b bcbd
000002c0: c31a 3a3e 4af0 5d3d 1fcd 05be b674 dfbc
000002d0: bcd5 16bd d0ed 8f3d 7ccf 4f3e dd5a 733e
000002e0: 2819 1f3e afd7 f43d 83df 133e 1fda 843d
000002f0: 6c31 46bc f4d7 eabd dc47 3d3d 5b3a 7f3e
00000300: 40c6 703e be3d 1a3e bb2a 80bd e5b3 79bc
00000310: 45bc f43b 1935 1ebe 8178 95bc bba3 0f3d

conv1.bias f4 [8]
-0.0020609507 0.017276868 0.13345727 0.024399064 0.0604745 -0.045613013 -0.09305069 -0.00020498746
00000000: 0411 07bb 3888 8d3c 06a9 083e 8ce0 c73c
00000010: 1cb4 773d b6d4 3abd 5c91 bebd e7f1 56b9

conv2.weight f4 [16, 8, 3, 3]
-0.103486456 -0.13676254 -0.08709272 -0.07771501 -0.03535752 -0.17151324 -0.00092425937 -0.083506286
-0.13584821 0.025942052 -0.11984284 0.112130634 -0.0673284 -0.06953192 0.12807854 -0.08639266
-0.07643893 -0.09173555 0.073221214 0.16340584 0.18487954 0.02111606 0.025621846 0.05115759
0.096320234 0.12023338 0.14706242 0.04967201 0.13261959 0.15673886 -0.053025573 -0.13120858
0.0007162588 0.000609692 -0.14104913 -0.015017247 -0.08083232 0.0146648185 -0.07746146 -0.095936775
0.06294028 0.14578371 0.22660172 0.23673046 0.24901773 -0.081696786 -0.18243629 -0.107517496
-0.16952437 -0.2446914 -0.13604733 0.008097544 0.012411032 0.12959912 -0.05000051 0.09622696
0.2686297 0.039791167 0.16093415 0.24666084 -0.09420275 0.07811623 0.13044311 -0.21276124
-0.07391875 0.047537718 -0.05381083 -0.22244723 -0.13527188 -0.046102036 -0.10597031 -0.09304081
-0.073874995 0.03650436 0.0707299 0.08143785 0.0113526285 0.06804791 0.02118602 -0.020164276
-0.060314815 -0.09529186 -0.06662888 0.09090835 0.16000746 0.108467035 0.061562292 0.015294205
0.08031815 0.05544761 0.12677637 0.07436339 0.024790673 0.08852407 -0.038941953 -0.034404874
0.047877666 -0.0017685709 0.023309557 -0.026486676 0.057459828 -0.09520253 -0.041956015 0.113277845
0.0526837 0.07327902 0.072837904 0.041464824 0.107065804 0.12508155 0.13475987 0.0110211205
-0.0026779447 0.0002668867 0.044324327 -0.009339339 0.11696258 -0.03931672 0.13977945 -0.00023202364
-0.0787276 -0.05889048 0.060378868 -0.08654745 -0.0696037 0.103407376 -0.05890161 -0.08091169
-0.0045573525 0.067138694 -0.11768567 0.016820041 0.06208712 -0.082022235 -0.01936942 0.107294045
0.10269045 0.07984696 -0.016187625 0.17767671 0.12937504 -0.011126636 0.09015146 0.09772931
-0.061310872 -0.0245356 0.13671711 0.019848576 0.0009665941 0.13932481 -0.094920345 0.15143342
0.0027593453 0.06896871 -0.025997091 0.10093738 -0.054684658 0.0030974287 -0.00681381 -0.101847686
-0.062329352 0.02743565 0.12278178 0.1524279 -0.016460523 -0.106328845 -0.12636231 -0.10528943
0.091259986 -0.035528656 -0.026552603 0.07404434 0.16110456 0.012025109 0.18755831 0.13026695
-0.12538177 -0.050194077 -0.10503047 -0.008199515 0.17684086 0.068500906 -0.08720934 -0.0515001
0.032725383 -0.08153232 0.019339675 -0.017307056 0.1487803 -0.09473312 -0.0054582623 -0.055103716
-0.02769066 0.0017625288 -0.058128804 -0.058326002 -0.015381046 0.11012467 0.07437143 0.0027325675
-0.09662341 -0.015230386 -0.07129903 0.020725315 0.035837863 -0.022797259 0.13803053 0.10119437
0.013331567 -0.08153391 0.07158999 0.09601543 0.021959357 -0.079087056 0.0033420338 0.015046852
0.116556466 -0.01715059 -0.093389474 0.10644285 0.041495293 0.07231333 0.07341868 -0.04070272
0.07825058 0.014899441 0.002727636 -0.00089471746 -0.022061223 -0.027366538 0.0055938386 0.05626264
-0.023367496 -0.02770738 0.09390257 0.14508253 -0.056525502 0.0674816 -0.008942984 -0.09566502
-0.06283762 0.10692489 -0.024013977 0.13080049 0.17003496 -0.0013839271 0.011856117 0.12311762
-0.004887658 -0.10990031 0.05891448 -0.09109451 -0.012240465 -0.07159626 -0.057582732 -0.16833472
00000000: b5f0 d3bd 7b0b 0cbe ab5d b2bd 0c29 9fbd
00000010: 0cd3 10bd 2ba1 2fbe ff49 72ba 5805 abbd
00000020: cb1b 0bbe 6d84 d43c 2a70 f5bd bfa4 e53d
00000030: 79e3 89bd c066 8ebd 0527 033e a3ee b0bd
00000040: 048c 9cbd d9df bbbd 01f5 953d dc53 273e
00000050: 1051 3d3e 96fb ac3c e8e4 d13c 9f8a 513d
00000060: 8b43 c53d eb3c f63d 8897 163e e174 4b3d
00000070: 6ecd 073e 2780 203e 5831 59bd 8b5b 06be
00000080: 50c3 3b3a bdd3 1f3a 2f6f 10be e60a 76bc
00000090: 6a8b a5bd b544 703c 1da4 9ebd 807a c4bd
000000a0: d5e6 803d 5348 153e 480a 683e 7869 723e
000000b0: 81fe 7e3e a550 a7bd 94d0 3abe 2232 dcbd
000000c0: cc97 2dbe 6290 7abe fe4f 0bbe 90ab 043c
000000d0: a457 4b3c a2b5 043e 56cd 4cbd a412 c53d
000000e0: d589 893e 10fc 223d eccb 243e a994 7c3e
000000f0: 5fed c0bd 67fb 9f3d e192 053e 15de 59be
00000100: b762 97bd e9b6 423d bf68 5cbd 35c9 63be
00000110: b684 0abe 7dd5 3cbd f606 d9bd 2e8c bebd
00000120: c64b 97bd 9985 153d d6da 903d e3c8 a63d
00000130: 6000 3a3c b45c 8b3d 4e8e ad3c 8d2f a5bc
00000140: ab0c 77bd 6128 c3bd b974 88bd 282e ba3d
00000150: ffd8 233e f723 de3d be28 7c3d 8c94 7a3c
00000160: d87d a43d 081d 633d aad1 013e d54b 983d
00000170: cf15 cb3c 1c4c b53d 9981 1fbd 20ec 0cbd
00000180: 5f1b 443d 64cf e7ba aff3 be3c 96fa d8bc
00000190: ff5a 6b3d 8bf9 c2bd 12da 2bbd 37fe e73d
000001a0: ddca 573d 5013 963d 0a2c 953d 05d7 293d
000001b0: 5145 db3d 6115 003e 7efe 093e ee91 343c
000001c0: 7580 2fbb edec 8b39 6d8d 353d 0704 19bc
000001d0: 148a ef3d 920a 21bd 5822 0f3e 5f4b 73b9
000001e0: f03b a1bd 2537 71bd d54f 773d ca3f b1bd
000001f0: 628c 8ebd 3fc7 d33d d142 71bd 07b5 a5bd
00000200: d855 95bb 0380 893d 2f05 f1bd 2fca 893c
00000210: 104f 7e3d 46fb a7bd 9eac 9ebc fbbc db3d
00000220: 5f4f d23d ce86 a33d e99b 84bc e2f0 353e
00000230: e47a 043e 7e4c 36bc 54a1 b83d 4e26 c83d
00000240: 1c21 7bbd e2fe c8bc 92ff 0b3e 7b99 a23c
00000250: 0863 7d3a 2aab 0e3e 9965 c2bd 5d11 1b3e
00000260: 22d6 343b 783f 8d3d daf7 d4bc 42b8 ce3d
00000270: 05fd 5fbd 3bfe 4a3b 6246 dfbb 8595 d0bd
00000280: 104d 7fbd bac0 e03c 0475 fb3d 0f16 1c3e
00000290: 38d8 86bc f0c2 d9bd 1f65 01be fca1 d7bd
000002a0: 84e6 ba3d 7f86 11bd d884 d9bc 8fa4 973d
000002b0: 98f8 243e f604 453c 490f 403e b364 053e
000002c0: 1464 00be 4e98 4dbd 371a d7bd 4257 06bc
000002d0: c515 353e 344a 8c3d cf9a b2bd c5f1 52bd
000002e0: 0d0b 063d 6bfa a6bd 3d6e 9e3c 87c7 8dbc
000002f0: dd59 183e 7003 c2bd 39db b2bb 6fb4 61bd
00000300: 86d7 e2bc a704 e73a 7818 6ebd 3fe7 6ebd
00000310: c800 7cbc 0b89 e13d 0c50 983d e014 333b
00000320: 7fe2 c5bd de88 79bc 3a05 92bd 23c8 a93c
00000330: b9ca 123d 51c1 babc e057 0d3e fe3e cf3d
00000340: a56c 5a3c 40fb a6bd c69d 923d bda3 c43d
00000350: 1ce4 b33c 65f8 a1bd 0606 5b3b 1287 763c
00000360: 28b5 ee3d 657f 8cbc fb42 bfbd b5fe d93d
00000370: f8f6 293d 0319 943d 885c 963d e5b7 26bd
00000380: d741 a03d c91c 743c 23c2 323b 798b 6aba
00000390: bdb9 b4bc ca2f e0bc 854c b73b a773 663d
000003a0: 316d bfbc 96fa e2bc fe4f c03d 8490 143e
000003b0: 4987 67bd cb33 8a3d 9885 12bc 06ec c3bd
000003c0: 03b1 80bd 70fb da3d f6b8 c4bc 90f0 053e
000003d0: a51d 2e3e e364 b5ba 2940 423c 1725 fc3d
000003e0: a628 a0bb 6a13 e1bd 4f50 713d c28f babd
000003f0: 3b8c 48bc 0fa1 92bd dfdb 6bbd f05f 2cbe

conv2.bias f4 [16]
0.30013025 0.02173774 0.17725417 -0.0014061766 0.21854459 0.017948514 -0.015456024 -0.08691986
0.072837815 -0.01962565 0.1075844 0.2549708 -0.070365235 0.1536143 -0.009194321 0.079443336
00000000: acaa 993e 5813 b23c 1e82 353e 754f b8ba
00000010: 27ca 5f3e c308 933c 433b 7dbc 0a03 b2bd
00000020: fe2b 953d f9c5 a0bc 3655 dc3d 888b 823e
00000030: a61b 90bd 114d 1d3e c7a3 16bc 30b3 a23d

conv3.weight f4 [32, 16, 3, 3]
0.22889788 0.18835236 0.4274068 0.25338164 0.12918669 0.2817832 0.05502182 0.17827576
0.19699603 0.05643721 0.021659376 0.06790976 0.051758632 -0.08994675 0.0036399264 0.020234846
-0.0095837675 -0.11286994 0.061074145 0.14014542 -0.024087725 0.035945255 0.12048868 0.046963852
0.15009128 0.09392196 0.0055345553 0.020626538 -0.00460893 -0.063340664 -0.10140327 -0.11642502
-0.111448094 -0.08923141 0.019596305 -0.07601364 0.12954994 0.19398169 0.22788626 0.21806781
0.315037 0.37276912 0.29737282 0.3361881 0.3093787 -0.047387727 -0.034389496 0.034415416
-0.06935482 -0.14702818 -0.12591651 0.005621939 0.031435702 -0.09876073 -0.08208541 -0.084343925
-0.09333358 -0.07663723 -0.11350901 -0.1082456 0.033007335 -0.0160668 -0.040187947 -0.08050977
-0.033742778 -0.027582742 -0.1612405 -0.15551588 -0.12570286 -0.10465419 -0.12092271 -0.03115503
0.017261539 -0.05168383 -0.069770165 0.0015813009 -0.026692228 -0.08922863 -0.022667695 -0.019498713
0.08933188 -0.09524568 -0.07260249 -0.03169634 -0.17579465 -0.05488129 -0.05272093 -0.07697321
-0.0075611477 0.038477607 0.027025778 0.08645186 -0.036675826 -0.04745325 0.06852755 -0.08058423
-0.03276759 0.009215096 -0.046647325 0.08176323 0.09382314 0.09330119 0.26316178 0.3407488
0.17131402 0.39119786 0.30071384 0.36125246 0.06817341 0.049702704 -0.01601041 -0.0029845182
0.01042346 -0.017701538 0.06576626 0.023892539 -0.07224755 -0.03285035 0.090578824 -0.0100874975
0.02067238 0.033474345 -0.032696046 0.012482384 0.020875877 0.05605386 0.038111094 -0.017537212
0.07990779 -0.050663013 -0.07153567 -0.06133375 -0.0019910284 -0.023040881 0.023383567 0.034841694
-0.047380365 0.08986047 -0.00695164 -0.024977941 -0.028844327 -0.010658937 0.03971337 0.0389221
0.080941 0.22372222 0.34329164 0.109833375 0.11805746 0.15739861 0.013363887 0.0286876
0.01867894 0.0006985259 0.02544258 -0.010556072 0.049619153 -0.07626805 0.0052502872 0.008109257
0.032711454 0.15118593 0.15204789 -0.035459008 -0.057866734 -0.051578432 -0.052658103 -0.03267756
-0.0058286996 0.005267215 0.047931418 -0.0050516394 -0.009633256 -0.036198217 -0.0682323 -0.008561034
-0.11518038 -0.041964702 -0.06807591 0.08507373 0.12739526 0.10126219 0.24348192 0.15685244
0.2864219 0.34056935 0.21182545 0.12097935 0.1662911 0.04039131 0.024824455 -0.053629294
-0.045517717 -0.08267092 -0.113028415 0.06067009 -0.03614526 -0.010597494 -0.08928943 0.022700274
0.019531706 0.048070706 -0.0044938494 -0.018274931 -0.05760994 0.0061805495 -0.06905309 -0.09777866
-0.12965971 -0.096245624 -0.008359258 -0.14744978 -0.06591823 -0.04150603 -0.025631394 0.08735967
-9.757959e-05 -0.061735526 -0.09640455 -0.056893945 -0.07699472 -0.1166 -0.013780474 -0.06282334
0.08175729 -0.04282021 -0.107467726 -0.11290955 -0.10472692 -0.062568076 0.04744295 0.1270189
0.090754956 0.10798469 -0.011537984 -0.058912244 -0.0529439 0.018698236 -0.024776196 0.025009334
0.07599237 0.06995357 0.08532417 0.2295517 0.1554856 0.13412882 0.30729052 0.20419258
0.31629965 0.15950316 0.24191971 0.18147805 -0.036780644 0.01589254 0.052497387 -0.059338525
00000000: 3564 6a3e 71df 403e 10d5 da3e 3dbb 813e
00000010: 8449 043e e345 903e 8f5e 613d ec8d 363e
00000020: 54b9 493e b42a 673d 016f b13c 4614 8b3d
00000030: dc00 543d 0036 b8bd d58b 6e3b 8cc3 a53c
00000040: 3c05 1dbc 5b28 e7bd e228 7a3d 4882 0f3e
00000050: 9f53 c5bc 553b 133d c5c2 f63d 2b5d 403d
00000060: 87b1 193e 285a c03d 375b b53b fcf8 a83c
00000070: 8206 97bb c0b8 81bd 85ac cfbd 3e70 eebd
00000080: e63e e4bd f5be b6bd 6e88 a03c 0aad 9bbd
00000090: bda8 043e 23a3 463e 045b 693e 2b4d 5f3e
000000a0: 884c a13e 98db be3e 4041 983e d920 ac3e
000000b0: e366 9e3e a219 42bd 00dc 0cbd 2ef7 0c3d
000000c0: e609 8ebd 8e8e 16be 42f0 00be 3e38 b83b
000000d0: b9c2 003d 1143 cabd 651c a8bd 82bc acbd
000000e0: ad25 bfbd fbf3 9cbd 6977 e8bd deaf ddbd
000000f0: b332 073d 869e 83bc 1e9c 24bd 4ee2 a4bd
00000100: de35 0abd 34f5 e1bc 3b1c 25be 8e3f 1fbe
00000110: 40b8 00be f054 d6bd 53a6 f7bd d538 ffbc
00000120: 1268 8d3c 6cb2 53bd a9e3 8ebd a743 cf3a
00000130: a9a9 dabc 80bd b6bd 9ab1 b9bc c4bb 9fbc
00000140: a2f3 b63d 2b10 c3bd 9db0 94bd 05d4 01bd
00000150: 8303 34be 34cb 60bd e7f1 57bd 21a4 9dbd
00000160: 81c3 f7bb b29a 1d3d 2a65 dd3c ac0d b13d
00000170: 6439 16bd 575e 42bd 2c58 8c3d 5809 a5bd
00000180: 4f37 06bd eafa 163c 4411 3fbd 7b73 a73d
00000190: 5926 c03d b214 bf3d 24bd 863e a076 ae3e
000001a0: f16c 2f3e 164b c83e 2af7 993e 15f6 b83e
000001b0: 809e 8b3d 1095 4b3d 4328 83bc e897 43bb
000001c0: 29c7 2a3c d102 91bc 76b0 863d 49ba c33c
000001d0: 86f6 93bd 178e 06bd 6481 b93d 0846 25bc
000001e0: 2059 a93c 651c 093d 4aec 05bd ea82 4c3c
000001f0: e303 ab3c bb98 653d 611a 1c3d 33aa 8fbc
00000200: b2a6 a33d 0584 4fbd 4b81 92bd 1939 7bbd
00000210: ea7b 02bb 3bc0 bcbc e58e bf3c 2ab6 0e3d
00000220: ea11 42bd c408 b83d 95ca e3bb 8a9e ccbc
00000230: f04a ecbc d2a2 2ebc 7daa 223d c86c 1f3d
00000240: 65c4 a53d 7017 653e ecc3 af3e 52f0 e03d
00000250: 1cc8 f13d 1a2d 213e 34f4 5a3c 4202 eb3c
00000260: 9404 993c 481d 373a f56c d03c 60f3 2cbc
00000270: 743d 4b3d 6c32 9cbd 9a0a ac3b b0dc 043c
00000280: 72fc 053d 7cd0 1a3e 71b2 1b3e 773d 11bd
00000290: ab05 6dbd e843 53bd 06b0 57bd e8d8 05bd
000002a0: adfe bebb 9a98 ac3b bc53 443d 3988 a5bb
000002b0: ced4 1dbc 9544 14bd 60bd 8bbd 9443 0cbc
000002c0: b1e3 ebbd 2ee3 2bbd 626b 8bbd 233b ae3d
000002d0: e773 023e 8d62 cf3d 5353 793e ed9d 203e
000002e0: e4a5 923e 1b5f ae3e c5e8 583e 05c4 f73d
000002f0: 3748 2a3e 5c71 253d a85c cb3c 64aa 5bbd
00000300: c970 3abd 5f4f a9bd 717b e7bd 3381 783d
00000310: 0d0d 14bd 1da1 2dbc 60dd b6bd edf5 b93c
00000320: f500 a03c cae5 443d 2441 93bb 4fb5 95bc
00000330: 67f8 6bbd 3586 ca3b b56b 8dbd 2e40 c8bd
00000340: 84c5 04be 6d1c c5bd 45f5 08bc 13fd 16be
00000350: 2300 87bd 3a02 2abd eef8 d1bc a0e9 b23d
00000360: a5a3 ccb8 64de 7cbd c06f c5bd a009 69bd
00000370: 68af 9dbd fbcb eebd 7fc7 61bc 86a9 80bd
00000380: 5e70 a73d 3f64 2fbd 0a18 dcbd 1f3d e7bd
00000390: 117b d6bd b123 80bd 8a53 423d 3e11 023e
000003a0: bcdd b93d 1427 dd3d d009 3dbc f74d 71bd
000003b0: b4db 58bd 0b2d 993c 73f7 cabc 60e0 cc3c
000003c0: e3a1 9b3d d143 8f3d 70be ae3d 9a0f 6b3e
000003d0: 9e37 1f3e 1159 093e 2f55 9d3e dc17 513e
000003e0: 07f2 a13e cc54 233e cdb9 773e 62d5 393e
000003f0: 4da7 16bd 1231 823c 8007 573d f40c 73bd

conv3.bias f4 [32]
0.23876448 0.055675786 0.063197725 0.32208094 0.09427606 -0.075033724 0.13408652 0.13061117
0.10605647 0.0881264 -0.019140838 0.06467472 0.1671499 0.046172254 0.09509066 0.05621299
-0.028106656 0.10559001 0.09254723 0.05797361 0.13663563 0.0059534605 0.003111381 0.09725928
0.07207655 0.06900912 -0.023251362 -0.06371332 0.052905552 0.11746127 0.08667968 0.072441176
00000000: ad7e 743e 4b0c 643d cf6d 813d cbe7 a43e
00000010: cf13 c13d 48ab 99bd fa4d 093e efbe 053e
00000020: 2234 d93d 9d7b b43d 3fcd 9cbc 2e74 843d
00000030: 5829 2b3e 1e1f 3d3d e4be c23d 983f 663d
00000040: ee3f e6bc 933f d83d 6789 bd3d bc75 6d3d
00000050: 36ea 0b3e 3f15 c33b 50e8 4b3b e02f c73d
00000060: df9c 933d a754 8d3d a479 bebc 217c 82bd
00000070: 7eb3 583d 898f f03d 1e85 b13d 0a5c 943d

fc1.weight f4 [8, 3200]
0.05457748 0.045970734 0.061238687 0.04685877 0.059043385 0.02119305 0.022889262 -0.0074178805
0.004494525 0.035831038 0.031880043 0.04430423 0.048233077 0.053185217 0.072182655 0.038318805
-0.014690628 -0.002335289 -0.011573413 -0.001892201 0.003769543 0.007778252 0.043874435 0.028584864
0.041133944 0.0369855 0.0024171534 0.002376248 0.014835294 0.024726141 -0.01551969 0.01653173
-0.0041797655 -0.024048937 0.012701113 0.0113756955 0.013004375 0.0007072644 -0.011884851 0.005008625
-0.027946621 -0.03713549 0.0033004803 -0.034939792 -0.02405113 0.017063431 0.0124667585 -0.04067372
-0.023674807 -0.030212553 -0.021768387 -0.04260811 0.000119146796 -0.006578166 -0.004828314 0.013202134
-0.014840868 -0.031983666 0.0074027376 0.019143118 0.019801063 0.033572193 0.040818192 0.0059130783
0.021477062 -0.0008258926 -0.0150795635 -0.013661579 0.026877241 0.050534606 0.03911811 0.03647948
0.0113764005 0.024319353 0.005107819 -0.056735627 -0.039816678 -0.023530915 0.010340237 0.03627221
0.020027887 0.032023575 0.042644624 0.015239963 -0.009450665 -0.058977176 -0.050945267 0.0020697822
0.004024584 0.025167024 0.03820955 0.022840437 0.040167358 0.009516925 -0.030064378 -0.03239347
-0.010877556 -0.0012876132 0.0012033144 0.045231227 0.031239517 0.057332255 0.04722749 0.027419128
0.04586378 0.04339009 0.026689744 -0.009620247 0.0011877135 -0.0069522024 0.029822184 0.03231135
0.043465517 0.027365465 0.011739257 0.023464594 0.019358288 0.0056274342 -0.02612832 -0.00039389697
0.004178769 0.021996254 0.04196301 0.01717325 0.037370022 0.034063626 0.01421208 -0.0028489216
-0.014050332 -0.009149677 0.019331777 0.0066663395 0.023252709 0.011189546 0.02764098 0.012314512
0.0072663194 0.01696543 -0.011188612 0.010192544 -0.028545698 -0.017624227 -0.008126358 -0.012565365
-0.028881125 -0.0049005435 -0.016693179 -0.027832624 -0.034637734 -0.037123933 -0.046833202 -0.020573888
-0.009908811 -0.0025665695 -0.00025630355 -0.0027402889 -0.028778516 -0.037428126 -0.035340857 -0.018871423
-0.015198621 0.01027349 0.020177452 -0.0050487956 0.007400703 0.0018827092 -0.013495672 -0.0031452128
-0.0032159656 0.03101935 -0.00587805 0.022756917 0.041643206 0.011722689 0.005306658 -0.030890074
-0.019161033 -0.010873637 0.0015344351 0.010581203 0.036280982 0.02119394 0.026798438 -0.0052255094
-0.025690043 -0.059934445 -0.021615613 -0.0027586503 -0.01002323 0.009234986 0.05363116 0.029348584
0.017906973 0.011657655 -0.0008532443 -0.050651252 -0.025199285 -0.015597142 -0.002999595 0.0091588935
0.0069493777 0.028881509 0.02464838 0.036858276 0.039930474 0.060676113 0.038642496 0.020363847
-0.026097996 -0.0089029325 0.016015047 0.038648065 0.018162658 0.036229283 0.04001124 0.028622493
0.008105933 -0.021427764 -0.015673641 -0.01699458 0.004090305 0.035626497 0.015343052 0.03078802
0.052740257 0.031296242 0.015975235 -0.0023639759 0.0082047265 -0.008047686 -0.0014237791 0.010790055
-0.000943122 -0.019837588 0.031586844 0.012082154 -0.0006129051 -0.0108138155 -0.018782476 -0.005935703
-0.007882422 0.0058368384 -0.00019978205 -0.012183082 0.011845507 0.024196483 -0.02493183 -0.029008774
-0.027872672 -0.022682207 -0.033120744 -0.026645921 -0.02800909 -0.015911305 -0.00075133506 0.0032539314
00000000: a38c 5f3d cf4b 3c3d 6bd5 7a3d fbee 3f3d
00000010: 7ad7 713d 0c9d ad3c 4382 bb3c b111 f3bb
00000020: cf46 933b 91c3 123d a694 023d 5a78 353d
00000030: 0c90 453d bed8 593d 80d4 933d 2ef4 1c3d
00000040: f6b0 70bc a60b 19bb 6a9e 3dbc bb03 f8ba
00000050: 700a 773b b5e0 fe3b aeb5 333d ce2a ea3c
00000060: 117c 283d 1c7e 173d 1b69 1e3b d3ba 1b3b
00000070: bc0f 733c 7a8e ca3c 4c46 7ebc 8d6d 873c
00000080: 6af6 88bb 4702 c5bc 5418 503c 2061 3a3c
00000090: 4d10 553c b667 393a aeb8 42bc 641f a43b
000000a0: 50f0 e4bc 621b 18bd df4c 583b 071d 0fbd
000000b0: e006 c5bc 9cc8 8b3c 6041 4c3c 7d99 26bd
000000c0: abf1 c1bc 5180 f7bc 9e53 b2bc d785 2ebd
000000d0: 73de f938 a88d d7bb d536 9ebb c34d 583c
000000e0: 1d27 73bc 4e01 03bd aa92 f23b 07d2 9c3c
000000f0: d735 a23c ff82 093d fa30 273d 7fc2 c13b
00000100: aaf0 af3c b780 58ba 4610 77bc d1d4 5fbc
00000110: a92d dc3c 60fd 4e3d 503a 203d 826b 153d
00000120: 1564 3a3c 6139 c73c 7e5f a73b 9e63 68bd
00000130: d016 23bd e8c3 c0bc 196a 293c 2b92 143d
00000140: 8611 a43c 272b 033d 21ac 2e3d 0ab1 793c
00000150: f6d6 1abc 0d92 71bd fcab 50bd 2fa5 073b
00000160: a8e0 833b 132b ce3c 9e81 1c3d de1b bb3c
00000170: 8786 243d e0ec 1b3c 9249 f6bc 04af 04bd
00000180: c737 32bc 21c5 a8ba 88b8 9d3a 6144 393d
00000190: 04ea ff3c 3ad5 6a3d 9d71 413d 149e e03c
000001a0: a9db 3b3d cfb9 313d 73a4 da3c 3e9e 1dbc
000001b0: 0dad 9b3a 4dcf e3bb a74d f43c e858 043d
000001c0: e608 323d 8a2d e03c 0356 403c d238 c03c
000001d0: 4695 9e3c 5766 b83b 0f0b d6bc f583 ceb9
000001e0: 0eee 883b 7d31 b43c 68e1 2b3d eaae 8c3c
000001f0: 4f11 193d 4d86 0b3d c9d9 683c f9b4 3abb
00000200: 5d33 66bc 87e8 15bc ad5d 9e3c 4f71 da3b
00000210: 777c be3c 5c54 373c 566f e23c cfc2 493c
00000220: 4e1a ee3b 16fb 8a3c 7150 37bc a1fe 263c
00000230: abd8 e9bc af60 90bc 6a24 05bc f6de 4dbc
00000240: 1c98 ecbc bd94 a0bb 22c0 88bc 3e01 e4bc
00000250: 4ce0 0dbd 440f 18bd 2cd4 3fbd 928a a8bc
00000260: 9158 22bc e433 28bb 7b60 86b9 6b96 33bb
00000270: ecc0 ebbc 3c4e 19bd 93c1 10bd 3e98 9abc
00000280: a303 79bc 2452 283c 2f4b a53c 5e70 a5bb
00000290: 9981 f23b 3dc5 f63a f31c 5dbc ea1f 4ebb
000002a0: f3c2 52bb 4b1c fe3c a89c c0bb b76c ba3c
000002b0: 1192 2a3d 8510 403c 79e3 ad3b 2e0d fdbc
000002c0: 99f7 9cbc 5727 32bc 191f c93a c85c 2d3c
000002d0: 5e9b 143d ea9e ad3c 6688 db3c c03a abbb
000002e0: ed73 d2bc d27d 75bd 3a13 b1bc 79ca 34bb
000002f0: 7938 24bc 574e 173c 59ac 5b3d 716c f03c
00000300: a5b1 923c c0ff 3e3c 41ac 5fba b077 4fbd
00000310: bb6e cebc 288b 7fbc da94 44bb 2f0f 163c
00000320: 9bb7 e33b ea98 ec3c 66eb c93c b4f8 163d
00000330: 238e 233d 8487 783d 9847 1e3d 15d2 a63c
00000340: 77cb d5bc 9bdd 11bc fd31 833c 6f4d 1e3d
00000350: dbc9 943c 2865 143d d3e2 233d b879 ea3c
00000360: bfce 043c 4789 afbc 0266 80bc 3838 8bbc
00000370: f707 863b 17ed 113d 6d61 7b3c 2837 fc3c
00000380: 2b06 583d 7d30 003d 7fde 823c efec 1abb
00000390: 1e6d 063c 71da 03bc 199e baba c5c8 303c
000003a0: d93b 77ba 7082 a2bc 3561 013d 3af4 453c
000003b0: 5dab 20ba 6e2c 31bc b5dd 99bc 4980 c2bb
000003c0: 4625 01bc f342 bf3b 967c 51b9 8d9b 47bc
000003d0: a813 423c b437 c63c d63d ccbc cfa3 edbc
000003e0: 3b55 e4bc 09d0 b9bc 9ea9 07bd 8c48 dabc
000003f0: 5273 e5bc 6d58 82bc 3ef5 44ba e93f 553b

fc1.bias f4 [8]
0.050186295 0.007950772 -0.05078582 0.012273874 0.042110432 0.00090642803 -0.0057182126 -0.021445153
00000000: 2590 4d3d f443 023c cb04 50bd 5c18 493c
00000010: fd7b 2c3d 5b9d 6d3a d85f bbbb bfad afbc

fc2.weight f4 [8, 3200]
-0.023925502 0.004976297 0.007090506 0.019816935 -0.010829815 0.008735281 -0.012067918 0.018792978
0.004681142 -0.012816447 -0.0065473956 0.0059107277 0.009854384 -0.011287078 0.013237468 0.008534025
-0.009425774 -0.006096765 0.0032406552 -0.012314239 0.0056736944 0.0034902585 -0.015222903 0.013170625
-0.009426886 0.0010808356 -0.013863396 -0.012615881 0.008424652 -0.004042362 -0.0054609464 0.011899288
0.0007080495 0.0025847105 0.0078649875 0.013505006 0.019520272 0.01882544 -0.0064453958 0.013501953
-0.01949586 0.0019482324 0.010515943 -0.006964656 0.009142644 0.016512249 0.019062994 -0.014211877
0.0015522672 -0.0007664114 0.0133082615 -0.009883458 0.012028952 0.005472443 0.008618564 0.017038262
0.019349322 0.012838167 0.014187942 0.015654908 0.007758337 -0.009431163 -0.013820375 0.005221724
-0.012744158 0.008725936 0.007694465 -0.014055567 -0.005410931 -0.011148234 0.008900717 0.0012934653
0.008148883 0.017772393 0.014493621 -0.0024367915 -0.008937859 0.016381083 -0.002317244 -0.01513358
-0.01228473 -0.01541469 -0.009785071 0.0034913986 0.012378286 0.011089915 0.002389861 0.009691183
0.012114187 0.007325796 0.012791347 0.011154043 -0.0022675495 -0.0013111575 -0.013836364 0.01266056
-0.000620106 -0.004224181 -0.014786895 -0.0035562492 -0.008855994 -0.015328285 0.0077925366 -0.0066685225
0.0020130528 0.0043522078 0.002823166 -0.01781201 -0.001314394 -0.0024253216 -0.0010337471 0.010342726
-0.007986774 0.020030087 0.011053664 -0.015860343 -0.0050008954 -0.007017712 0.01454726 -0.008082493
0.013020913 0.012235991 0.01337334 0.018913005 -0.010436647 -0.0073004495 0.01996302 0.014837645
-0.002376265 -0.00971955 0.012687536 -0.0131739285 0.010178615 -0.0037557401 0.004074137 0.011067537
0.008624195 0.017417934 0.008835351 0.003458647 -0.007954637 -0.01776238 0.018291894 -0.010797633
-0.013083865 0.0011585236 0.016818326 -0.008077454 0.005219911 -0.012818286 0.006637293 -0.006492633
-0.01210838 -0.0069134803 -0.004325721 0.010769027 -0.011307273 -0.013339325 -0.015046387 0.013893028
0.009426902 0.0018993887 -0.006882425 -0.01689757 0.006569316 -0.013029423 0.0051847203 -0.01379462
0.006027466 0.0017387131 -0.0077915005 -0.0018202162 -0.007127994 0.010234599 0.015310386 -0.006229133
0.0070967562 0.010067348 0.000826144 0.007221152 -0.011133514 0.011422355 -0.00824882 0.009468274
0.0027410262 0.009299441 -0.015639119 0.002119621 -0.015003545 0.0012511447 0.0035493507 0.004634681
0.015738966 -0.014561739 0.0107909795 0.010709823 -0.004174274 0.011573645 0.007835755 -0.0091569
-0.015398959 0.0040078936 -0.0035364912 0.015083249 0.0017598963 9.89422e-05 0.0029980955 -0.00068313297
0.010912072 0.00061221985 0.0026232535 0.018234808 0.01290104 0.016948245 0.010949545 -0.010420883
-0.010396303 -0.013690624 -0.012512988 0.003988674 0.0017626899 -0.012456741 0.02157449 0.017575445
0.006989657 0.011069004 -0.0036640593 0.0073894206 0.0056099272 0.016913803 -0.0050300425 -0.00061436556
-0.0071961726 0.0053569046 -0.0065080016 0.008664037 -0.0004993288 0.013973417 0.0039097373 -0.0094298525
0.010054377 0.008435735 0.009854158 -0.013767478 0.012125222 -0.012247327 0.005004801 -0.0019181204
0.020550884 -0.0082923705 -0.019273723 -0.0019585039 0.01161188 0.004286367 0.019985221 -0.0017258523
00000000: 6aff c3bc 3410 a33b 7a57 e83b 2057 a23c
00000010: 896f 31bc 6d1e 0f3c 84b8 45bc bbf3 993c
00000020: 4464 993b 13fc 51bc 898b d6bb c7ae c13b
00000030: 4874 213c 70ed 38bc f7e1 583c 4cd2 0b3c
00000040: 906e 1abc 5fc7 c7bb 2c61 543b a9c1 49bc
00000050: 66ea b93b d2bc 643b 7c69 79bc 9bc9 573c
00000060: 3a73 1abc d3aa 8d3a 4c23 63bc d7b2 4ebc
00000070: 8d07 0a3c ca75 84bb bdf1 b2bb 3bf5 423c
00000080: 669c 393a 3f64 293b 26dc 003c 1a44 5d3c
00000090: fae8 9f3c cf37 9a3c e633 d3bb 4c37 5d3c
000000a0: c8b5 9fbc d55b ff3a 104b 2c3c c537 e4bb
000000b0: 07cb 153c b244 873c ff29 9c3c efd8 68bc
000000c0: 7275 cb3a 00e9 48ba e50a 5a3c 3aee 21bc
000000d0: 1515 453c 2e52 b33b e134 0d3c d393 8b3c
000000e0: 7882 9e3c 2d57 523c 8b74 683c b93e 803c
000000f0: a639 fe3b 2a85 1abc db6e 62bc ff1a ab3b
00000100: dfcc 50bc 3af7 0e3c da21 fc3b 5249 66bc
00000110: 2e4e b1bb 15a7 36bc 50d4 113c 7e89 a93a
00000120: e482 053c 6997 913c a776 6d3c 94b2 1fbb
00000130: 1970 12bc 9f31 863c e7dc 17bb d6f2 77bc
00000140: e445 49bc e58d 7cbc 9051 20bc f3cf 643b
00000150: 4bce 4a3c 7ab2 353c 379f 1c3b c5c7 1e3c
00000160: 957a 463c 3b0d f03b cc92 513c 72bf 363c
00000170: 2b9b 14bb 25db abba ebb1 62bc 3d6e 4f3c
00000180: 9c8e 22ba 006b 8abb bc44 72bc f60f 69bb
00000190: bb18 11bc 7d23 7bbc 8958 ff3b 9f83 dabb
000001a0: 6ced 033b f79c 8e3b de04 393b 7eea 91bc
000001b0: be47 acba 25f2 1ebb cc7e 87ba 8974 293c
000001c0: f5da 02bc 2316 a43c 6d1a 353c 8ded 81bc
000001d0: 8dde a3bb d6f4 e5bb a157 6e3c 6f6c 04bc
000001e0: ab55 553c 7779 483c da1b 5b3c 72ef 9a3c
000001f0: 78fe 2abc 9c38 efbb 7d89 a33c 9819 733c
00000200: 1cbb 1bbb bf3e 1fbc 62df 4f3c 76d7 57bc
00000210: 35c4 263c dd22 76bb 5780 853b 9d54 353c
00000220: 7f4c 0d3c 0eb0 8e3c 26c2 103c 78aa 623b
00000230: 2a54 02bc 6982 91bc e2d8 953c 8ee8 30bc
00000240: b55d 56bc 9ad9 973a 96c6 893c 4c57 04bc
00000250: ca0b ab3b ca03 52bc a67d d93b 27c0 d4bb
00000260: 3a62 46bc 7a8a e2bb c7be 8dbb 9370 303c
00000270: 2442 39bc 2f8d 5abc 1f85 76bc 959f 633c
00000280: 4b73 1a3c e9f4 f83a f785 e1bb c66c 8abc
00000290: 6b43 d73b 5c79 55bc 96e4 a93b d402 62bc
000002a0: 0d82 c53b 88e5 e33a d84f ffbb 5294 eeba
000002b0: f391 e9bb 05af 273c 6ad8 7a3c c11d ccbb
000002c0: e88b e83b 85f1 243c 9691 583a 6a9f ec3b
000002d0: 5869 36bc d424 3b3c 0f26 07bc d220 1b3c
000002e0: caa2 333b af5c 183c 9c1d 80bc 57e9 0a3b
000002f0: 6ed1 75bc 73fd a33a 399c 683b 86de 973b
00000300: 01ef 803c 5c94 6ebc a6cc 303c 4178 2f3c
00000310: 59c8 88bb 639f 3d3c 8a61 003c d306 16bc
00000320: ea4b 7cbc a654 833b 7ac4 67bb bb1f 773c
00000330: 52ac e63a 307f cf38 b27b 443b 4714 33ba
00000340: 8cc8 323c 617d 203a e4ea 2b3b 2a61 953c
00000350: e25e 533c 0cd7 8a3c b865 333c 5abc 2abc
00000360: 4155 2abc a44e 60bc 4703 4dbc 6cb3 823b
00000370: 0f0a e73a 5c17 4cbc fcbc b03c 61fa 8f3c
00000380: 7e09 e53b c55a 353c b720 70bb f422 f23b
00000390: 7bd3 b73b d18e 8a3c 0ed3 a4bb 600d 21ba
000003a0: dfcd ebbb f988 af3b 1341 d5bb 9bf3 0d3c
000003b0: 63e5 02ba c2f0 643c 411d 803b ab7f 1abc
000003c0: 1dbb 243c 0936 0a3c 5673 213c fd90 61bc
000003d0: dea8 463c 03a9 48bc 50ff a33b 7169 fbba
000003e0: 545a a83c b9dc 07bc ede3 9dbc 3e5a 00bb
000003f0: c13f 3e3c a774 8c3b 0cb8 a33c fe35 e2ba

fc2.bias f4 [8]
0.008407779 0.005866917 0.005718151 -0.0063435244 0.0043738536 0.014961547 0.00072442245 -0.017272638
00000000: c8c0 093c 443f c03b 545f bb3b 57dd cfbb
00000010: 8b52 8f3b 4721 753c 2be7 3d3a 597f 8dbc
