code/models/big_obs_encoder_32.pth (torch, 848234 bytes, 10 tensors)

conv1.weight f4 [8, 1, 5, 5]
-0.0018713977 0.15247211 0.20599814 -0.0008493218 -0.27731857 -0.0948489 0.0494392 0.39161462
0.120352305 -0.3089365 0.17293246 -0.025248367 0.3918177 0.17818291 -0.23703402 -0.0824956
0.14143425 0.18688641 -0.08587979 -0.031848732 0.026018588 -0.07605003 -0.082705595 0.031712
0.04108918 -0.15777238 -0.21025193 0.07141516 -0.046915498 -0.037891142 0.264375 0.28538263
0.40584752 0.042295944 0.12783106 0.07156538 0.38790753 0.085500546 -0.11330012 -0.14381698
0.017885698 0.08330463 -0.016329639 -0.028448053 -0.15932283 -0.18675774 -0.28848547 0.11751812
-0.15051785 0.08196808 -0.22716807 -0.16670208 -0.07057691 0.17934136 0.12761429 0.21960245
0.24326004 0.18810678 -0.060947288 -0.057275314 -0.118751645 0.030985532 0.2987948 -0.04075462
0.005729183 0.052956197 0.290477 0.37152714 0.14695843 0.0013847416 -0.003797554 0.093529895
-0.0946836 0.08828041 -0.06123064 -0.028666535 -0.20411704 -0.068548135 0.09781521 0.014527323
0.13763863 0.08742612 0.22077496 -0.022490984 -0.0029237126 0.27240488 0.33175883 0.08493646
0.19344707 -0.05522341 0.07807331 -0.0030593914 -0.110490225 -0.047099125 0.15503243 0.13064905
-0.04720846 0.1862221 0.15608975 0.114289 -0.11377554 -0.047176395 -0.029208437 -0.02510479
0.04933471 0.27577785 0.23967835 0.07776062 0.16985968 -0.008718481 0.1335503 0.29897338
0.09000014 -0.06679809 0.02369391 0.1967278 0.2706763 0.17391887 -0.103281274 0.028658615
0.07359241 -0.09310099 -0.049676836 -0.033683743 0.118644685 -0.07846752 0.05478344 0.13232604
-0.05155054 0.024620963 -0.073491454 -0.12737554 -0.25365594 -0.056749407 -0.05078608 0.0053439243
-0.37434733 -0.37906715 0.07185373 0.27255005 0.00071042543 -0.2704205 -0.25358066 -0.16819656
0.24148253 0.24455546 0.117200166 0.003011968 0.23252293 -0.038875822 0.13989033 -0.0134274075
0.087019 -0.20395336 0.0887093 0.20986098 0.010852583 -0.11382499 0.15866837 -0.022604056
-0.04925459 -0.20766123 0.07686722 -0.10521144 0.24822083 0.053187706 0.037009224 -0.010298019
0.18013518 0.24249175 0.12063785 -0.07877941 0.25241622 0.15082 -0.14675876 0.30064654
-0.034394123 -0.05894604 -0.016476283 0.10409605 0.34905967 0.24570951 -0.018938372 -0.047534417
-0.15324247 0.27493215 0.06419529 0.14788905 -0.036353447 0.007948393 0.16956416 -0.07505172
-0.017859386 0.12011752 0.12964022 -0.013111529 0.018560825 0.15080349 -0.0709914 0.19796057
00000000: b049 f5ba a621 1c3e 2df1 523e 05a5 5eba
00000010: b3fc 8dbe 2440 c2bd c280 4a3d b681 c83e
00000020: 457b f63d ed2c 9ebe 3515 313e aad5 cebc
00000030: 549c c83e 9575 363e 0cb9 72be 74f3 a8bd
00000040: 24d4 103e 275f 3f3e bee1 afbd d173 02bd
00000050: ef24 d53c 1ec0 9bbd 8d61 a9bd 71e4 013d
00000060: 214d 283d 158f 21be 484c 57be 1d42 923d
00000070: 772a 40bd be33 1bbd 295c 873e ac1d 923e
00000080: 3fcb cf3e 833e 2d3d 25e6 023e df90 923d
00000090: d19b c63e e91a af3d e509 e8bd c244 13be
000000a0: 0785 923c 9e9b aa3d bcc5 85bc e40b e9bc
000000b0: 8625 23be 6c3d 3fbe 5eb4 93be 57ad f03d
000000c0: 5a21 1abe e1de a73d bf9e 68be f3b3 2abe
000000d0: a18a 90bd 43a5 373e 52ad 023e 77df 603e
000000e0: 2919 793e 109f 403e dda3 79bd 8599 6abd
000000f0: 1034 f3bd 5fd5 fd3c a2fb 983e 51ee 26bd
00000100: dfbb bb3b 99e8 583d 67b9 943e ce38 be3e
00000110: 457c 163e 3880 b53a 62e0 78bb 9a8c bf3d
00000120: 7ae9 c1bd 5ccc b43d fbcc 7abd 15d6 eabc
00000130: 0f04 51be f762 8cbd 5753 c83d 0204 6e3c
00000140: 24f1 0c3e 770c b33d d512 623e 033f b8bc
00000150: c29b 3fbb a778 8b3e 4bdc a93e 2bf3 ad3d
00000160: fd16 463e f131 62bd e6e4 9f3d 1280 48bb
00000170: b348 e2bd 03eb 40bd d2c0 1e3e ddc8 053e
00000180: a85d 41bd 02b1 3e3e fed5 1f3e 5a10 ea3d
00000190: 2603 e9bd 093c 41bd 8846 efbc 90a8 cdbc
000001a0: 3113 4a3d c132 8d3e 3e6e 753e f640 9f3d
000001b0: b2ef 2d3e f6d7 0ebc 69c1 083e 0a13 993e
000001c0: fe51 b83d 70cd 88bd bb19 c23c 0373 493e
000001d0: 1696 8a3e ca17 323e 2285 d3bd 79c5 ea3c
000001e0: 9eb7 963d bbab bebd f079 4bbd f7f7 09bd
000001f0: fcfb f23d 94b3 a0bd 9a64 603d 7a80 073e
00000200: a926 53bd e7b1 c93c b082 96bd bc6e 02be
00000210: 31df 81be 1172 68bd 1105 50bd 161c af3b
00000220: 74aa bfbe 1715 c2be 0c28 933d ae8b 8b3e
00000230: d83b 3a3a 8e74 8abe 53d5 81be b83b 2cbe
00000240: 3247 773e bf6c 7a3e a406 f03d 7064 453b
00000250: 7e1a 6e3e 413c 1fbd 693f 0f3e a1fe 5bbc
00000260: 0437 b23d 26d9 50be 39ad b53d cce5 563e
00000270: 08cf 313c 141d e9bd f679 223e 242c b9bc
00000280: 2ebf 49bd 25a5 54be 906c 9d3d 1879 d7bd
00000290: 9a2d 7e3e 5adb 593d fc96 173d 06b9 28bc
000002a0: 5b75 383e c24f 783e fa10 f73d 1957 a1bd
000002b0: b33c 813e 8f70 1a3e ee47 16be 58ee 993e
000002c0: dae0 0cbd 6771 71bd 45f9 86bc 4f30 d53d
000002d0: f3b7 b23e 469b 7b3e a524 9bbc 73b3 42bd
000002e0: 98eb 1cbe e8c3 8c3e d278 833d 3a70 173e
000002f0: 5ae7 14bd fa39 023c 3aa2 2d3e b7b4 99bd
00000300: d94d 92bc 2d00 f63d 68c0 043e bdd1 56bc
00000310: df0c 983c 3b6c 1a3e f063 91bd 2db6 4a3e

conv1.bias f4 [8]
-0.00015177476 0.066672675 0.26281145 -0.0004147288 -0.030586189 -0.020764908 0.28040993 -0.06945985
00000000: ba25 1fb9 af8b 883d 398f 863e f56f d9b9
00000010: e38f fabc 2b1b aabc e491 8f3e f740 8ebd

conv2.weight f4 [16, 8, 3, 3]
0.11974922 0.017973727 0.09545946 0.030382333 0.18918778 0.16185728 -0.08040565 0.06741078
0.10961532 0.03550214 0.03505125 0.24195892 -0.0595838 0.2372822 0.31912273 -0.11077477
0.018259617 -0.07603186 -0.00795443 0.16037634 0.15494366 -0.08915686 0.051791213 0.0005610187
-0.08570853 -0.024727058 -0.021891244 -0.045768082 -0.020207593 0.18847853 0.0877006 0.14141311
0.12616687 0.06067981 0.025087826 -0.07258165 0.07254112 0.2200069 0.18808678 0.10839905
0.087326296 0.12949294 -0.02703589 0.04818416 -0.029764287 0.026573872 -0.16226208 -0.080341585
0.05954681 -0.15227498 -0.14159133 0.22412534 -0.027178966 -0.0023497094 0.1515189 0.06943006
-0.039533723 0.0792126 -0.0055494686 0.11581988 0.12242529 -0.046631716 0.044729028 -0.09457807
-0.07408419 0.1708647 -0.079367526 0.17962907 0.26686695 -0.15050629 -0.08740715 0.086645074
-0.10812032 -0.024680685 -0.19318523 0.08212408 0.15269984 -0.06652687 0.09224688 0.20998123
0.022544658 0.07848304 0.16719352 -0.10657206 0.040892478 0.16786465 0.21043603 -0.04297633
0.068414494 -0.076048546 0.06265935 0.17554052 0.14074616 -0.008251145 0.14783806 0.14282818
-0.12619789 -0.1108321 0.09487798 0.014418759 -0.049717117 -0.01066767 0.124544434 0.057130072
0.014642694 0.06775261 -0.11335713 -0.0038285884 -0.07587732 0.18728359 -0.031599592 -0.02064502
0.1172075 0.21887349 -0.14641531 0.041223582 -0.10008437 -0.10753142 -0.12101295 0.11864862
0.055306308 -0.1344069 -0.1859407 0.06762564 0.08185683 -0.057859607 -0.069431484 0.06669808
-0.03921612 0.0025546092 0.09317586 -0.020692382 0.019231295 0.07286935 0.035182014 -0.056202933
-0.090251304 -0.11457743 0.0012816746 0.16714536 0.06574521 -0.055917673 0.062228303 0.1705815
-0.024773978 -0.138928 -0.099351935 0.10130368 0.10398796 -0.044833984 0.04581025 0.03388404
0.044350144 -0.097582385 -0.11746091 -0.03189422 0.21208003 0.12666495 0.23114884 0.043940317
0.0004162292 -0.079057574 -0.036945324 0.12915368 -0.03630292 0.17622001 0.21667357 0.09418091
-0.12150931 0.06763467 -0.1128052 -0.046040643 0.13238108 0.09584366 0.15531226 0.23378523
-0.0009525474 0.10022699 0.16340965 0.1422345 -0.054017458 0.0667733 0.087490454 0.22905928
0.14743334 0.14421271 0.09145826 -0.033466034 0.099564165 -0.0665048 -0.0015445198 0.12373917
-0.2611887 -0.26668945 -0.023509406 0.14511438 -0.109288864 -0.017783547 -0.045088653 -0.06345211
0.0861394 0.019406838 -0.030772377 0.1133931 -0.12424336 0.0042254888 -0.0009148273 -0.06750148
-0.050132923 -0.13084385 -0.016078053 0.19747259 -0.0034098043 0.052574933 0.23164798 0.15741903
-0.084507875 -0.0861208 -0.07186676 -0.0048657185 -0.0207195 0.10108783 0.0028418459 0.22104323
-0.0999467 -0.18967298 0.012518848 -0.061158724 -0.0057412363 0.1775492 0.12507932 -0.078037485
0.23826486 0.16782784 0.081923105 -0.008962522 -0.07096493 0.12822059 0.048335597 0.052394297
0.069215134 0.09155867 0.074797176 -0.10864676 -0.06333476 0.029826175 -0.014184611 -0.053832237
0.15573019 0.08153471 0.105974704 0.11277735 0.026109517 0.053090792 -0.04465457 0.01574874
00000000: 143f f53d a33d 933c 4080 c33d 5fe4 f83c
00000010: 71ba 413e eabd 253e b8ab a4bd aa0e 8a3d
00000020: ff7d e03d b16a 113d e691 0f3d 14c4 773e
00000030: 250e 74bd 1bfa 723e 0e64 a33e e2dd e2bd
00000040: 3195 953c 98b6 9bbd 4c53 02bc b239 243e
00000050: 8da9 1e3e df97 b6bd 0623 543d 5411 133a
00000060: f487 afbd 6690 cabc 4455 b3bc 5077 3bbd
00000070: 658a a5bc 8400 413e 5f9c b33d 99ce 103e
00000080: e331 013e 648b 783d fc84 cd3c b0a5 94bd
00000090: 7090 943d 7d49 613e d299 403e 5200 de3d
000000a0: 21d8 b23d cc99 043e 5f7a ddbc c15c 453d
000000b0: 3cd4 f3bc 73b1 d93c 0828 26be 218a a4bd
000000c0: 5be7 733d f9ed 1bbe 51fd 10be 1d81 653e
000000d0: 6ca6 debc 95fd 19bb c527 1b3e 5931 8e3d
000000e0: 1dee 21bd 373a a23d 51d8 b5bb f932 ed3d
000000f0: 1cba fa3d e600 3fbd c935 373d 26b2 c1bd
00000100: 74b9 97bd 28f7 2e3e 718b a2bd aff0 373e
00000110: c9a2 883e 521e 1abe 8502 b3bd f972 b13d
00000120: 306e ddbd 262f cabc 59d2 45be ab30 a83d
00000130: 595d 1c3e 3d3f 88bd efeb bc3d 5205 573e
00000140: 93af b83c b7bb a03d c734 2b3e 7442 dabd
00000150: df7e 273d b6e4 2b3e 8b7c 573e f307 30bd
00000160: e61c 8c3d 57bf 9bbd 8c53 803d e5c0 333e
00000170: c31f 103e cf2f 07bc dc62 173e 8d41 123e
00000180: 053a 01be f1fb e2bd 634f c23d a93c 6c3c
00000190: 2da4 4bbd 73c7 2ebc 2711 ff3d 3901 6a3d
000001a0: e9e7 6f3c e1c1 8a3d c827 e8bd 0ee9 7abb
000001b0: 9165 9bbd 45c7 3f3e 936e 01bd bf1f a9bc
000001c0: 7c0a f03d 5f20 603e e5ed 15be 0fda 283d
000001d0: 09f9 ccbd 6f39 dcbd a3d5 f7bd 0cfe f23d
000001e0: de88 623d f6a1 09be 3d67 3ebe 507f 8a3d
000001f0: 8ea4 a73d 32fe 6cbd 1832 8ebd 0199 883d
00000200: 15a1 20bd 3b6b 273b fcd2 be3d 1283 a9bc
00000210: f38a 9d3c 873c 953d 041b 103d 0c35 66bd
00000220: add5 b8bd 92a7 eabd ddfd a73a 2728 2b3e
00000230: 6da5 863d ee09 65bd 1be3 7e3d ebac 2e3e
00000240: ccf2 cabc 2443 0ebe 0779 cbbd 4e78 cf3d
00000250: a4f7 d43d d7a3 37bd 87a3 3b3d fec9 0a3d
00000260: 7fa8 353d 46d9 c7bd 588f f0bd 83a3 02bd
00000270: 822b 593e 75b4 013e 48b2 6c3e c3fa 333d
00000280: 5639 da39 f0e8 a1bd fb53 17bd dd40 043e
00000290: 5fb2 14bd 0573 343e addf 5d3e ece1 c03d
000002a0: e0d9 f8bd 0c84 8a3d 6a06 e7bd 1d95 3cbd
000002b0: e88e 073e ae49 c43d 2d0a 1f3e 6565 6f3e
000002c0: 60b4 79ba cf43 cd3d dc54 273e eca5 113e
000002d0: 6941 5dbd 71c0 883d 322e b33d 848e 6a3e
000002e0: c4f8 163e 7fac 133e 784e bb3d ae13 09bd
000002f0: 4ce8 cb3d ab33 88bd 7c71 caba f66a fd3d
00000300: 86ba 85be 858b 88be cc96 c0bc dd98 143e
00000310: d7d2 dfbd cdae 91bc e1ae 38bd 2ef3 81bd
00000320: db69 b03d 17fb 9e3c 5a16 fcbc a43a e83d
00000330: 4d73 febd f875 8a3b 05d1 6fba 373e 8abd
00000340: 2e58 4dbd eefb 05be 1fb6 83bc 4136 4a3e
00000350: 0677 5fbb d058 573d 2135 6d3e 7432 213e
00000360: 7712 adbd 1a60 b0bd e12e 93bd 9b70 9fbb
00000370: f1bb a9bc 2307 cf3d 433e 3a3b 2859 623e
00000380: dbb0 ccbd a239 42be db1b 4d3c 9281 7abd
00000390: fb20 bcbb 75cf 353e cb14 003e 1ed2 9fbd
000003a0: b4fb 733e 10db 2b3e 4dc7 a73d 8bd7 12bc
000003b0: 1056 91bd 424c 033e 8cfb 453d 679b 563d
000003c0: aac0 8d3d 1d83 bb3d 432f 993d 3182 debd
000003d0: a8b5 81bd 0656 f43c 9266 68bc 317f 5cbd
000003e0: bc77 1f3e acfb a63d 4409 d93d d0f7 e63d
000003f0: a0e3 d53c bb75 593d b6e7 36bd 8003 813c

conv2.bias f4 [16]
0.046027876 0.056687564 -0.03240741 0.14841798 0.24190381 0.09384252 -0.036000594 0.08743162
0.03824152 -0.008115738 0.16045296 -0.03668151 0.21568704 0.22987065 0.07248502 -0.1340679
00000000: ba87 3c3d 3831 683d a2bd 04bd e2fa 173e
00000010: a2b5 773e 8230 c03d 5c75 13bd 590f b33d
00000020: 24a3 1c3d dff7 04bc c84d 243e 5a3f 16bd
00000030: 10dd 5c3e 3663 6b3e 0773 943d 1849 09be

conv3.weight f4 [32, 16, 3, 3]
-0.11694205 0.010176847 -0.01807257 0.04899987 0.12489159 0.08068861 0.06057021 0.06435989
0.08287104 -0.010682401 -0.036400005 0.05744559 -0.073944844 0.12151989 0.13924302 -0.055710297
0.042796995 0.06473269 -0.098059535 0.063375406 0.016561745 0.010381521 0.021722931 0.011567703
-0.036788456 0.051020574 0.076644205 -0.07407019 0.13927339 0.031089427 0.07777964 0.13528962
0.117890246 0.07236876 0.08356599 0.041001834 0.10345015 0.19946626 0.07302833 0.18417963
0.13031095 -0.055726144 0.058982875 0.0021726273 -0.11422862 -0.20599163 0.0039201733 0.089188
-0.15435532 0.073819965 0.21932189 0.025786128 0.115478404 0.16620654 -0.054676015 -0.020858983
0.03432569 -0.021403635 0.046369568 -0.039054375 0.017436791 -0.07959769 -0.0027196533 0.024852116
-0.017237362 0.0765144 0.050350778 0.15413575 0.08281146 -0.039015286 0.0841465 0.037197802
0.003231706 -0.06554695 0.0957004 -0.0067466395 0.11342212 0.17107777 -0.064429365 0.06470305
0.08918057 -0.052068032 -0.05870171 0.08628806 0.04898946 0.03777967 0.00061201 0.023919996
0.12205043 -0.06615079 0.07853377 0.12093362 0.10392007 0.07828893 0.12742676 -0.0026306456
0.074435525 0.051171716 -0.014787027 -0.023909396 -0.069384746 -0.09606921 -0.007846076 0.019951178
0.13362938 -0.048182577 0.12797557 0.08522129 0.10633659 0.11406988 0.008698257 0.17855212
-0.066304766 -0.20905875 0.17591515 0.062168315 0.01562177 0.13174225 0.17472205 0.11720754
0.1399765 0.11985449 -0.0017557314 0.1270846 0.09555429 -0.15348575 -0.04450923 -0.0467131
-0.12147627 -0.026543392 0.015843187 0.02041211 -0.023174845 -0.018376548 0.069477506 -0.009301455
0.06323749 -0.08387506 -0.044049427 -0.007829177 0.05344521 -0.051655576 -0.03147473 0.041376866
-0.047998633 -0.10443476 -0.018398227 -0.007916522 0.14343774 -0.025950622 0.0028601284 0.045034833
-0.03829272 0.051614594 -0.024057947 -0.070950635 0.06403107 0.046684828 0.046500344 -0.012314393
0.04117917 0.015762318 -0.023748118 0.075672835 -0.05064761 -0.060696736 0.032081865 0.096819215
0.0013837619 -0.044507273 0.04480599 0.05662251 0.0793207 0.07840951 0.025715437 0.07369319
0.048209384 0.06851157 -0.011588104 0.017655456 0.1383665 -0.021185117 0.008792858 0.10827261
-0.02121394 -0.032753874 0.12975545 -0.0714088 -0.060738903 -0.18193147 -0.052490663 -0.028536553
-0.037525643 0.29075456 0.07154215 -0.008017514 0.09899581 0.079653084 -0.06969055 0.045976155
-0.073419146 0.031055354 0.09053604 0.014364284 -0.0011480089 0.06553604 -0.004402765 -0.014094001
-0.018913213 -0.017752886 -0.0298789 0.072574764 0.06968249 0.07839588 0.08799702 -0.09715635
-0.0037968582 -0.112056084 -0.020690449 -0.074253 0.19869311 0.07356214 0.073953494 0.06284213
-0.090581074 -0.109269924 -0.039608892 2.5500949e-05 0.03047992 0.06755552 0.114368096 -0.017935233
-0.03398713 0.015352281 -0.060120422 0.07208111 -0.015435876 0.039191727 0.10155335 0.068201095
0.0670979 0.03860434 -0.026021358 0.011389315 -0.010154871 0.005005267 0.024869068 0.0006653585
0.03876203 -0.046985816 0.109884985 -0.014718658 0.049624626 -0.002792085 -0.026048396 0.029999753
00000000: 507f efbd cabc 263c ed0c 94bc 16b4 483d
00000010: 29c7 ff3d 1240 a53d 7818 783d 1ecf 833d
00000020: 4bb8 a93d 3d05 2fbc 2c18 15bd 114c 6b3d
00000030: 6570 97bd 6cdf f83d b995 0e3e 7b30 64bd
00000040: e74b 2f3d 9392 843d 70d3 c8bd f7ca 813d
00000050: 7fac 873c 4117 2a3c 4af4 b13c 7786 3d3c
00000060: 7eaf 16bd f3fa 503d a3f7 9c3d 1db2 97bd
00000070: af9d 0e3e 41af fe3c ef4a 9f3d 5d89 0a3e
00000080: 7170 f13d 1336 943d a524 ab3d 8af1 273d
00000090: acdd d33d e240 4c3e e18f 953d 9699 3c3e
000000a0: 3c70 053e 1941 64bd 0798 713d a362 0e3b
000000b0: b2f0 e9bd 78ef 52be cc74 803b 33a8 b63d
000000c0: 520f 1ebe ec2e 973d eb95 603e 6e3d d33c
000000d0: f17f ec3d 0c32 2a3e f5f3 5fbd 75e0 aabc
000000e0: 1899 0c3d ad56 afbc 04ee 3d3d 7bf7 1fbd
000000f0: 9ad7 8e3c 1d04 a3bd 363c 32bb aa96 cb3c
00000100: 5e35 8dbc 95b3 9c3d 9e3c 4e3d c3d5 1d3e
00000110: 0e99 a93d 7ece 1fbd 0055 ac3d b95c 183d
00000120: 08cb 533b 7b3d 86bd 92fe c33d ea12 ddbb
00000130: db49 e83d 032f 2f3e 8bf3 83bd 0883 843d
00000140: 4da4 b63d 4a45 55bd 3471 70bd cbb7 b03d
00000150: 2ca9 483d dbbe 1a3d 4c6f 203a def3 c33c
00000160: 93f5 f93d 117a 87bd 50d6 a03d 0cac f73d
00000170: 0cd4 d43d f255 a03d 297c 023e e966 2cbb
00000180: a771 983d 6f99 513d 4945 72bc a3dd c3bc
00000190: 9719 8ebd efbf c4bd d48c 00bc a770 a33c
000001a0: 24d6 083e 185b 45bd 070c 033e 8088 ae3d
000001b0: 00c7 d93d 789d e93d 2283 0e3c 5ed6 363e
000001c0: cbca 87bd 7f13 56be 1a23 343e 34a4 7e3d
000001d0: 74f2 7f3c 71e7 063e 56ea 323e 820a f03d
000001e0: 0056 0f3e 4576 f53d 9220 e6ba 7722 023e
000001f0: f8b1 c33d 5e2b 1dbe 4f4f 36bd 3c56 3fbd
00000200: 8dc8 f8bd 8771 d9bc 92c9 813c 4c37 a73c
00000210: 2cd9 bdbc 6a8a 96bc 394a 8e3d 2165 18bc
00000220: a882 813d b0c6 abbd 2c6d 34bd f345 00bc
00000230: 5de9 5a3d cc94 53bd a6eb 00bd ca7a 293d
00000240: 379a 44bd e4e1 d5bd e1b7 96bc 4db4 01bc
00000250: 58e1 123e 6696 d4bc fe70 3b3b 7276 383d
00000260: d4d8 1cbd d369 533d 2c15 c5bc 914e 91bd
00000270: b922 833d 9738 3f3d 2577 3e3d 4fc2 49bc
00000280: 7dab 283d fa1f 813c 6a8b c2bc 5cfa 9a3d
00000290: de73 4fbd 249d 78bd 4668 033d 2749 c63d
000002a0: 585f b53a 424d 36bd 7c86 373d 01ed 673d
000002b0: e472 a23d 2a95 a03d 2ea9 d23c 75ec 963d
000002c0: 3477 453d cb4f 8c3d 08dc 3dbc 2da2 903c
000002d0: f3af 0d3e 698c adbc eb0f 103c 08be dd3d
000002e0: dbc8 adbc ed28 06bd 9dde 043e c73e 92bd
000002f0: 5bc9 78bd 3e4c 3abe 7300 57bd 7dc5 e9bc
00000300: 7db4 19bd c8dd 943e b184 923d e45b 03bc
00000310: 51be ca3d 2821 a33d ebb9 8ebd 7e51 3c3d
00000320: c75c 96bd cc67 fe3c f66a b93d 2d58 6b3c
00000330: c978 96ba c237 863d 1245 90bb 86ea 66bc
00000340: e2ef 9abc 806e 91bc 98c4 f4bc 14a2 943d
00000350: b1b5 8e3d 058e a03d c837 b43d e9f9 c6bd
00000360: b6d4 78bb a97d e5bd 047f a9bc f511 98bd
00000370: 3576 4b3e bfa7 963d ee74 973d 60b3 803d
00000380: 9282 b9bd e9c8 dfbd ef3c 22bd dfea d537
00000390: 06b1 f93c 8c5a 8a3d d239 ea3d e9ec 92bc
000003a0: 1736 0bbd 2288 7b3c d540 76bd 439f 933d
000003b0: c2e6 7cbc 8187 203d 34fb cf3d 04ad 8b3d
000003c0: a06a 893d 961f 1e3d be2a d5bc 409a 3a3c
000003d0: 9e60 26bc 3903 a43b 37ba cb3c 746b 2e3a
000003e0: efc4 1e3d 3374 40bd 610b e13d 8726 71bc
000003f0: 3143 4b3d 6afb 36bb 7263 d5bc 0bc2 f53c

conv3.bias f4 [32]
0.079894885 0.09788729 0.086855896 -0.15260355 0.083095506 0.023590032 0.08065101 -0.122623935
0.11039166 0.21082768 -0.12474518 0.004873354 -0.06348099 0.078842014 -0.04466729 0.11283073
0.07204613 -0.10666211 0.07885501 -0.0119718695 0.09626008 0.03004837 -0.015068227 0.12400825
-0.0455416 0.064338155 -0.030899895 0.105020724 0.051688038 0.03099371 0.09744523 0.204427
00000000: ee9f a33d 2279 c83d 81e1 b13d 1b44 1cbe
00000010: fa2d aa3d e23f c13c 5b2c a53d 4222 fbbd
00000020: 0615 e23d 36e3 573e 677a ffbd a8b0 9f3b
00000030: 5202 82bd ec77 a13d 0cf5 36bd cc13 e73d
00000040: ec8c 933d aa71 dabd bc7e a13d a925 44bc
00000050: 0124 c53d 0028 f63c bae0 76bc 0af8 fd3d
00000060: d489 3abd b9c3 833d c721 fdbc 1b15 d73d
00000070: d6b6 533d 85e6 fd3c 5d91 c73d 5055 513e

fc1.weight f4 [32, 3200]
0.021768961 0.039905418 0.010409191 0.018112576 -0.01233161 -0.024135817 0.0053119496 0.0008581951
0.004946577 -0.0049579255 0.00061505067 -0.00017882758 -0.0016632059 -0.030676866 -0.03813403 -0.022865448
-0.0041820277 -0.008957034 0.0025855897 0.01236181 -0.010402445 -0.030378852 -0.0074801436 -0.03739112
-0.015060094 -0.017874938 -0.010678226 0.01648946 0.021150326 0.03202877 -0.020268757 0.008050624
-0.015344451 0.0027445774 -0.008340996 -0.011950169 0.007113952 0.0034236666 0.007082849 -0.009454942
-0.022022827 -0.009541274 -0.003535381 0.009652573 -0.022060284 0.004503173 0.0082196165 -0.0023489918
-0.005621391 -0.039383784 0.0032289133 0.023951657 0.012360293 -0.005471076 -0.008258422 -0.005846797
-0.0033920188 -0.024760006 -0.025543384 -0.013763293 0.002263003 -0.008342739 0.0056367144 -0.01670375
-0.027227905 -0.007374912 -0.015723633 0.009219526 0.0020956027 0.021270068 -0.0109748235 -0.015249688
-0.022106588 -0.023849115 -0.0070664966 -0.008174664 -0.02383219 -0.0025511375 0.024692994 0.02403028
0.00202446 -0.0019441904 -0.014668492 0.009619097 0.00621944 0.0049956506 -0.030942183 -0.008517858
0.0021261089 -0.021515664 -0.010070315 -0.042054646 -0.042718817 0.011948914 0.022839915 -0.008028656
-0.029256022 -0.01957075 -0.027464604 -0.02682398 0.011393806 0.013606359 0.011027632 0.03828457
-0.0020691962 -0.009964559 -0.013229181 -0.0064899735 -0.02222455 -0.0046401867 0.02959063 -0.013660135
0.010514076 -0.024419196 -0.031033032 -0.02234052 -0.020219406 -0.0047163265 0.02591929 0.021517595
0.0010082555 0.014908875 -0.009158539 0.0015676998 -0.027818779 -0.023236105 -0.013950977 -0.015238806
0.010083612 0.034790352 -0.0007783194 0.010526421 -0.010608434 0.0059938044 -0.010858694 -0.008559105
-0.022071205 -0.0015688696 -0.014132544 -0.005718595 0.0071597937 0.008438765 0.019640755 0.00048069152
0.012871435 -0.02344527 -0.0058099716 0.0060589286 -0.018194878 -0.012261203 -0.003369282 0.014718381
0.002212809 0.022283513 -0.0014262049 -0.019499255 -0.0016004303 -0.018747348 0.0016842353 -0.03105427
-0.019383846 0.009576569 -0.0009455397 -0.003895869 -0.008289618 0.0063187163 0.010013465 -0.019470459
-0.01864756 -0.0013809853 -0.009712954 0.001288819 -0.008268583 0.014985989 0.016781632 -0.0060354476
-0.010924691 0.0015973054 -0.017111594 0.016533198 0.022122035 0.009203856 -0.013220482 -0.027310876
0.011953957 0.00846398 0.005684606 -0.02907743 -0.005637599 -0.00093567127 -0.022242371 -0.018431446
-0.037435323 -0.030140674 0.022098409 0.035047386 -0.004257942 0.0037085928 -0.001077283 -0.022815702
0.018272296 0.019474713 -0.002071566 -0.026722685 -0.032217436 -0.031559426 0.012393319 0.03095583
0.047344916 -0.0029998557 -0.019937532 -0.031276967 -0.035319094 -0.035637643 -0.048206966 0.015629966
0.034038667 0.038079847 0.06517774 0.015579366 -0.0031592252 -0.019431354 -0.042067576 -0.0254228
-0.029739134 -0.0041378243 0.03473641 0.060950384 0.039690048 -0.043331355 -0.013821902 -0.019316787
-0.0124126 -0.01573782 -0.026799543 -0.0059435004 0.008274179 0.01732682 0.0030117107 -0.079009145
-0.011960358 0.014270691 -0.007590813 -0.022852046 -0.015775174 -0.01712337 -0.012386267 0.00074287865
0.006324439 -0.01893585 -0.010896748 0.014600222 -0.0071523236 -0.012141062 -0.040423352 -0.035626274
00000000: d254 b23c dd73 233d 508b 2a3c d360 943c
00000010: 850a 4abc 7ab8 c5bc dd0f ae3b 80f8 603a
00000020: e516 a23b 1876 a2bb 5a3b 213a aa83 3bb9
00000030: eeff d9ba 0d4e fbbc 6e32 1cbd 5250 bbbc
00000040: 6409 89bb 86c0 12bc ff72 293b 3089 4a3c
00000050: 046f 2abc 12dd f8bc fe1b f5bb 6e27 19bd
00000060: 9dbe 76bc 766e 92bc baf3 2ebc e714 873c
00000070: 7343 ad3c 9930 033d aa0a a6bc c4e6 033c
00000080: 4b67 7bbc 5ede 333b aca8 08bc a4ca 43bc
00000090: 281c e93b 985f 603b 3e17 e83b e7e8 1abc
000000a0: 3769 b4bc 0153 1cbc dab1 67bb d325 1e3c
000000b0: c5b7 b4bc 5a8f 933b 92ab 063c 8bf1 19bb
000000c0: a533 b8bb e450 21bd 2d9c 533b 4436 c43c
000000d0: d482 4a3c b646 b3bb 554e 07bc 7d96 bfbb
000000e0: a24c 5ebb 7fd5 cabc 5c40 d1bc 6f7f 61bc
000000f0: e44e 143b fcaf 08bc 30b4 b83b 4dd6 88bc
00000100: 0e0d dfbc 3fa9 f1bb d9ce 80bc 7f0d 173c
00000110: 6156 093b 913e ae3c bfcf 33bc d4d9 79bc
00000120: e018 b5bc 385f c3bc 128e e7bb 07ef 05bc
00000130: ba3b c3bc fc30 27bb f648 ca3c 26db c43c
00000140: cdac 043b 34d4 feba 1d54 70bc 6b99 1d3c
00000150: 72cc cb3b 8eb2 a33b 767a fdbc 7c8e 0bbc
00000160: 3056 0b3b 9e41 b0bc f6fd 24bc 7e41 2cbd
00000170: edf9 2ebd 61c5 433c c61a bb3c a08a 03bc
00000180: 53aa efbc d652 a0bc 73fd e0bc f7bd dbbc
00000190: 16ad 3a3c 35ed 5e3c 3ead 343c 48d0 1c3d
000001a0: 5a9b 07bb 6442 23bc 35bf 58bc d8a9 d4bb
000001b0: 4210 b6bc b50c 98bb 0d68 f23c c2ce 5fbc
000001c0: 3b43 2c3c c40a c8bc fc38 febc 7703 b7bc
000001d0: 2ba3 a5bc 6a8b 9abb b154 d43c ab45 b03c
000001e0: 7127 843a 5b44 743c b20d 16bc 477b cd3a
000001f0: 35e4 e3bc a559 bebc a392 64bc 2fac 79bc
00000200: bc35 253c 5480 0e3d 2108 4cba 0277 2c3c
00000210: ffce 2dbc ad67 c43b aae8 31bc 7d3b 0cbc
00000220: acce b4bc 87a2 cdba 308c 67bc 0d63 bbbb
00000230: b49c ea3b bf42 0a3c a6e5 a03c 5305 fc39
00000240: b6e2 523c 4b10 c0bc 9361 bebb fa89 c63b
00000250: 6d0d 95bc 36e3 48bc 2ccf 5cbb 5d25 713c
00000260: c604 113b ea8b b63c 7fef baba e7bc 9fbc
00000270: 88c5 d1ba 0a94 99bc 8fc1 dc3a 8665 febc
00000280: dfca 9ebc 0be7 1c3c 18de 77ba d651 7fbb
00000290: 2ed1 07bc 3c0d cf3b 840f 243c 8380 9fbc
000002a0: c5c2 98bc 2d02 b5ba 1523 1fbc 97ed a83a
000002b0: f378 07bc cb87 753c a279 893c 01c5 c5bb
000002c0: 7afd 32bc ad5c d13a 9d2d 8cbc a170 873c
000002d0: 4539 b53c c5cb 163c b89a 58bc 0fbb dfbc
000002e0: 88da 433c 81ac 0a3c ee45 ba3b ca33 eebc
000002f0: 9cbb b8bb d647 75ba a235 b6bc 8bfd 96bc
00000300: c855 19bd 93e9 f6bc b907 b53c d98d 0f3d
00000310: 3586 8bbb dd0b 733b 9f33 8dba ffe7 babc
00000320: c8af 953c 6f89 9f3c 1cc3 07bb 88e9 dabc
00000330: 6ef6 03bd 7544 01bd 590d 4b3c 1597 fd3c
00000340: beec 413d 3a99 44bb 0954 a3bc 471c 00bd
00000350: c1aa 10bd c7f8 11bd ab74 45bd 6a0a 803c
00000360: 216c 0b3d 9df9 1b3d e87b 853d 9940 7f3c
00000370: 010b 4fbb 812e 9fbc 0d4f 2cbd 7a43 d0bc
00000380: 7c9f f3bc 9696 87bb c447 0e3d 1ca7 793d
00000390: 0892 223d 387c 31bd 4275 62bc 3d3e 9ebc
000003a0: 385e 4bbc 9aec 80bc b78a dbbc b2c1 c2bb
000003b0: 6c90 073c faf0 8d3c 1f60 453b 8ccf a1bd
000003c0: 61f5 43bc 9ecf 693c 5bbc f8bb 3734 bbbc
000003d0: f03a 81bc 4f46 8cbc c5ef 4abc bebd 423a
000003e0: 3d3d cf3b 5b1f 9bbc 4688 32bc c535 6f3c
000003f0: 0a5e eabb 4eeb 46bc f592 25bd dbec 11bd

fc1.bias f4 [32]
-0.037220623 0.0022675472 -0.014521513 -0.012433509 0.026780764 0.026327945 0.038931556 -0.025268523
-0.0075102975 -0.0020787723 -0.048830025 -0.03126297 -0.005527532 0.004265662 -0.0144171035 -0.05090063
0.0004852366 0.03439253 0.010750968 0.03375792 0.00939439 -0.026571909 -0.038200628 -0.010048936
0.05602227 -0.0013305014 -0.06067544 0.04971368 0.0064363363 -0.03671461 0.06941366 0.022876423
00000000: a774 18bd 219b 143b a4eb 6dbc ebb5 4bbc
00000010: 5563 db3c b4ad d73c b276 1f3d efff cebc
00000020: f118 f6bb 033c 08bb fe01 48bd 9a0d 00bd
00000030: 4d20 b5bb f7c6 8b3b b735 6cbc 2e7d 50bd
00000040: 5b67 fe39 2edf 0c3d d424 303c bf45 0a3d
00000050: edea 193c 55ad d9bc 4378 1cbd 4ba4 24bc
00000060: 9c77 653d 3864 aeba cf86 78bd 92a0 4b3d
00000070: e7e7 d23b 0f62 16bd c028 8e3d 5667 bb3c

fc2.weight f4 [32, 3200]
-0.0019913183 0.006854891 0.010885917 0.005304399 -0.014485648 -0.004662984 0.007647235 -0.01232287
-0.019648405 -0.0067563085 0.0017597302 -0.0043215 0.011374778 -0.011373634 -8.334245e-05 -0.0044740955
0.0056205406 -0.009333597 0.011871412 -0.0050364966 -0.003953841 -0.0010018335 -0.010336544 -0.0022629725
-0.013780065 0.013094547 0.011363342 -0.0031578927 0.00892218 -0.010182809 -0.01787135 0.012088292
0.014091114 0.008910333 -0.009636203 -0.0023812696 -0.013551899 -0.010268026 0.0005822333 0.004458213
0.0065444238 -0.008720638 -0.0018938289 -0.019059328 0.0005062452 -0.009972013 0.009580479 3.2275162e-05
-0.0020099133 0.0002416472 0.011213374 0.010465683 0.012917896 -0.008085753 0.00097493094 -0.014674887
0.0079983 -0.0052809464 0.007111481 -0.01692959 0.0056587798 0.012194626 0.014320025 0.005500904
-0.016907038 0.009977996 -0.011129554 -0.007452355 -0.005150179 -0.0063901 0.0036391744 -0.0097551765
0.011580489 -0.009734945 -0.019426323 -0.0034385484 0.013901669 -0.0040972405 -0.0069391434 -0.009742472
0.0076478682 0.013701749 -0.018873349 -0.010380344 -0.00052578 0.00036970823 -0.019188605 -0.005933348
0.0055163996 0.010637523 -0.0048609287 -0.0047079003 -0.014379695 0.014057771 -0.00490302 -0.016281355
-0.017985083 -0.016756032 -0.0057052406 -5.7125257e-05 -0.00799925 0.0025995905 0.002441154 0.0023330385
-0.00786407 0.004733337 -0.008489103 -0.0022187233 0.011873376 0.012975638 -0.0067429286 0.004029362
-0.019015009 0.014571255 -0.012192852 0.012166217 -0.0154728955 -0.011821209 0.010749506 0.014708957
0.012690018 -0.016380066 -0.007326595 -0.00934442 0.003881606 0.011015791 0.009980158 0.00045838868
0.005623213 -0.017074853 -0.001429405 0.014347612 -0.0030501839 0.0005541515 -0.014719634 -0.017901676
0.0034995978 -0.0076412545 -0.0067659966 -0.0070926966 0.0067814374 0.013219735 -0.01895369 -0.016264023
-0.013641663 -0.005618998 -0.016750865 0.0051845387 0.008987884 0.012537541 -0.0041205175 -0.0062624426
0.0031876736 0.013177685 0.01344515 0.015023515 0.0049334746 0.013768879 -0.002550141 0.0066825747
0.01007624 -0.014186779 0.01318797 0.00017108687 -0.018189967 0.0020357382 0.008063282 0.008286422
-0.01634822 -0.004836257 0.01316845 -0.01084385 -0.014674859 0.005379394 -0.013897211 -0.010109996
0.009528239 -0.010663975 -0.0022578624 0.00467742 0.010070382 -0.007478353 0.014568754 -0.0058454266
-0.0016771802 0.0101044625 -0.013276715 0.007935573 -0.008609072 0.008565538 -0.0070372294 -0.00066203537
-0.0063021127 -0.015070917 0.0013058471 0.0043145763 -0.010625638 -0.004114912 0.011364069 0.0056576077
0.009763051 -0.016124047 -0.003960529 -0.0064313677 0.009981417 0.014452489 0.009778732 0.014427069
0.015593486 0.014394345 0.0072726547 -0.016241413 -0.010684731 -0.013880889 0.014937128 -0.008012612
0.008251575 -0.014571664 0.008570997 0.017022658 -0.011700149 0.007555466 0.01678498 -0.00037672665
0.00047278177 0.008334245 -0.009243366 0.010370811 -0.00200344 0.00017365273 -0.008670294 0.009395252
-0.008840398 -0.004674731 0.0070250686 0.012386334 0.013632045 -0.0018495672 -0.00377137 -0.015367294
0.014770968 -0.01554433 0.006139543 -0.009578896 -0.005343394 0.004245271 -0.0031128721 0.008248552
-0.00041784658 0.0069965245 -0.00214971 -0.011411786 -0.009560892 0.009199084 0.0071395766 0.010950504
00000000: c780 02bb fe9e e03b d85a 323c 86d0 ad3b
00000010: 3655 6dbc f2cb 98bb a895 fa3b dde5 49bc
00000020: b1f5 a0bc 0664 ddbb bfa6 e63a 5f9b 8dbb
00000030: 475d 3a3c 7b58 3abc 23c8 aeb8 6f9b 92bb
00000040: 832c b83b f1eb 18bc 5080 423c 3209 a5bb
00000050: 398f 81bb f44f 83ba 9c5a 29bc 614e 14bb
00000060: c8c5 61bc 838a 563c 502d 3a3c a6f4 4ebb
00000070: 562e 123c ccd5 26bc f066 92bc f90d 463c
00000080: 6ade 663c a5fc 113c 2ae1 1dbc 130f 1cbb
00000090: c908 5ebc 393b 28bc 04a1 183a 3416 923b
000000a0: 9b72 d63b 02e1 0ebc 5a3a f8ba 4f22 9cbc
000000b0: 8ab5 043a a761 23bc 71f7 1c3c 315f 0738
000000c0: c0b8 03bb ad62 7d39 4db8 373c 4278 2b3c
000000d0: 95a5 533c 1b7a 04bc 8292 7f3a f06e 70bc
000000e0: 4d0b 033c ca0b adbb 6d07 e93b ecaf 8abc
000000f0: 496d b93b f8cb 473c 8a9e 6a3c ed40 b43b
00000100: a180 8abc c07a 233c bc58 36bc e332 f4bb
00000110: d5c2 a8bb 0b64 d1bb 377f 6e3b 2dd4 1fbc
00000120: 17bc 3d3c 527f 1fbc f423 9fbc 4559 61bb
00000130: d3c3 633c 2542 86bb c161 e3bb e49e 1fbc
00000140: f89a fa3b 4d7d 603c 489c 9abc 5212 2abc
00000150: 80d4 09ba 66d5 c139 6c31 9dbc 886c c2bb
00000160: eac2 b43b 0149 2e3c 6d48 9fbb bb44 9abb
00000170: d098 6bbc 9152 663c 83a9 a0bb 7a60 85bc
00000180: 7455 93bc f243 89bc 07f3 babb c799 6fb8
00000190: 490f 03bc e45d 2a3b c5fb 1f3b e4e5 183b
000001a0: 4dd8 00bc 1c1a 9b3b e115 0bbc 0068 11bb
000001b0: 8c88 423c c597 543c c9f3 dcbb bd08 843b
000001c0: 5dc5 9bbc 46bc 6e3c 87c4 47bc d054 473c
000001d0: 0782 7dbc bfad 41bc b21e 303c d6fd 703c
000001e0: cbe9 4f3c 7d2f 86bc ef13 f0bb 5719 19bc
000001f0: 8b62 7e3b 947b 343c d183 233c e353 f039
00000200: ee42 b83b 90e0 8bbc df5a bbba 3f12 6b3c
00000210: 98e5 47bb 7a44 113a 9f2a 71bc 89a6 92bc
00000220: 8259 653b 7d63 fabb 4bb5 ddbb da69 e8bb
00000230: d236 de3b 9697 583c c544 9bbc 213c 85bc
00000240: 4881 5fbc 921f b8bb 1c39 89bc 10e3 a93b
00000250: eb41 133c 426a 4d3c 6805 87bb 2d35 cdbb
00000260: 4ae8 503b 38e7 573c 0c49 5c3c 3025 763c
00000270: fca8 a13b dd96 613c 4420 27bb 80f9 da3b
00000280: d016 253c aa6f 68bc 5b12 583c c865 3339
00000290: 2003 95bc 056a 053b db1b 043c c6c3 073c
000002a0: b4ec 85bc 7779 9ebb 7cc0 573c 67aa 31bc
000002b0: d26e 70bc a145 b03b 21b1 63bc 66a4 25bc
000002c0: 551c 1c3c f4b7 2ebc a5f8 13bb 0b45 993b
000002d0: 3efe 243c f90c f5bb c8b1 6e3c fe8a bfbb
000002e0: d4d4 dbba 308d 253c 9486 59bc 3504 023c
000002f0: 110d 0dbc 7856 0c3c 8f98 e6bb 718c 2dba
00000300: f481 cebb 02ec 76bc f528 ab3a 4a61 8d3b
00000310: 2817 2ebc 62d6 86bb 5c30 3a3c 7463 b93b
00000320: 34f5 1f3c 9416 84bc 53c7 81bb 39be d2bb
00000330: 1989 233c 22ca 6c3c fa36 203c 835f 6c3c
00000340: d27b 7f3c 42d6 6b3c 734f ee3b b60c 85bc
00000350: 030f 2fbc ab6c 63bc dbba 743c 5547 03bc
00000360: 9d31 073c fdbd 6ebc 5e6d 0c3c 1a73 8b3c
00000370: fbb1 3fbc d893 f73b a880 893c 6583 c5b9
00000380: b2df f739 5b8c 083c 7d71 17bc 56ea 293c
00000390: 254c 03bb 8d16 3639 d90d 0ebc 8bee 193c
000003a0: 51d7 10bc 7c2e 99bb 8c32 e63b 0df0 4a3c
000003b0: f158 5f3c 2d6d f2ba 1729 77bb 1ac7 7bbc
000003c0: ee01 723c a5ad 7ebc 382e c93b cdf0 1cbc
000003d0: a317 afbb ea1b 8b3b 5401 4cbb ef24 073c
000003e0: 6b12 dbb9 1a43 e53b 26e2 0cbb 80f8 3abc
000003f0: 4aa5 1cbc c1b7 163c 1cf3 e93b be69 333c

fc2.bias f4 [32]
0.0057887286 0.013871497 0.004258864 0.0076532983 -0.0035364511 0.006518981 0.01383803 -0.013248293
0.017589495 7.822356e-05 -0.0104409475 0.0037828789 -0.017209614 0.012137429 -0.0067298026 -0.0053859265
-0.016704889 0.017219065 -0.011647872 -0.016341714 -0.012539852 -0.0071514137 -0.015750254 0.016090877
-0.010890582 -0.016982572 0.0043232315 0.009425045 0.011985684 -0.014857116 0.013175904 0.013191631
00000000: 60af bd3b 4645 633c f18d 8b3b 85c8 fa3b
00000010: cec3 67bb 2d9d d53b e8b8 623c 5e0f 59bc
00000020: d817 903c f40b a438 8210 2bbc 2dea 773b
00000030: 2dfb 8cbc 11dc 463c ad85 dcbb 6d7c b0bb
00000040: b1d8 88bc ff0e 8d3c b7d6 3ebc 0fdf 85bc
00000050: f473 4dbc 6856 eabb ad06 81bc 04d1 833c
00000060: 696e 32bc 091f 8bbc e5a9 8d3b 816b 1a3c
00000070: 9a5f 443c 436b 73bc bfdf 573c b621 583c
