code/models/big_obs_decoder_32.pth (torch, 450586 bytes, 7 tensors)

fc1.weight f4 [3200, 32]
000000 60 13 02 bd f6 e2 1f be 93 35 29 3e 7a 1a b5 3c
       -0.03175676 -0.15613922 0.16524343 0.022107352
000010 ef 07 d3 bd 04 f6 95 3d 75 6f ff bd 35 c1 87 bd
       -0.103042476 0.073223144 -0.124724306 -0.06628648
000020 95 73 29 be cd 02 11 3e 38 dc 44 bd 27 0f 8d 3d
       -0.16547997 0.14161225 -0.04806158 0.06887656
000030 51 78 94 3d c7 08 07 be 48 61 00 be b5 16 8f bd
       0.07249511 -0.13186942 -0.1253711 -0.06986753
000040 35 6e 22 be 3d 05 09 3e 6d df aa bd 67 ca 8d 3d
       -0.15862353 0.13380904 -0.08343396 0.06923371
000050 24 45 54 bd 9b 5e 1a 3d be dd ac 3d 93 4f 4c bd
       -0.05182375 0.03768788 0.084407315 -0.049880575
000060 5c 51 0d 3e b6 87 a6 3d 0f ca 2e be be 38 35 be
       0.13800567 0.081313536 -0.17069267 -0.17697427
000070 04 0e 69 bc 70 6a 91 3d 18 ee b9 bc 9b 17 4d bd
       -0.014224533 0.071003795 -0.02269654 -0.05007134
000080 4d e0 02 be 24 07 43 3e a6 9c 05 3e d6 47 1a 3e
       -0.12780876 0.19045693 0.13048038 0.15066466
000090 03 82 df 3a 80 93 41 bd cd 5c 01 3e d6 32 21 3d
       0.0017052296 -0.047259808 0.12633057 0.03935512
0000a0 24 41 17 3e 57 24 ff 3c ae 33 1a 3e bf dc 50 3e
       0.14770943 0.031145258 0.15058777 0.20396708
0000b0 ab c2 35 3d ab 8e e2 bc a9 bd 62 3d d1 81 5c 3c
       0.044375103 -0.02765592 0.055356655 0.013458685
0000c0 aa 39 d8 3d e0 eb 4a bd 89 a5 50 bd f0 d9 56 bc
       0.105578735 -0.049541354 -0.050939117 -0.013113484
0000d0 a7 e4 6e 3d 91 09 d8 3d c2 d9 a3 3d cf fe 6b bc
       0.05832353 0.105487 0.080005184 -0.014404013
0000e0 29 5f 73 3d 3a f2 8c 3d 79 65 fe 3c e4 e4 0f be
       0.059416924 0.068821386 0.031054245 -0.14052159
0000f0 f7 59 0b bd cc 51 10 be a0 ab ed bd 47 3c 1d 3e
       -0.034021344 -0.14093703 -0.116050005 0.15355025
000100 d0 08 4f bc f1 a0 31 be 90 91 a1 3c 12 8f 25 be
       -0.012636378 -0.1734655 0.01972273 -0.16167858
000110 41 00 2d 3e 75 6d 0c be db bc 0e 3e 01 7b 8e 3d
       0.16894628 -0.1371363 0.1393923 0.06957055
000120 6c e0 0a 3e 1b 7f bd 3d 7e 40 f8 bd e0 f3 18 bd
       0.13562173 0.09252759 -0.12121676 -0.037341952
000130 04 1f bc bd 37 68 02 be 14 76 0d be c6 fe 1a 3e
       -0.09185603 -0.12735067 -0.13814574 0.15136251
000140 09 68 5d bd 02 14 25 3e d2 de 2c be 77 76 ce 3c
       -0.054054294 0.16120914 -0.16881874 0.025202973
000150 19 0a 1b be 40 70 bd 3d de e1 a0 bd ec a3 8c bd
       -0.1514057 0.092499256 -0.07855581 -0.06867203
000160 cc ed 08 3e e9 f0 21 be 1e 5c ec 3d 90 ee 18 3e
       0.13371962 -0.15814556 0.115410075 0.14934754
000170 0a b5 0e be b7 6d e3 3d ba ec 06 be 57 3c ab bd
       -0.13936248 0.11104911 -0.13176242 -0.08361118
000180 84 4b 27 be 60 42 21 be 42 49 e5 bd 97 e2 b7 bd
       -0.163374 -0.15747976 -0.111956134 -0.089787655
000190 d9 93 13 bd 98 f7 c2 3c 50 0b 08 3e c8 7a 39 3d
       -0.03602967 0.023799703 0.13285565 0.04528311
0001a0 a7 ca dd bd a7 a0 7c bd 0b af 78 3d 57 3c e6 bd
       -0.108296685 -0.061676648 0.06071381 -0.11241978
0001b0 69 38 10 3e 2c fa 18 be f2 95 63 bd d8 b4 ff bc
       0.14084019 -0.14939183 -0.05556292 -0.031214163
0001c0 a6 99 18 3e 52 01 f3 3d ad 43 0d 3e 92 2a 23 3d
       0.14902362 0.11865486 0.13795348 0.03983552
0001d0 32 83 ce 3d 29 18 91 3d d3 a1 2a be 0c 9a fa bd
       0.10083617 0.07084686 -0.16663294 -0.12236413
0001e0 cb 5f 29 be 83 01 39 3e 06 63 4b 3d 64 0f c7 3d
       -0.16540448 0.18066983 0.049654983 0.097197324
0001f0 84 8a ba bc 87 75 0a be 5a e0 ea 3d 19 0b af 3c
       -0.022771128 -0.13521396 0.11468573 0.021367596
000200 c9 b2 06 be c2 59 b6 3c 8d 96 7c bd 1f 28 01 be
       -0.13154139 0.022259597 -0.061667014 -0.12612961
000210 42 93 ab 3d d0 bc a5 bc 37 39 9b 3d e7 be ac 3d
       0.083776966 -0.020231634 0.07579272 0.08434849
000220 24 36 17 3e 08 df d2 3d 32 82 8f bd 5f 31 03 bc
       0.14766747 0.10296446 -0.07007255 -0.008007376
000230 1e da c8 bd d8 0a c4 bc a3 da 54 bc d3 86 97 3d
       -0.098072276 -0.023930952 -0.01299158 0.073987626
000240 5f fc a4 3d 70 2a ee bc a7 5e 46 3c 6a 92 9d 3d
       0.080559485 -0.02907297 0.012107528 0.07693942
000250 ce fd 04 3e ff b7 de 3d c9 1d 36 3e e3 c2 13 bd
       0.12987444 0.10874938 0.177848 -0.03607453
000260 be a4 39 bc 6a f5 8f 3d 0a 9f 9a 3d d2 a2 15 3e
       -0.0113307815 0.07029231 0.075498655 0.14612892
000270 03 16 06 3e a2 b0 d5 3d b6 9b bc 3d 41 57 9f 3d
       0.13094334 0.10434081 0.09209387 0.07780314
000280 e3 28 4a bd e7 15 f4 bb a9 7c 0d 3d 08 f6 05 3e
       -0.0493554 -0.0074489 0.034542713 0.13082135
000290 25 c7 d2 3d a7 be 24 3e 03 50 ee 3d d6 45 97 bd
       0.1029189 0.16088353 0.11636355 -0.07386367
0002a0 4a b6 76 bd 43 c8 8e 3d 9c 0f 9e bd 61 02 5b bd
       -0.06023244 0.06971791 -0.07717821 -0.053469066
0002b0 a8 7d c3 3d 98 49 c9 3d 0e 1e 12 3d 73 32 93 3d
       0.095454514 0.0982849 0.035673194 0.07187357
0002c0 1e 8d 28 3e f9 ab ca 3d 9e c2 25 3e 4f f9 34 bd
       0.16460082 0.098960824 0.16187522 -0.04418307
0002d0 87 f9 30 bd ad 13 68 bd e2 6e b0 bd 07 3a f2 bc
       -0.043206718 -0.05665939 -0.08614899 -0.029568685
0002e0 74 92 f0 bc 4f b7 4a bd 49 4e 12 bd bb 31 e3 3d
       -0.02936671 -0.049491223 -0.03571919 0.1109347
0002f0 a5 d9 56 bd 28 1a 30 3e 58 9e b3 3d a4 ec 3e bd
       -0.052453656 0.17197478 0.08770436 -0.046612397
000300 02 9f 05 bd ea 4f bb 3d ca b2 f9 bd e7 5b 01 be
       -0.032622345 0.09146102 -0.121923044 -0.12632714
000310 f4 d5 91 bd 06 42 38 3e 2a e4 c2 3c 9f 42 9b bd
       -0.071208864 0.17993936 0.023790438 -0.07581066
000320 16 90 89 bd 04 16 0b 3e 5c 2a f7 3d 5e 6b 17 3e
       -0.06716935 0.13582617 0.12068626 0.14787051
000330 8a fe cf bd bb 31 bc 3d f8 6f c5 bc 6c 83 b4 3c
       -0.10155971 0.09189173 -0.024101242 0.022035323
000340 b0 f6 30 be ac 69 95 bd 05 4d 89 bd 5b 45 66 3d
       -0.17281604 -0.07295546 -0.067041434 0.056218486
000350 62 b1 4c bd 98 c4 1c bd 24 a2 2b 3e 6c 62 ba bd
       -0.049973853 -0.038273424 0.1676107 -0.09100804
000360 78 ad 41 be 77 be a9 3c f7 56 13 be 33 76 10 3d
       -0.1891383 0.020720704 -0.14388643 0.035268974
000370 0b 53 ae 3d 37 c6 b4 bd f1 d0 10 3e 64 69 10 be
       0.08511933 -0.08826869 0.14142205 -0.14102703
000380 bf a3 41 3c ad b9 42 bd 28 e4 33 bd 38 0d c5 bd
       0.011818825 -0.047540355 -0.04391876 -0.09621662
000390 ec 8d e0 bd bd 34 89 3c 57 3d 89 bd 2f 62 27 3d
       -0.109645694 0.01674878 -0.06701153 0.04086512
0003a0 2c b1 1b 3e f9 95 66 3d de fa 6d bd ad 86 c7 bd
       0.15204304 0.05629537 -0.058100574 -0.09742484
0003b0 af 0c 91 3d 43 ae 1c be c4 99 62 3d 1e 20 ee 3d
       0.07082497 -0.1530085 0.055322424 0.116272196
0003c0 d5 e5 f7 bd 37 a5 b2 b9 14 44 1f 3e 01 db 1a 3e
       -0.12104384 -0.000340739 0.15553313 0.15122606
0003d0 9a 90 6d 3d 0c d5 17 be f4 28 de 3d fe 96 9f bd
       0.05799923 -0.14827365 0.10847655 -0.07792471
0003e0 e2 f1 12 bd 4b 9d 7b 3d 45 1e 12 bd 49 6d bc 3c
       -0.03587521 0.061429303 -0.0356734 0.02300133
0003f0 b3 c7 79 3c 98 f1 33 be 00 19 c5 3d 72 e9 a8 bd
       0.015245366 -0.1757263 0.09623909 -0.08247651

fc1.bias f4 [3200]
000000 0a c6 9a 3c e3 0d 3c be 22 c2 b3 3d ac fe f3 3d
       0.01889326 -0.18364672 0.08777262 0.11913809
000010 3a c4 22 bd 76 ed 64 3d 94 7e d8 3d fd fd 4a bd
       -0.039737917 0.055890523 0.10571018 -0.04955863
000020 b5 f4 5c bd 1e 32 f3 3c fd ab 57 be e4 6c bc 3d
       -0.05394431 0.029686984 -0.21061702 0.09200457
000030 5f 7e 06 be 5b 51 d0 bb ea 36 ff 3d 72 91 95 3d
       -0.13134144 -0.0063573546 0.12461646 0.07303132
000040 c6 21 bd 3d e6 a6 47 be 35 5a 9a 3d b7 c6 de 3d
       0.092349574 -0.1949726 0.07536737 0.108777456
000050 d2 d8 03 bd d2 3a 08 3e f3 0f a4 bd 20 93 17 bd
       -0.032189198 0.13303688 -0.080108546 -0.037005544
000060 54 53 15 3d 28 a1 e4 bb 0b ee 14 be bd 8b a5 bc
       0.03645642 -0.006977219 -0.14543931 -0.020208234
000070 66 ac 2e be 9a 7b dc bd d7 33 3a bd fe 13 b6 bc
       -0.17057952 -0.107657626 -0.045459595 -0.02222633
000080 ff ef 8b bd 6a 3e 00 bc 87 ba 60 3c 6b 4d 16 be
       -0.06832885 -0.007827381 0.013716347 -0.1467797
000090 17 2a f2 bd 38 a0 3b 3d 68 65 23 3d 37 cc d2 3c
       -0.11824434 0.045807093 0.03989163 0.025732143
0000a0 e0 6d 24 3d 41 eb a3 3d 31 c7 f3 3d f3 aa d3 bc
       0.040143847 0.080038555 0.11903227 -0.02583835
0000b0 e7 be 1a 3d 96 ba bf 3d 6b fa 73 bc 3b cb e6 3c
       0.037779715 0.0936176 -0.014891247 0.02817308
0000c0 e4 41 aa 3c fd c0 47 be 2f ff 21 be ac 58 00 be
       0.020783372 -0.19507213 -0.15820001 -0.12533826
0000d0 13 46 55 bd a2 38 86 3d 85 7a f7 bd 29 4d f0 3d
       -0.05206878 0.065537706 -0.120839156 0.11733467
0000e0 79 de f0 bd 28 1f 30 bc f2 65 2d 3d a7 d2 00 be
       -0.11761183 -0.010749616 0.04233355 -0.12580357
0000f0 15 3d 36 be 42 30 93 bd df b4 2e be e2 97 88 39
       -0.17796738 -0.07186939 -0.17061184 0.00026053103
000100 cf 1e a0 3b e7 4f a0 3c 76 e9 60 be 34 d1 66 bc
       0.004886485 0.01956935 -0.21964058 -0.014087964
000110 9b 5c 9c 3d f6 92 16 be af c4 32 bd 82 93 78 bd
       0.076348506 -0.14704499 -0.043644603 -0.06068755
000120 23 d4 55 be 18 6b 41 be 73 0d ea bd 63 b9 5c bc
       -0.20881705 -0.1888851 -0.114283465 -0.013471934
000130 81 6d 2e bc 4a 53 84 3d 89 d7 02 3e f0 87 ac 3d
       -0.010646225 0.06461199 0.12777533 0.084243655
000140 3c 44 4b bd 3e c8 49 be d7 0d 11 be 5d 02 c0 3d
       -0.04962562 -0.19705293 -0.14165436 0.09375451
000150 f6 58 18 be 1d 04 b8 bb e6 d7 55 3d a1 57 de 3d
       -0.14877686 -0.0056157247 0.05220785 0.10856558
000160 e9 1d 34 be 9a 4e 91 bd 7f 33 05 3e 35 89 3d 3e
       -0.17589535 -0.0709507 0.13007925 0.18509372
000170 a1 44 1b 3e ce da 12 3e 69 0d 25 3d dc 6b 0c be
       0.15162899 0.1434128 0.040295992 -0.1371302
000180 de 5d c8 3d 05 42 2f 3e 90 0c 81 3d 5f 64 6d 3d
       0.09783529 0.17115028 0.06301224 0.05795705
000190 73 86 23 bd 29 a4 da bd 27 be 21 3d 57 01 4c 3e
       -0.039923143 -0.10675842 0.039487984 0.19922386
0001a0 47 d2 28 3e d9 a6 54 3e 8b e7 12 3e ec f9 a0 bd
       0.16486464 0.20766772 0.14346139 -0.07860169
0001b0 78 11 e1 bd 82 d5 25 3e 22 01 98 3d 40 f7 3b 3d
       -0.1098966 0.16194728 0.07422091 0.045890093
0001c0 07 c8 36 3e f5 c4 42 3e 65 f5 54 3d 69 03 cc bd
       0.17849742 0.19020446 0.05199184 -0.09961588
0001d0 4d a4 0e be 8b 90 a8 3c 47 09 35 3e 71 6f 57 3e
       -0.13929863 0.020576736 0.1767932 0.21038605
0001e0 ca be 3a 3e 5f b1 46 3d 8f 46 b1 bd a9 5c d6 3d
       0.18236843 0.048508998 -0.08656036 0.10466892
0001f0 96 24 9c bd db 75 95 3d 10 4f aa bd 83 60 f2 bd
       -0.07624166 0.0729787 -0.08315861 -0.118348144
000200 0e bc 4f 3e 07 4d 1e 3c d0 99 90 bd f3 1a 1d 3e
       0.20286581 0.009661919 -0.070605874 0.15342312
000210 0f fa 52 3c 73 44 72 bd 84 d1 66 bd ca 6d 51 3e
       0.012877001 -0.05914731 -0.056352153 0.20452037
000220 ae 01 ae bd e6 f9 df bc d4 aa 10 3d 1e 9c b2 3d
       -0.08496414 -0.02734084 0.035319164 0.08721183
000230 fd 25 86 3d 54 71 d0 3d ed 0d 11 bd 1d 3e 32 3e
       0.065502144 0.101778656 -0.03541367 0.17406507
000240 7f 79 06 3e 68 6d 13 be 20 29 d8 bb 86 a1 d1 3d
       0.13132285 -0.14397204 -0.0065966994 0.10235886
000250 75 60 1a 3e 29 79 ad 3d 3c 4e f9 3d ee 94 53 bd
       0.15075858 0.08470375 0.12173125 -0.051655702
000260 14 d8 3d 3e 97 c1 ce 3c 73 07 fc 3d 76 cc a9 3a
       0.18539459 0.025238795 0.12306108 0.0012954611
000270 f8 a1 3e 3e 1e d3 87 3d 3b e4 84 bd cd c7 1d bd
       0.18616474 0.06632064 -0.06488844 -0.038520623
000280 c4 08 01 3e 77 f1 f3 bd f6 ac 17 3e b0 b2 f6 3d
       0.12601 -0.1191129 0.14812073 0.12045801
000290 34 1f 58 bd ed 71 f3 3c 76 10 74 ba c5 d1 3d bd
       -0.052764133 0.02971741 -0.0009310314 -0.04634263
0002a0 ea 94 3e 3e 9b 64 86 3d ba 1c d3 bd 71 9e 38 3e
       0.18611494 0.06562158 -0.103082135 0.1802919
0002b0 9b 16 1f 3e fb 0e 9d 3c c7 3d 20 3e d1 09 8d bd
       0.15535967 0.019172182 0.15648566 -0.06886638
0002c0 51 fb 4e 3e aa a0 08 3e 70 8c c1 3d c0 7b f5 bd
       0.20213057 0.13342538 0.094506145 -0.11986494
0002d0 cf 85 48 3b a0 ea f4 bc 5f 5e b0 bd ac f6 40 3e
       0.0030597334 -0.029897034 -0.0861175 0.18844098
0002e0 84 9f 29 bd 2e 7d 06 3e d3 7e 15 3e ed ab 86 3d
       -0.04141189 0.1313369 0.14599161 0.06575761
0002f0 3b 47 23 3e 4f 00 b8 bd 53 34 c5 3d d6 53 65 3e
       0.15945141 -0.08984434 0.09629121 0.22395262
000300 59 41 ff bd 5c ad b7 bd 05 d7 78 3d f9 a8 67 ba
       -0.12463636 -0.089686126 0.060751934 -0.00088371296
000310 56 1c c1 3c cc 94 f0 bd 26 02 bd 3d 1f b5 aa 3d
       0.023573082 -0.11747131 0.092289254 0.08335327
000320 3b 71 8b bd ee cb 71 bd 7f aa 91 3d 69 9a 05 be
       -0.068087064 -0.059032373 0.07112598 -0.13047184
000330 96 07 ff bb 8f 72 a6 bd 1c 9f d5 bc 58 e8 e6 bd
       -0.0077828867 -0.08127319 -0.026076846 -0.11274785
000340 ab f2 28 3d 8e 59 35 be 9d 19 2b be 78 e7 18 be
       0.04124705 -0.17709944 -0.1670899 -0.14932048
000350 1a f4 76 3d b9 7e e9 3d 77 80 2b bd 0e 12 3d 3d
       0.060291387 0.114011236 -0.04187056 0.046159796
000360 ce 7c 38 be c6 f7 37 be cf 53 98 3d b8 9c 21 bd
       -0.18016359 -0.17965612 0.0743786 -0.0394561
000370 ec 93 95 bd 04 3f 91 bc 5b 17 0c bd 6e 12 bd 3c
       -0.073036045 -0.017730244 -0.03420196 0.023080077
000380 6b a6 0a 3e b4 71 7f bc f5 12 c8 3d 16 59 cb bd
       0.13540046 -0.015591074 0.09769241 -0.09929101
000390 45 97 2b be 63 cb 21 be 52 45 a0 bd c3 d1 93 3d
       -0.16756923 -0.15800242 -0.07825722 0.07217743
0003a0 69 74 3d be 71 f4 10 3d 01 55 14 be 14 ff f4 b9
       -0.18501438 0.035389367 -0.14485551 -0.00046729355
0003b0 cc b1 4c bd 7d c1 58 be ce c2 ef 3d 4d a2 eb 3d
       -0.049974248 -0.2116756 0.11707078 0.11505566
0003c0 d0 2a 1f 3e 49 b5 3e b8 03 e6 e9 3d 8a 58 ba bd
       0.15543675 -4.5468365e-05 0.114208244 -0.09098919
0003d0 0c 2f e0 3d 99 c7 0c bd 73 64 09 be db 0b b3 3d
       0.109464735 -0.03437004 -0.13417225 0.087424956
0003e0 0c 3d 0c 3d 86 4d b5 3d d4 1d 17 3e 5e fa f9 bc
       0.034237906 0.08852677 0.14757472 -0.030514892
0003f0 b7 13 20 3d 7c 2d 1b 3e 7c f4 9c bd 42 71 26 3e
       0.0390813 0.1515407 -0.07663819 0.16254142

conv_transpose1.weight f4 [32, 16, 3, 3]
000000 62 dc 3c 3c 7b c1 31 3c c9 dd 94 3c a9 61 76 3d
       0.011527153 0.010849352 0.018172162 0.06015173
000010 91 b4 af bd ce 9a 80 3d 8c 65 0a 3d b8 27 d3 bd
       -0.08579362 0.06279527 0.03378825 -0.1031031
000020 df 83 a7 3d f6 44 21 bd a3 df 63 3d f7 9b cc 3c
       0.08179449 -0.039372407 0.0556332 0.024976714
000030 28 cb 96 bd 32 38 78 3c b7 13 a3 3d 81 22 33 3d
       -0.07362968 0.015150117 0.07962745 0.043734077
000040 11 8e 0e bd 0f 3d b3 3d 7c 7d 74 bd 1f 1e a7 3b
       -0.034803454 0.087518804 -0.059689984 0.0051000263
000050 bb d3 ba 3c b7 bd c6 bc 52 d8 09 bd 02 91 83 3d
       0.02280604 -0.024260385 -0.033653565 0.064241424
000060 d4 ab 63 bd 15 c9 7e 3d 03 27 70 bd d1 3d 89 3b
       -0.05558379 0.062203486 -0.058630954 0.0041882773
000070 fb 37 54 3c 41 78 01 bd a1 1d ec bc af 46 90 bd
       0.0129528 -0.031608824 -0.028822722 -0.07044732
000080 3c 57 45 bd 55 9b 8b bd 3d 0e 02 bc fb 0e a0 bd
       -0.048178896 -0.068167366 -0.007937965 -0.07815357
000090 d7 6a dc bb 47 9c 06 3d 80 ee 5d bd 33 41 35 bc
       -0.0067266035 0.03286388 -0.05418253 -0.011062908
0000a0 e1 bd a1 bd 7f 30 60 bd 2e c3 48 bd 7c 3a 41 3d
       -0.07897545 -0.05473375 -0.049014263 0.047174916
0000b0 47 2d 17 bd e4 84 de 3c 5f e9 f8 bc e1 8b 29 3d
       -0.036908414 0.027162977 -0.030384718 0.041393165
0000c0 5d 81 30 3d 3e 77 9e bd 3a 37 56 bc fb 5e 2b bd
       0.04309212 -0.077375874 -0.0130746905 -0.041838627
0000d0 9f 6d bc bb 5f d7 cb bd 84 e9 40 bb ae 0f 18 bc
       -0.0057503725 -0.09953188 -0.002943606 -0.009281082
0000e0 5b 9e 8b bc 14 31 51 bd 82 b6 7f bd 9b 0f b3 bd
       -0.017043283 -0.051072195 -0.062429912 -0.08743211
0000f0 1e 59 a8 3c f7 af d6 bc 09 9f bc 3d d0 de 2b 3d
       0.020550307 -0.026206953 0.09210021 0.041960537
000100 04 f1 45 bd 8b 9e ab bd 56 57 83 ba 4d 9a e9 3c
       -0.048325554 -0.08379849 -0.0010020535 0.02851596
000110 c8 ba af 3d ce 89 ae bd 37 03 b7 3d 31 b8 9b bc
       0.085805476 -0.08522378 0.0893616 -0.019008728
000120 0e 10 99 3d 87 ad 1e 3c 6b 9a 27 bd 96 5b 6e 3c
       0.07473765 0.009684927 -0.04091875 0.014548203
000130 5b de 6f bd 27 4c 8c bd a0 bb 11 bd ca f6 c9 3c
       -0.058561664 -0.068504624 -0.035579324 0.024653811
000140 54 e4 20 bd 6d 5f e4 3c d8 bb 54 bd ef 5d 72 3c
       -0.03928025 0.027877534 -0.051936954 0.014792903
000150 2e d8 c5 3c c3 79 3c 3c 5d 6c be bd ce 73 5f bd
       0.024150934 0.01150364 -0.092980124 -0.0545538
000160 22 23 d6 bc 1a aa 01 bd a1 c4 76 3d 61 4c 74 bd
       -0.0261398 -0.031656362 0.060246114 -0.059643153
000170 e7 b1 9a bd 09 74 a6 3d 4a c6 be 3d 19 50 59 3d
       -0.075534634 0.08127601 0.093151644 0.053054903
000180 d8 98 11 bd 06 85 77 bd ec 07 4a bc fe d9 91 bd
       -0.035546154 -0.060429595 -0.01233099 -0.07121657
000190 f6 33 ca 3a 1f 8b 42 3d 2a 0d c0 3c a8 0d 85 bc
       0.0015426863 0.047495957 0.023443777 -0.016241863
0001a0 81 36 3c bd 8c a5 e5 bb 9c fd 12 3d 32 b4 5b bd
       -0.045950416 -0.00700826 0.035886392 -0.053638645
0001b0 ef dc ec bc 6d 9b cc bc 8e a1 3a 3d 78 90 89 3d
       -0.028913943 -0.024976457 0.045564227 0.06717008
0001c0 d1 7e 6a 3d 0e 99 95 3c 4c 09 2b bd 28 82 d1 3c
       0.057249848 0.018261459 -0.041756913 0.025574759
0001d0 d2 2a c1 bc 7d 53 ba 3b a0 d9 8b bd fb 9d b5 bd
       -0.023579989 0.005686222 -0.06828618 -0.08868023
0001e0 8f f7 7b 3d 2f f3 e4 bc 29 ef 6a 3d 63 d9 d3 3c
       0.061515387 -0.02794799 0.057356987 0.025860494
0001f0 b3 ab 36 bd e4 87 21 3d 25 d4 98 bb f0 80 99 bd
       -0.04459734 0.039436236 -0.0046639615 -0.07495296
000200 1e 6e 6b bd 6d d8 ad 3d 48 4e 99 3d a0 3e 43 3d
       -0.057478063 0.084885456 0.07485634 0.047667146
000210 07 1c 7d bc 66 fe d9 39 01 a2 99 3c 2e 98 a9 bc
       -0.015448577 0.00041579007 0.018754007 -0.020702448
000220 3f 3e 44 3d 95 cb c1 bd 70 84 42 bd 68 78 ac 3d
       0.047910925 -0.09462658 -0.047489583 0.08421403
000230 de 90 83 3d 67 9a 50 3d 46 c1 74 bd d6 97 49 bd
       0.064241156 0.0509285 -0.059754632 -0.049217068
000240 f6 0b d4 3c e3 9f c4 3d a8 bc 39 bd 29 ac 5e bc
       0.02588461 0.096008085 -0.045345932 -0.013590851
000250 bf e2 41 bd 05 ed 86 bd a7 8c 07 3b 99 14 85 3d
       -0.047335383 -0.06588177 0.00206832 0.06498069
000260 48 4f 60 bd 7e af 20 3c 2e ff 95 bd 52 7a 73 bd
       -0.05476311 0.009807466 -0.07324062 -0.059442826
000270 6b e0 f2 3c 61 5f 7c 3d 73 33 8a bd ba 04 47 bc
       0.029648026 0.061614398 -0.067480944 -0.012147123
000280 56 51 10 bd 27 0c 36 bd bc 8f fe b9 76 41 e0 bc
       -0.035233818 -0.044445183 -0.00048553746 -0.027374964
000290 8f c9 1d 3d 22 60 3c bd e2 84 22 3c 63 c4 bd 3c
       0.0385223 -0.045990117 0.009919377 0.023164934
0002a0 93 f6 ae 3d 53 35 b6 3d 69 92 90 b9 35 83 13 3d
       0.08543124 0.088968895 -0.00027574904 0.0360138
0002b0 ff 45 97 3d 27 f3 18 3d fe 5f 76 3d 3f d1 85 3c
       0.073863976 0.037341263 0.06015014 0.016335128
0002c0 9d ec 12 3b 01 af 54 bc 4c c4 bf 3d ba 5e bd bc
       0.0022418865 -0.012981177 0.093636125 -0.023116458
0002d0 5f 32 c7 bd 4e 62 19 3d ac 52 3b bd 6b 26 d2 3b
       -0.097264044 0.037447266 -0.04573314 0.006413271
0002e0 4d 59 26 3d 43 3e ea bc e5 a0 bf 3c 2f 15 aa bd
       0.040612508 -0.028594142 0.02339215 -0.08304822
0002f0 d3 66 a1 bc 96 e9 80 bd b3 6d 86 3d b5 e3 a7 bc
       -0.01970235 -0.06294553 0.06563892 -0.020494321
000300 a5 2b 84 3c 38 4d 94 bd 47 a5 3a bd 5f 1b 70 bc
       0.016134093 -0.07241291 -0.045567777 -0.014654963
000310 b0 a6 77 bd bb 56 8c 3d f6 00 d2 3d 07 ac 30 3d
       -0.0604617 0.0685248 0.102540895 0.043132808
000320 09 05 85 bd a6 29 3e 3c ba ec 93 bd cc 03 cb bd
       -0.06495101 0.011606609 -0.072228864 -0.099128336
000330 16 82 b5 3c 58 b0 73 3d 38 af d4 bc 38 ab f3 3c
       0.022156756 0.059494346 -0.025962457 0.02974473
000340 e7 90 4b bd f4 8b 49 bd eb 8b 3e bd ef 10 5b bd
       -0.049698737 -0.049205735 -0.046520155 -0.053482946
000350 65 0e 84 3d 8b 4a a0 3d 50 00 54 3d a4 3b 05 bc
       0.06448058 0.07826718 0.05175811 -0.008131895
000360 dc 3b db bc ab 9c 74 3d 74 21 c7 3c 76 49 8f 3b
       -0.026761942 0.059719723 0.024307944 0.004372771
000370 fe 7a 1d bd 07 51 ac bd 4d c2 7a bd 20 19 be 3d
       -0.038447373 -0.08413892 -0.061220456 0.09282136
000380 75 5e 27 bd 07 0f 3c 3d 8b 57 5a 3d 71 6f 64 3d
       -0.040861566 0.04591277 0.053306144 0.05577034
000390 ed 2c 8f 3d 94 5b 4c 38 b5 e2 74 3c 19 7b 22 3d
       0.06990991 4.872268e-05 0.014946629 0.039668176
0003a0 46 a1 2b ba e1 28 8d 3d e0 13 4e bd a0 0b b9 bd
       -0.0006547164 0.06892563 -0.050311923 -0.090354204
0003b0 d4 58 4e bd bd 64 72 bd e1 41 e4 bc 25 34 db 3b
       -0.05037768 -0.059178103 -0.027863445 0.0066895657
0003c0 93 89 00 bc 4e b6 78 3d d5 86 40 bd 61 0d 1a 3d
       -0.0078453 0.060720734 -0.047003586 0.037610415
0003d0 5c 2c 52 bd 9d 90 25 bd 79 f5 a9 3b d6 33 6e bd
       -0.051311836 -0.040421117 0.0051867333 -0.058154903
0003e0 f1 55 00 bd f2 56 20 3d e0 34 93 bd ee ae b8 3d
       -0.03133196 0.039145418 -0.071878195 0.0901774
0003f0 f1 1a 82 3d e7 8a a8 3d a5 be ca 3c 74 26 76 bd
       0.06352795 0.082296185 0.02474911 -0.060095266

conv_transpose1.bias f4 [16]
000000 a9 34 fa 3d 98 7c a3 bb 37 2a cb 3d b6 8b d8 3d
       0.122170754 -0.004989218 0.09920161 0.10573523
000010 4c a1 f5 bd db 6b 14 3e 3b e0 76 bd 02 14 ec bd
       -0.119936556 0.14494269 -0.060272437 -0.11527254
000020 31 b2 0f be 6a bc 24 3e ed d4 cc bd 9d bc 1d be
       -0.14032818 0.160875 -0.1000155 -0.15403982
000030 f8 47 9c 3d 74 86 0d 3e 6e 4a a4 bd 72 75 eb bb
       0.076309144 0.13820821 -0.08022009 -0.0071856314

conv_transpose2.weight f4 [16, 8, 3, 3]
000000 8f d8 2b 3d 0a 69 33 3c a1 ff f6 bb 2b d3 49 3d
       0.041954573 0.010950336 -0.0075377976 0.04927365
000010 f1 7c 8b 3d 09 5b 5d 3d 55 e7 f0 3c e7 2c 3b bd
       0.0681094 0.054041896 0.029407183 -0.04569712
000020 15 dc 98 3d c8 2c ee bd ad 5d 63 bc 5a 91 be 3d
       0.07463852 -0.11629635 -0.0138773145 0.09305067
000030 87 06 8e 3c af 3b d0 3d dc 29 08 3e 9e 66 e9 bd
       0.017337097 0.10167634 0.13297218 -0.11396526
000040 bf 74 af bd 2d c8 df 3d 7f 13 a1 3d f5 a3 af 3d
       -0.085671894 0.109268524 0.07865047 0.08576194
000050 ba 91 a5 3d 2d b8 21 bd 32 cf eb bd e9 a2 95 bd
       0.08084436 -0.039482284 -0.11514129 -0.07306463
000060 1a 2f 7a 3d af 0b e5 3d 8a a2 9c 3c 49 a3 b7 bd
       0.061080076 0.11183869 0.019120473 -0.08966691
000070 b1 3f 7d 3c 7a 6c 54 bd cd 3f ac bc d4 14 8c 3d
       0.01545708 -0.051861264 -0.021026516 0.0683991
000080 5b 54 b5 bd a3 fa db 3d 90 54 75 3d 63 c0 37 3d
       -0.0885398 0.107411645 0.0598951 0.04486121
000090 55 6d 2b bd f5 7a 9d bd 1b fa 99 3d e0 f9 b9 3c
       -0.041852314 -0.07689468 0.07518407 0.022702157
0000a0 3e 75 a8 bd 6f 82 63 bd 67 1c a8 bd 5f 97 ac bc
       -0.08225487 -0.055544313 -0.08208542 -0.021068273
0000b0 6c 88 4e bd db e8 1a bd 44 bb 9d 3d 3b fd 5b bd
       -0.05042307 -0.037819725 0.07701734 -0.053708296
0000c0 3e a2 9a 3d 99 b9 d1 3d 31 60 9e bc 17 f3 d2 3d
       0.075504765 0.10240478 -0.019332977 0.10300272
0000d0 77 b4 b5 3c d6 11 e2 39 3f 44 8f 3d 12 fb a9 bd
       0.022180779 0.00043119368 0.06995439 -0.08299841
0000e0 75 41 c7 bd 49 d4 a1 bb ed 90 e8 bd 76 0e f8 3c
       -0.09729282 -0.0049386364 -0.113557674 0.030280333
0000f0 ae 3e 33 bd 9c 67 81 bd cb c2 f0 3d f2 34 91 3d
       -0.043760948 -0.0631859 0.11755904 0.07090177
000100 51 c5 e9 3d 8f 35 72 bd ad ad aa 3d 5e a5 aa 3c
       0.11414588 -0.05913311 0.08333907 0.020830806
000110 bc 1f b8 bd d7 2e 98 bc 20 b4 93 3c ee df c5 bd
       -0.08990428 -0.018577022 0.018030226 -0.09661852
000120 e6 0d c2 bd 2c 55 88 bd 8b 6f e1 bb d5 ba 95 bc
       -0.09475307 -0.0665687 -0.006879752 -0.018277565
000130 5e ef ef 3d a4 a1 bf 3c c7 1e 43 3d 44 c2 56 bd
       0.117155775 0.023392506 0.047636773 -0.05243136
000140 96 8e 6c bd 5c 0e ee bd 72 54 f0 bc 45 63 62 3d
       -0.057753168 -0.116238326 -0.029337142 0.055270452
000150 28 29 15 ba 33 54 68 bc 7d 53 88 bd 12 ce a7 bd
       -0.00056900317 -0.014180231 -0.06656549 -0.08193602
000160 cb 67 ef bd 14 68 63 3d e5 14 ee bd 73 c7 13 be
       -0.11689719 0.05551918 -0.11625079 -0.14431553
000170 3e 45 8b bd fb 16 4a 3d 43 cf 30 3d 58 4a 7b bd
       -0.06800316 0.049338322 0.04316641 -0.061350197
000180 1d 50 e9 bd ab d3 f2 bd 25 2c 8d 3d 31 78 72 3c
       -0.113922335 -0.11856779 0.068931855 0.014799164
000190 00 62 af 3d f8 d3 56 3c ab f3 b0 3d 25 32 40 3d
       0.08563614 0.013112061 0.08640226 0.04692282
0001a0 89 27 5a bd 2a 76 5f 3d 00 ac ad bd a9 be 91 bc
       -0.05326036 0.05455605 -0.08480072 -0.01779111
0001b0 5e a7 4f 3d a6 d0 73 3d c0 61 1a 3c 82 0b aa bd
       0.050696723 0.059525155 0.0094227195 -0.08302976
0001c0 00 54 a8 bd 7f 19 a0 3b 71 9d 06 be d1 d8 35 3c
       -0.08219147 0.004885852 -0.13145997 0.011099056
0001d0 1a 1f e1 bd f8 50 ed 3c 4f 6f 73 3d 8a 14 5a 3d
       -0.1099226 0.028969273 0.059432324 0.053242244
0001e0 1a b9 ca bc 88 66 85 3b 41 5a b3 3d 10 d2 d2 bd
       -0.024746466 0.0040710606 0.08757449 -0.102939725
0001f0 4c ff 8f 3c b3 d7 6a 3d e5 c3 f5 3c f9 bc fd bc
       0.01757779 0.057334613 0.030000636 -0.030973898
000200 ba 1c d5 bd 7e ad 75 3c 26 62 af bd fb 68 ab bd
       -0.1040587 0.014994977 -0.08563642 -0.08369633
000210 5c 29 54 3c 1b 9f 4a 3d f7 d2 00 bd 57 72 a5 3d
       0.012949314 0.04946814 -0.03145119 0.08078449
000220 25 60 c9 3d 78 fb 0b 3e 30 23 20 bd 8e 70 5d bc
       0.09832791 0.13670146 -0.039096057 -0.013515605
000230 70 df e3 3d 6f b0 cb 3d 30 ab 4c 3d 11 54 bd bc
       0.11126602 0.099457614 0.049967945 -0.023111375
000240 31 c8 8e 3d ec 02 a6 3d bc 17 86 3d 19 0e 75 3d
       0.06971777 0.08106026 0.06547496 0.059827898
000250 54 25 92 3d 10 37 66 3d bd 42 00 3d 4d 28 5f 3b
       0.07136026 0.056204855 0.031313647 0.003405112
000260 c3 dc e3 3c 4f 8c 4b bd e6 98 b0 bb 9c e6 e1 bd
       0.027815228 -0.049694356 -0.0053893207 -0.110303134
000270 2a c0 98 3c ca 2c 85 3d b6 c7 a8 bd cf c1 95 3c
       0.018646318 0.065026835 -0.08241217 0.018280892
000280 4d 92 5b 3d 42 25 b6 bd 39 3e f0 3d bc 73 82 3d
       0.05360632 -0.08893825 0.11730618 0.06369731
000290 ec c1 94 bd b8 d1 0e 3e 73 c9 ce bb 88 45 ff bc
       -0.0726355 0.13947189 -0.0063106357 -0.031161085
0002a0 9b 07 f7 3d f0 d0 0a 3e af b7 02 3d f6 1f 52 bd
       0.120619975 0.13556266 0.031913456 -0.05130001
0002b0 6e 7f c5 3d 51 ba 90 3c fb da 99 bd 02 06 96 3d
       0.09643446 0.017666968 -0.0751247 0.07325365
0002c0 d8 0e 2c bd 6b 00 82 bc 8b a5 85 bd 31 ec 2d 3d
       -0.042006344 -0.01586934 -0.065257154 0.042461578
0002d0 e7 61 68 bd 13 2c be bd 89 1e a2 3d 6c a4 fe 3c
       -0.056733992 -0.0928575 0.0791598 0.031084262
0002e0 b3 79 30 3d f6 3a c4 bd 9a c0 3c 3d 0d 0f 1d 3d
       0.04308481 -0.095815584 0.046082117 0.03834443
0002f0 59 a0 cd bd e0 14 63 bc 74 ad d1 bd 80 44 35 bd
       -0.100403495 -0.013859957 -0.10238162 -0.04425478
000300 f1 6b ff bc ca 69 f5 3c 33 5d ea 3b 23 7b e7 3d
       -0.0311794 0.02995767 0.0071522235 0.11302783
000310 e7 1c 9d 3b 2f 62 a6 bd 8d 49 ae bd 2a 42 53 3d
       0.004794705 -0.08124196 -0.085101224 0.05157677
000320 f5 8a 24 bc 5c b1 fd bd f3 28 d8 3d 7f e4 dd 3a
       -0.010042896 -0.12387344 0.105546854 0.0016929059
000330 66 a6 0c bc d2 72 db bc 15 bb 4c bd 5f b9 91 bd
       -0.008584594 -0.026788149 -0.049983103 -0.07115435
000340 13 92 ba 3d 5d 54 10 bd 8c 8d 1e 3d 95 08 08 3d
       0.09109893 -0.035236705 0.03870921 0.03321131
000350 6d 16 65 3c 23 16 da 3b 59 3b 99 bd b4 5a 0e bd
       0.0139823975 0.006655471 -0.07482023 -0.03475447
000360 44 a6 0d 3e 5b 58 05 3e 4f 63 8e 3d db ed 89 3d
       0.13832957 0.13021986 0.06952535 0.067348205
000370 9f 5a 45 bd c5 bd 12 3d 5d bd b1 3d 8c bf 4c 3d
       -0.048182126 0.03582551 0.08678696 0.04998736
000380 f5 38 89 3d da 6a e7 38 11 c1 50 be b4 d9 19 be
       0.06700317 0.00011034841 -0.20386149 -0.15024453
000390 13 c3 e8 3c 69 01 73 bc a0 03 27 bc fc 96 23 3e
       0.028413331 -0.014831879 -0.010193735 0.15975565
0003a0 ed 34 c1 3d 82 4f ad 3d ca 41 0e 3e 0a ce 10 3a
       0.09433923 0.084624305 0.13892284 0.0005523866
0003b0 aa 25 d7 bc 70 19 6b 3d 54 91 78 3d a5 e1 e5 3d
       -0.026263077 0.057397306 0.06068547 0.11224679
0003c0 55 21 0f bd 54 6b a2 3d 59 1d ab 3d 5c 2d 01 be
       -0.034943897 0.079306275 0.08355207 -0.1261496
0003d0 75 df b3 bd f6 5d 5f 3d 5d fe b9 bd af d9 d4 bd
       -0.087828554 0.054532968 -0.09081719 -0.10393082
0003e0 f2 b6 b9 bc 26 37 8c bc 09 a6 8c 3a 9b 97 2a 3d
       -0.022670243 -0.01711614 0.0010730635 0.04164849
0003f0 d7 82 0b bd 3a 5f 86 3c 52 44 34 3d ae 4c 8e 3c
       -0.034060325 0.01640283 0.044010468 0.017370548

conv_transpose2.bias f4 [8]
000000 40 25 ab bc e2 45 af bc 85 2c a8 b8 24 6d 0c be
       -0.020891786 -0.021395627 -8.019157e-05 -0.13713509
000010 b8 ec 43 3d 47 e0 f2 3c 1e 37 b3 bd 38 96 41 be
       0.047833174 0.02964796 -0.08750747 -0.1890496

conv_transpose3.weight f4 [8, 1, 5, 5]
000000 e8 f2 61 3e 4e 28 55 bd 9e 5e e4 bd ff 36 35 be
       0.22065318 -0.05204039 -0.11150859 -0.1769676
000010 54 3f 0f bc 1e 17 8c 3d 7a e8 31 3e ba 61 3b 3b
       -0.008743126 0.06840347 0.17373839 0.0028592185
000020 35 06 67 be e0 2c db bc d4 5d d2 3d 68 26 fa bd
       -0.22560962 -0.026754797 0.102718025 -0.12214357
000030 18 b6 f0 bc 3f 01 07 be 65 bb ad 3d 11 bf b6 3d
       -0.029383704 -0.13184069 0.08483008 0.08923162
000040 fe 73 f7 bd 2f ac 60 bd 80 27 03 3c b1 b8 a5 bd
       -0.12082671 -0.054851707 0.008005023 -0.08091868
000050 e7 ed f0 3d ec 4a 33 3e ca e6 fb bd 46 2a 46 be
       0.11764126 0.17509049 -0.12299879 -0.19352064
000060 56 f6 e6 bd d4 44 5a be 12 5c 33 be 0c 52 8e be
       -0.112774536 -0.21315318 -0.17515591 -0.27796972
000070 06 db 31 be c6 d7 c4 bd e5 ba 84 bd 1e e9 db bd
       -0.17368707 -0.09611468 -0.0648096 -0.10737823
000080 c1 1f 06 be a9 f5 39 3e 4b 67 a4 bd fc 85 76 3d
       -0.1309805 0.18160118 -0.08027514 0.06018637
000090 02 e1 d5 bd d6 6d 98 bd 58 66 4e 3e 2d 31 3a 3d
       -0.104433075 -0.074428245 0.20156229 0.045457054
0000a0 bc f0 ea bc 2d c2 29 3e 53 dc 6e 3e fd 7a 74 3d
       -0.028679244 0.16577978 0.23326235 0.059687603
0000b0 57 a9 5b bd a7 64 1a 3d 8e 1d 1b 3e cb 60 53 bd
       -0.053628292 0.037693646 0.15147993 -0.05160598
0000c0 d0 c3 2a 3e c9 f4 1e be 63 9a 3d be e4 5c 24 be
       0.16676259 -0.15523066 -0.18515925 -0.1605106
0000d0 69 35 ad bd 4e 0f a4 3b 79 e9 04 3d 89 d9 6e bd
       -0.08457453 0.0050067073 0.03244922 -0.058312926
0000e0 df 4a 24 be 62 7d 51 be f3 70 19 be 4b 38 3b 3e
       -0.16044186 -0.20457986 -0.14984493 0.18283193
0000f0 c1 79 6b be 3a ea 7c be 59 8b 61 be bf cd 14 bd
       -0.22995664 -0.24698725 -0.22025813 -0.036329027
000100 51 ac 52 3d c0 fb a9 bd e7 83 88 bc 65 bb 29 be
       0.051433865 -0.082999706 -0.016664458 -0.16575392
000110 74 46 ce 3d f4 e6 36 bc e8 40 73 ba da 1c a0 3d
       0.100720316 -0.011163462 -0.0009279386 0.07818003
000120 5d c1 de bd 04 37 86 3d 17 e8 31 be b2 5d 29 3e
       -0.10876725 0.06553462 -0.17373691 0.16539648
000130 05 d6 31 3e 86 c4 a5 3d 15 54 e9 bb 45 9c 8d bd
       0.17366798 0.080941245 -0.007120619 -0.06914572
000140 0e 2d 22 3c 46 5e cd 3d 2b 36 2b 3b 00 18 b8 bd
       0.009898437 0.10027747 0.0026124816 -0.08988953
000150 3f ed 27 3e b5 ee 3a 3e c9 b5 e9 3d b2 0b 04 3e
       0.16399096 0.18255122 0.11411626 0.12895086
000160 8f 02 d1 3d 09 87 93 3d 37 40 29 3c 70 a6 40 3d
       0.10205566 0.0720349 0.010330251 0.047033727
000170 11 4e f0 bd bc b3 07 3e 8b 11 a8 3d 00 b2 07 be
       -0.1173364 0.13252157 0.08206471 -0.13251495
000180 26 98 a4 bd 15 57 27 be 96 6e 00 3e ae b7 47 3e
       -0.080368325 -0.16341813 0.12542185 0.19503662
000190 cc b4 4f 3d af 94 61 3d d2 f4 c8 3b 2a 9d fb bd
       0.05070953 0.055073436 0.0061327005 -0.12285836
0001a0 68 6f b2 3d 9d 15 30 be fe f6 9a bd ad cb 45 3e
       0.08712655 -0.17195745 -0.07566641 0.19315977
0001b0 39 0f 23 3e 7f 91 06 bd 0c 6d 07 3e 85 9b dc bd
       0.15923776 -0.0328536 0.13225192 -0.107718505
0001c0 73 23 d7 3d a5 ff 2a be 11 f6 ef 3d 53 af 07 3e
       0.10504808 -0.16699083 0.11716855 0.13250475
0001d0 f3 0b 72 bc cb a7 48 be c2 1b 56 be 11 01 54 bd
       -0.014773357 -0.19595258 -0.20909026 -0.05175883
0001e0 7e df 65 3b 62 c7 1b 3e aa 0a f7 3b 0f cf 2d be
       0.0035075839 0.15212777 0.007539113 -0.16973518
0001f0 4c b7 96 3d e7 9d dc bd 23 99 d2 bc 58 3a 12 3e
       0.0735918 -0.10772305 -0.025707787 0.14280069
000200 3a 6a 2a ba d0 d8 99 3d 00 34 47 bd 2f 37 81 be
       -0.00065008143 0.07512057 -0.048633575 -0.25237414
000210 d1 2b db bd 61 dd 37 be c2 32 fb bd 27 d8 9a 3d
       -0.10701717 -0.17955543 -0.12265541 0.07560759
000220 25 49 45 be 14 a4 f5 3d 62 c7 c5 bc 9d 4f aa 3d
       -0.19266184 0.11994186 -0.024142925 0.08315966
000230 85 8e 52 bc 27 dc 3f 3e 0e da 18 3e 2b 88 d5 bd
       -0.012851362 0.18736325 0.14926931 -0.104263626
000240 b0 45 53 be 48 dd f2 3d 88 43 cc 3d b3 7b 50 3e
       -0.20632052 0.11858612 0.09973818 0.20359688
000250 60 c9 24 3e b4 19 09 be 6f 25 8c bd 51 35 14 3e
       0.16092443 -0.13388711 -0.068430774 0.14473464
000260 9e fc 4e bd 68 f0 4c be 09 bd ee 3d 49 18 e9 bd
       -0.050533883 -0.20013583 0.11657149 -0.11381585
000270 ba 98 f7 3d e2 bf 1a 3e bf 03 4d be f2 ca ec bc
       0.12089677 0.1511226 -0.2002096 -0.028905366
000280 4f e1 c7 bd 7a 46 20 3e 45 c2 1b bd 5c d9 18 be
       -0.09759771 0.15651885 -0.038027067 -0.14926666
000290 10 c9 5d bd e5 3b 80 be 89 9e 1b bd 62 cd 26 3e
       -0.054146826 -0.25045696 -0.037992988 0.16289285
0002a0 81 8d 2b be 56 1f 8d bc 28 7b b9 bd fb 68 de 3d
       -0.16753198 -0.017226856 -0.09056693 0.10859867
0002b0 89 c3 17 3e 6a e4 2d 3e 2c 1a 28 3e 63 08 0d bc
       0.14820684 0.16981664 0.16416234 -0.008607957
0002c0 51 68 6e 3e 46 04 a8 3d d2 5a 78 3c 02 95 2d be
       0.23281981 0.0820394 0.015158372 -0.16951373
0002d0 81 8b 00 3e 9c ed 0c 3e 30 bc 7b 3a f4 3b 18 3d
       0.12553217 0.13762516 0.0009602932 0.03716655
0002e0 4d f2 f1 3d 47 70 36 3e 10 ea ab 3d 7d fb ed bc
       0.11813793 0.17816268 0.08394253 -0.029050583
0002f0 c9 2b 20 be 6c 31 f8 bd 34 5f 2b be 0a 56 1d 3d
       -0.15641703 -0.121188015 -0.16735536 0.03841213
000300 b8 20 26 bd b9 9f 14 3e 5b 9a a8 bd 69 bc 05 be
       -0.040558547 0.14514054 -0.08232566 -0.13060154
000310 e5 02 0e 3d a3 2e 2c 3e 10 75 f2 bd e1 66 b8 3c
       0.03467073 0.16814665 -0.11838734 0.022509994
