code/models/big_obs_decoder_64.pth (torch, 860186 bytes, 7 tensors)

fc1.weight f4 [3200, 64]
-0.074788906 -0.13375938 -0.054764267 -0.04181514 -0.08912837 -0.07226832 0.07324354 0.1388311
-0.14957981 -0.08730101 -0.04827674 0.13138741 0.02807469 0.13282384 -0.13738157 0.07143334
0.07245084 0.006117656 -0.14370784 0.05917568 -0.09585549 0.12603118 -0.14857912 0.036518313
0.07038027 -0.013638871 -0.039882176 0.11866413 0.1088756 -0.009999767 -0.13008797 0.07020662
-0.09497546 0.056442346 0.083130196 -0.058870018 -0.028275618 0.047275208 0.00843502 -0.0051489063
0.09378363 0.029606381 0.021235825 0.04284211 0.07900807 -0.105930135 0.004250177 -0.061958928
0.052205853 0.13469532 -0.07708174 0.08357921 -0.03282895 0.1355447 0.14021032 0.13222098
0.12924236 0.11352509 -0.02291679 -0.09546748 0.10304506 -0.044157583 0.123622246 -0.029790847
0.04485778 -0.08684142 0.033002794 -0.034771554 0.07430805 -0.113690145 -0.10700966 -0.10779455
-0.08108239 0.079920314 -0.046874218 -0.050432034 -0.07754948 -0.03549291 0.13059449 -0.07238659
-0.055794757 -0.03859633 0.11856071 0.11188801 -0.12378572 0.08921567 0.062306296 -0.03131791
0.074225135 -0.10002106 -0.11319253 0.09277909 0.07783464 -0.083891325 0.037616216 0.054995846
0.045062236 0.08769939 0.0015665665 0.10943946 0.077058464 0.08016351 -0.008849618 -0.052477725
0.07664166 -0.06949708 0.054647677 -0.05972192 -0.044797543 -0.094859734 -0.032817192 -0.08376952
0.121396706 -0.058088552 -0.11781578 0.044519026 0.124444336 0.080715306 -0.03145875 -0.11028522
-0.053808585 -0.044416755 -0.086113594 0.07223273 0.033444572 0.032161485 -0.0009667725 0.13557479
0.026341503 -0.015970314 -0.01910587 -0.05868866 0.027191734 -0.055381395 -0.025243886 0.05053919
0.09089919 0.055253603 -0.015892876 -0.0053026583 -0.0022485768 -0.09393086 -0.049723357 0.11303294
-0.07024725 0.017363792 0.07899018 -0.04532186 -0.0140817035 0.02312573 0.0900345 0.1524537
0.06799223 0.12136697 0.07875415 0.08645046 0.08656992 -0.049213674 -0.10577393 -0.12272395
0.024856599 0.08704456 0.05196888 0.06703899 -0.11491572 0.109886594 -0.006383375 0.038575836
-0.027439827 -0.004227513 0.010015257 0.12040572 0.035137273 0.040237255 -0.054378923 -0.0437496
-0.019200156 -0.043836582 -0.09197661 -0.0052881525 -0.0030409123 0.030990856 0.112169094 -0.018234601
0.11014043 0.056857623 -0.053466745 -0.025750533 -0.095701806 -0.09230303 0.14041738 -0.09279411
0.07510687 0.11619736 -0.08324734 0.008847988 0.124927685 0.12805374 -0.12703665 0.019622453
-0.05939489 -0.070287324 0.09401763 0.10513965 0.009486839 0.060497493 0.013967011 -0.09588406
0.06138789 -0.05618677 0.09350039 -0.09855723 0.12973766 0.06289099 -0.03619174 0.09178398
-0.035576988 0.10736319 0.13102597 -0.010756632 -0.117469944 0.060679734 0.04584924 0.08739128
0.059921153 -0.010072577 -0.11748249 -0.006018498 0.09617535 -0.03432541 0.10468095 -0.064818345
0.053714857 -0.016638003 -0.10839779 0.054553896 0.014737052 -0.09376813 0.033596348 0.033904865
-0.064829275 0.095268585 -0.13066237 -0.0052514556 -0.07852061 -0.094066195 -0.020757347 -0.108921364
-0.06776792 0.068024896 0.10152116 -0.06190611 -0.015970318 -0.08496866 -0.14087261 0.004113664
00000000: ed2a 99bd 38f8 08be 7f50 60bd 5a46 2bbd
00000010: ef88 b6bd 6a01 94bd b600 963d bd29 0e3e
00000020: 732b 19be dfca b2bd d5bd 45bd 6c8a 063e
00000030: e4fc e53c f902 083e c1ad 0cbe a54b 923d
00000040: 1b61 943d 9e76 c83b 2628 13be 3362 723d
00000050: e24f c4bd 510e 013e 2025 18be 3a94 153d
00000060: 8823 903d 9275 5fbc 7e5b 23bd 2e06 f33d
00000070: 2cfa de3d 10d6 23bc c835 05be 7dc8 8f3d
00000080: 7e82 c2bd 1730 673d 2a40 aa3d b021 71bd
00000090: 45a2 e7bc a6a3 413d 0a33 0a3c 28b8 a8bb
000000a0: a211 c03d 1589 f23c c1f6 ad3c 357b 2f3d
000000b0: fcce a13d e6f1 d8bd 1245 8b3b a5c8 7dbd
000000c0: ced5 553d 92ed 093e 08dd 9dbd 942b ab3d
000000d0: a677 06bd 3bcc 0a3e 4b93 0f3e f064 073e
000000e0: 1c58 043e d87f e83d febb bbbc 7484 c3bd
000000f0: 4a09 d33d 95de 34bd a92d fd3d ef0b f4bc
00000100: cbbc 373d ead9 b1bd f02d 073d 9e6c 0ebd
00000110: d22e 983d 61d6 e8bd e127 dbbd 64c3 dcbd
00000120: 860e a6bd 43ad a33d 2eff 3fbd d291 4ebd
00000130: 43d2 9ebd 0361 11bd 90ba 053e 6c3f 94bd
00000140: 0b89 64bd 2f17 1ebd f5cf f23d 8a25 e53d
00000150: 5e83 fdbd b5b6 b63d e334 7f3d 3547 00bd
00000160: 5903 983d d7d7 ccbd 7cd1 e7bd f702 be3d
00000170: c567 9f3d 37cf abbd 7613 1a3d 5343 613d
00000180: 2e93 383d bd9b b33d 4055 cd3a cc21 e03d
00000190: d4d0 9d3d c42c a43d fdfd 10bc e2f2 56bd
000001a0: 4df6 9c3d 7c54 8ebd 3ed6 5f3d f99e 74bd
000001b0: a17d 37bd d245 c2bd 526b 06bd 5b8f abbd
000001c0: d69e f83d 43ee 6dbd 6649 f1bd 9559 363d
000001d0: acdc fe3d 114e a53d e4da 00bd 38dd e1bd
000001e0: 6466 5cbd 58ee 35bd 535c b0bd c1ee 933d
000001f0: 2dfd 083d c3bb 033d 016f 7dba 1ed4 0a3e
00000200: 23ca d73c 2dd4 82bc ea83 9cbc 8563 70bd
00000210: 33c1 de3c 9ad7 62bd 44cc cebc 2f02 4f3d
00000220: 5b29 ba3d 9a51 623d c731 82bc ecc1 adbb
00000230: dc5c 13bb d35e c0bd b8aa 4bbd d07d e73d
00000240: cadd 8fbd 833e 8e3c 9ac5 a13d 6aa3 39bd
00000250: f2b6 66bc 2c72 bd3c 0264 b83d d31c 1c3e
00000260: 833f 8b3d 3f8f f83d db49 a13d f00c b13d
00000270: 924b b13d 4794 49bd 01a0 d8bd b256 fbbd
00000280: 11a0 cb3c 6b44 b23d 52dd 543d bd4b 893d
00000290: ef58 ebbd 390c e13d a12b d1bb b201 1e3d
000002a0: 7dc9 e0bc f386 8abb 0817 243c 4697 f63d
000002b0: 1aec 0f3d d2cf 243d 6fbc 5ebd c832 33bd
000002c0: a549 9dbc fd8d 33bd 3c5e bcbd 3d48 adbb
000002d0: 0b4a 47bb 89e0 fd3c e9b8 e53d bb60 95bc
000002e0: 4e91 e13d 8ae3 683d f2ff 5abd c8f2 d2bc
000002f0: 4fff c3bd 5f09 bdbd 93c9 0f3e d70a bebd
00000300: a1d1 993d e2f8 ed3d 957d aabd 27f7 103c
00000310: 16da ff3d 8520 033e e515 02be 44bf a03c
00000320: 0e48 73bd cdf2 8fbd 518c c03d 7553 d73d
00000330: b06e 1b3c 38cc 773d e4d5 643c dd5e c4bd
00000340: de71 7b3d 1924 66bd 227d bf3d 5fd8 c9bd
00000350: f3d9 043e fecc 803d ca3d 14bd 3df9 bb3d
00000360: 2db9 11bd 3be1 db3d ac2b 063e 963c 30bc
00000370: 1594 f0bd 508b 783d 6acc 3b3d 33fa b23d
00000380: e26f 753d 7307 25bc a99a f0bd d236 c5bb
00000390: 95f7 c43d cd98 0cbd f762 d63d 7bbf 84bd
000003a0: 1c04 5c3d 6c4c 88bc a9ff ddbd e873 5f3d
000003b0: ad73 713c 8109 c0bd 539c 093d d4df 0a3d
000003c0: 36c5 84bd 2d1c c33d 5bcc 05be 6714 acbb
000003d0: 6acf a0bd c7a5 c0bd 500b aabc 2a12 dfbd
000003e0: e8c9 8abd a350 8b3d 53ea cf3d 4391 7dbd
000003f0: 2fd4 82bc 0c04 aebd e940 10be eacb 863b

fc1.bias f4 [3200]
-0.082126774 -0.12222204 0.022379415 0.06509238 0.036012147 0.024626035 0.004297638 -0.09863448
0.12871818 -0.11959602 0.084178254 -0.025743056 0.021310944 -0.023095382 -0.02178583 0.077267885
0.120786466 -0.06365386 -0.0028138414 -0.032899197 0.044381842 0.040666964 0.05962874 -0.055278905
-0.103569746 -0.06551117 -0.064388 -0.044747017 0.03280995 -0.017009852 -0.026984897 0.05420179
0.016075566 0.06834355 0.10393514 -0.056498423 -0.08031655 0.0021676181 -0.02342121 0.024373302
-0.11866652 -0.10805129 0.024558168 -0.09941108 0.018521208 -0.0039891233 -0.0063994704 -0.025599588
0.100760855 -0.0703784 0.040095188 0.014109593 -0.112167865 0.0048391987 -0.058493156 -0.044410102
0.07870571 0.04631378 -0.008180084 -0.08768903 0.05856817 0.0029216416 -0.08454172 0.039527457
-0.04054414 0.0442987 0.06479986 -0.12928523 -0.03782033 0.13065334 -0.035802595 0.06624947
-0.055318784 -0.051038932 0.008491911 0.038656373 -0.044911142 -0.11225694 -0.06366734 -0.0858777
-0.037389047 -0.076325305 0.02778728 -0.0042118235 -0.12224438 -0.10313977 -0.04888661 0.042681657
-0.09392657 -0.07094259 0.11045581 0.08634214 0.10145932 0.061376613 0.045014787 -0.080807075
0.035971157 -0.067118585 -0.10503812 -0.08190612 -0.078338005 -0.029478433 -0.09653435 0.056728024
0.01992506 -0.024233583 0.019699905 -0.036772087 0.059532408 -0.03137321 -0.08893182 -0.049054246
0.09514553 0.062699944 0.107563004 -0.09934135 -0.0633282 -0.025311511 0.13233829 -0.09356371
-0.03457799 -0.040283438 -0.10818878 -0.0037537317 0.06000368 0.053017396 -0.106122576 -0.0035947834
-0.10733624 -0.05982203 -0.11574011 -0.04602955 0.077176005 0.035072673 -0.02143403 0.022282828
-0.122085035 0.07680417 0.07411502 0.120217435 0.06907141 -0.079744786 0.02811772 0.003646333
-0.056849353 0.054701578 -0.04222269 -0.0021078456 0.058797333 0.08305373 -0.0651916 0.12512608
0.1324 0.08301767 0.1143204 0.14113352 -0.11096779 0.06376165 0.12758444 -0.04420025
0.121358775 -0.014193251 -0.10037948 -0.09925805 0.11454571 -0.07482414 -0.037179086 -0.08520114
0.09386999 0.037430264 0.03915981 0.11194412 -0.029969417 -0.03535177 0.12139472 0.1300364
-0.0403666 0.118780755 0.029455807 -0.064320974 0.046658944 0.06547478 -0.08966988 -0.04662403
-0.06672676 -0.01176657 -0.044834007 0.031829562 0.053915683 0.12847081 0.119242646 -0.07603535
0.08089686 -0.07254667 -0.070193335 0.009017748 -0.06833151 0.044492207 0.04769489 -0.052471653
0.09678955 0.016509544 -0.08751235 0.11347849 -0.08671214 0.085405424 0.123936124 -0.07408356
-0.0030298543 0.10417882 0.011581609 0.0778431 -0.07591599 0.059550155 0.002922975 -0.05575888
-0.09375171 0.1025361 0.057405006 -0.080195755 -0.031172136 0.13459949 0.03489073 0.037673965
-0.10472573 0.057584368 0.027907897 -0.013305641 -0.06429553 -0.05281447 0.0034875069 -0.06188232
-0.03247893 0.11006197 -0.10279475 0.008774949 0.06529086 -0.064276546 0.0362931 -0.049460668
-0.0026922894 -0.019649645 0.09024451 0.009966262 0.018050354 0.12515414 0.10494164 -0.07148946
0.07735594 0.09201782 0.053331118 0.045788612 -0.051756043 0.032618467 0.04477186 -0.06798128
00000000: 1532 a8bd 8d4f fabd 0955 b73c 274f 853d
00000010: 7981 133d 8abc c93c 33d3 8c3b e000 cabd
00000020: b3ce 033e c2ee f4bd a665 ac3d 1ae3 d2bc
00000030: 4a94 ae3c 8732 bdbc 3278 b2bc a03e 9e3d
00000040: e55e f73d f45c 82bd 6d68 38bb 4fc1 06bd
00000050: bcc9 353d 6792 263d 443d 743d 226c 62bd
00000060: 601c d4bd b82a 86bd dbdd 83bd a648 37bd
00000070: ba63 063d 3f58 8bbc 6e0f ddbc b202 5e3d
00000080: e8b0 833c b4f7 8b3d f2db d43d e46a 67bd
00000090: 017d a4bd 990e 0e3b d6dd bfbc 85aa c73c
000000a0: 6f07 f3bd ff49 ddbd 362e c93c 0998 cbbd
000000b0: cab9 973c 31b7 82bb a6b2 d1bb 3ab6 d1bc
000000c0: b55b ce3d 8d22 90bd da3a 243d ec2b 673c
000000d0: 44b8 e5bd 2492 9e3b 8596 6fbd 5ee7 35bd
000000e0: 7630 a13d 85b3 3d3d c205 06bc 4e96 b3bd
000000f0: 2de5 6f3d 0379 3f3b 3624 adbd 8be7 213d
00000100: 9d11 26bd 8e72 353d cab5 843d 5963 04be
00000110: 7ee9 1abd fdc9 053e bea5 12bd cdad 873d
00000120: f395 62bd 330e 51bd a821 0b3c 2556 1e3d
00000130: bff4 37bd f7e6 e5bd 0664 82bd a6e0 afbd
00000140: 4225 19bd 7150 9cbd 26a2 e33c 5603 8abb
00000150: 435b fabd f23a d3bd 533d 48bd f6d2 2e3d
00000160: 935c c0bd 594a 91bd a836 e23d 26d4 b03d
00000170: e7c9 cf3d 0b66 7b3d 6d61 383d 2e7e a5bd
00000180: 7e56 133d 7875 89bd 3a1e d7bd 65be a7bd
00000190: ad6f a0bd c17c f1bc cdb3 c5bd a55b 683d
000001a0: e139 a33c 8285 c6bc b261 a13c 549e 16bd
000001b0: 41d8 733d 3281 00bd e321 b6bd 1bed 48bd
000001c0: a9db c23d d468 803d fe49 dc3d 7a73 cbbd
000001d0: 37b2 81bd 165a cfbc b083 073e 559e bfbd
000001e0: a7a1 0dbd 3f00 25bd 1492 ddbd 2b01 76bb
000001f0: 6bc6 753d c528 593d cb56 d9bd 7596 6bbb
00000200: 1ad3 dbbd f207 75bd 2709 edbd 7b89 3cbd
00000210: 740e 9e3d 5da8 0f3d 6b96 afbc 7a8a b63c
00000220: b807 fabd 814b 9d3d 9ec9 973d 8f34 f63d
00000230: 5075 8d3d 3c51 a3bd 2257 e63c 51f7 6e3b
00000240: deda 68bd c30e 603d b3f1 2cbd c823 0abb
00000250: 79d5 703d 1318 aa3d 2c83 85bd 0d21 003e
00000260: de93 073e 2b05 aa3d d020 ea3d 4e85 103e
00000270: 1543 e3bd 7895 823d 7fa5 023e 520b 35bd
00000280: f38a f83d cf8a 68bc c293 cdbd ce47 cbbd
00000290: f196 ea3d 663d 99bd 1949 18bd ef7d aebd
000002a0: e93e c03d 7a50 193d 0966 203d f542 e53d
000002b0: 6c82 f5bc 05cd 10bd cc9d f83d 4328 053e
000002c0: 7357 25bd 5343 f33d 4e4d f13c b7ba 83bd
000002d0: 731d 3f3d a417 863d d8a4 b7bd d7f8 3ebd
000002e0: 0aa8 88bd 92c8 40bc dda3 37bd b75f 023d
000002f0: b1d6 5c3d da8d 033e 7d35 f43d 6cb8 9bbd
00000300: 41ad a53d 5993 94bd 86c1 8fbd 2dbf 133c
00000310: 64f1 8bbd 763d 363d b85b 433d 84ec 56bd
00000320: 9939 c63d 063f 873c ad39 b3bd 6967 e83d
00000330: 2296 b1bd 0ae9 ae3d 39d2 fd3d 1fb9 97bd
00000340: 8590 46bb b55b d53d cac0 3d3c 346c 9f3d
00000350: d879 9bbd ddea 733d 628f 3f3b 6c63 64bd
00000360: e600 c0bd 72fe d13d 8321 6b3d ac3d a4bd
00000370: b55c ffbc 73d4 093e 95e9 0e3d 0450 1a3d
00000380: 727a d6bd 96dd 6b3d 1a9f e43c e7ff 59bc
00000390: 60ad 83bd fc53 58bd a88e 643b 5178 7dbd
000003a0: a008 05bd 2c68 e13d 0e86 d2bd cec4 0f3c
000003b0: 37b7 853d 6ca3 83bd 13a8 143d 4597 4abd
000003c0: 1f71 30bb 4bf8 a0bc 1dd2 b83d 8849 233c
000003d0: 56de 933c 6828 003e a4eb d63d 1169 92bd
000003e0: cb6c 9e3d d773 bc3d bb71 5a3d d78c 3b3d
000003f0: 25fe 53bd f19a 053d b362 373d c539 8bbd

conv_transpose1.weight f4 [32, 16, 3, 3]
-0.07025366 -0.010960114 -0.041470226 0.05927665 0.10489261 0.013224305 0.10046716 0.08665061
0.035768695 0.04513399 0.11598965 -0.019542444 -0.0477459 0.07878573 0.02332756 -0.08218159
-0.08869239 -0.09228013 -0.08852007 -0.033233095 -0.08206995 0.07149481 0.07019234 -0.06089081
-0.024833808 0.046082772 0.08245831 -0.016725156 0.075886376 0.05113067 0.04871361 0.08936634
-0.04751311 0.054858692 0.0048355595 0.073735245 0.07583044 -0.090324186 -0.062166657 0.05133498
0.01105099 -0.041029133 -0.005031157 -0.03893691 -0.03889586 0.0256483 0.028001636 0.01886024
0.012548568 0.045762688 -0.04621502 -0.07595252 0.0073894886 0.011094104 0.06849626 0.024574643
-0.05981474 0.028574526 0.079850554 0.07905073 -0.008371702 -0.04727199 0.0016125826 0.075112425
-0.0036755851 0.024366273 -0.06085646 0.0408009 0.07647827 0.0549589 0.06621729 -0.060732283
-0.007713554 -0.035495646 0.071491435 -0.028257612 -0.06441792 -0.0032734238 0.09621838 0.095573366
0.080941625 0.035510357 0.09689764 0.046185013 -0.002102008 -0.057293266 0.07754851 0.06986945
-0.009958468 0.063947186 -0.06078802 0.039696686 0.08152697 0.0045442875 0.021392914 -0.08540126
-0.008641351 0.07179472 -0.06775537 0.059096504 -0.042496935 -0.07468186 0.07672083 -0.018480305
0.0070044184 -0.04893577 0.025036579 -0.023712635 -0.070032634 -0.026291104 0.021629216 -0.041223835
-0.020120364 0.020312095 -0.028445967 0.01584886 -0.07604137 0.078979924 -0.035368204 -0.073238835
-0.052040283 -0.089633085 -0.10001405 -0.029682355 -0.019663893 -0.036506318 0.008529902 -0.03446405
0.038179304 -0.05753751 0.047969997 0.069302015 0.007974709 0.065572225 -0.004417207 0.054538805
-0.03242711 -0.052816477 0.060361464 -0.07539152 -0.04829394 0.0040675257 -0.05886496 -0.04787749
-0.047259532 -0.0689093 -0.025680896 -0.023539575 0.055697158 -0.03557221 0.08119789 -0.02992419
-0.032654144 0.016158456 0.07697296 -0.03627871 0.051984824 0.01980174 0.035024703 0.065015346
0.061111502 0.0933291 -0.048316423 0.005256372 0.00970015 -0.042396784 -0.09689286 0.046973564
-0.08351951 0.014772613 0.065329745 -0.053708784 0.048063736 0.061106626 -0.09340604 -0.061363425
-0.020444741 -0.064821176 0.08986491 0.009716355 0.03189532 0.05061953 -0.05373926 -0.01813678
0.06509082 -0.0011275905 -0.028961657 -0.036647316 0.06970683 -0.05422752 -0.057073094 -0.0072508813
0.045641787 0.09458936 -0.052475456 -0.04021651 0.04483379 -0.05764424 -0.065645024 -0.012353096
-0.0027670278 0.0884123 0.028734908 0.096253805 0.0012260948 -0.0188812 0.011590606 -0.09270479
-0.071254544 -0.05697188 0.07880527 -0.034027617 -0.042410657 -0.09580859 0.02142856 -0.013269314
-0.023094319 -0.012693362 -0.058915414 -0.021604044 0.08933628 0.030168535 -0.038301636 -0.059800196
0.05800348 0.036963664 -0.05603976 0.050370943 0.044458546 0.014684099 0.055127725 -0.020366788
0.046975456 -0.016668556 -0.029616367 0.039846543 0.07423822 -0.0015392252 0.043627746 -0.037903104
0.07754448 0.055054728 0.047713105 0.028290646 0.018333787 0.008147408 -0.07974101 0.015549472
0.02473897 0.028093018 0.036556892 -0.08255835 0.043036986 -0.0019964797 -0.045101453 -0.008663894
00000000: 27e1 8fbd 0d92 33bc afdc 29bd 13cc 723d
00000010: f0d1 d63d c1aa 583c bac1 cd3d e075 b13d
00000020: 3282 123d 6bde 383d fb8b ed3d 7a17 a0bc
00000030: 3491 43bd 6a5a a13d 7019 bf3c d24e a8bd
00000040: 5ba4 b5bd 5dfd bcbd 034a b5bd 6d1f 08bd
00000050: 4a14 a8bd df6b 923d 00c1 8f3d a468 79bd
00000060: 4570 cbbc 4ac1 3c3d e7df a83d 3203 89bc
00000070: 516a 9b3d 656e 513d ec87 473d b305 b73d
00000080: 1b9d 42bd 82b3 603d 9d73 9e3b 8102 973d
00000090: fd4c 9b3d e3fb b8bd 77a2 7ebd a144 523d
000000a0: 360f 353c 2a0e 28bd 67dc a4bb 4f7c 1fbd
000000b0: 4451 1fbd 621c d23c b063 e53c ca80 9a3c
000000c0: 8298 4d3c a871 3b3d f64b 3dbd ff8c 9bbd
000000d0: 8623 f23b 0bc4 353c c447 8c3d c350 c93c
000000e0: 4d00 75bd 2015 ea3c b088 a33d 59e5 a13d
000000f0: 7729 09bc 46a0 41bd 4b5d d33a 8bd4 993d
00000100: 16e2 70bb c79b c73c a044 79bd d81e 273d
00000110: a4a0 9c3d 951c 613d ee9c 873d 6ac2 78bd
00000120: fbc1 fcbb e263 11bd 1a6a 923d 827c e7bc
00000130: 8bed 83bd f086 56bb 240e c53d f8bb c33d
00000140: b9c4 a53d 4f73 113d 4572 c63d 7f2c 3d3d
00000150: d8c1 09bb 58ac 6abd c1d1 9e3d b717 8f3d
00000160: d828 23bc bef6 823d dcfc 78bd fe98 223d
00000170: 9df7 a63d 3fe8 943b 3140 af3c dbe6 aebd
00000180: 7494 0dbc 1c09 933d 54c3 8abd 2d0f 723d
00000190: 4411 2ebd cef2 98bd cf1f 9d3d 0264 97bc
000001a0: 5285 e53b e070 48bd 8319 cd3c 0041 c2bc
000001b0: 456d 8fbd 7160 d7bc c12f b13c 53da 28bd
000001c0: 76d3 a4bc 8d65 a63c 8407 e9bc 78d5 813c
000001d0: 94bb 9bbd 3ac0 a13d 40de 10bd 3efe 95bd
000001e0: 3128 55bd 8d91 b7bd 2bd4 ccbd 6928 f3bc
000001f0: 2c16 a1bc a687 15bd 01c1 0b3c 2d2a 0dbd
00000200: e761 1c3d 74ac 6bbd 307c 443d 37ee 8d3d
00000210: 5ba8 023c bb4a 863d 38be 90bb 1564 5f3d
00000220: 4ad2 04bd 1756 58bd 953d 773d df66 9abd
00000230: decf 45bd e148 853b 621c 71bd 301b 44bd
00000240: 3693 41bd 5220 8dbd be60 d2bc 11d6 c0bc
00000250: b422 643d 2ab4 11bd 144b a63d 9323 f5bc
00000260: 5ac0 05bd bd5e 843c 00a4 9d3d fc98 14bd
00000270: 0aee 543d 4237 a23c 1076 0f3d c426 853d
00000280: 0e50 7a3d 5423 bf3d 71e7 45bd a53d ac3b
00000290: 61ed 1e3c 40a8 2dbd c46f c6bd 5a67 403d
000002a0: 470c abbd d408 723c 9acb 853d befd 5bbd
000002b0: 7bde 443d f14a 7a3d aa4b bfbd 3758 7bbd
000002c0: bb7b a7bc f7c0 84bd 180b b83d 5931 1f3c
000002d0: aba4 023d 6d56 4f3d b31d 5cbd 9693 94bc
000002e0: 564e 853d a9cb 93ba ff40 edbc 7f1b 16bd
000002f0: 74c2 8e3d ad1d 5ebd 7ac5 69bd cd98 edbb
00000300: e2f2 3a3d 11b8 c13d 81f0 56bd 11ba 24bd
00000310: a3a3 373d 5e1c 6cbd e670 86bd a464 4abc
00000320: 0657 35bb 8211 b53d 7865 eb3c b720 c53d
00000330: eab4 a03a bfac 9abc 86e6 3d3c 02dc bdbd
00000340: e7ed 91bd 595b 69bd a864 a13d 8b60 0bbd
00000350: ccb6 2dbd 4b37 c4bd f38a af3c 8967 59bc
00000360: 4c30 bdbc d2f7 4fbc 4a51 71bd f7fa b0bc
00000370: f1f5 b63d 0124 f73c 2de2 1cbd 0df1 74bd
00000380: 0f95 6d3d 3667 173d f389 65bd c351 4e3d
00000390: 2a1a 363d 9395 703c 9ccd 613d 40d8 a6bc
000003a0: 5669 403d 7f8c 88bc 069e f2bc 2136 233d
000003b0: 350a 983d d4bf c9ba 02b3 323d 4940 1bbd
000003c0: a4cf 9e3d 1181 613d d16e 433d c9c1 e73c
000003d0: bd30 963c b57c 053c 414f a3bd 36c3 7e3c
000003e0: 61a9 ca3c 5423 e63c aebc 153d 5a14 a9bd
000003f0: 8d47 303d 5fd7 02bb 4dbc 38bd 01f3 0dbc

conv_transpose1.bias f4 [16]
0.06866742 0.050008804 -0.047791988 0.05842364 0.07639676 -0.055969164 0.050975084 0.08250157
0.04175696 -0.041660625 0.034067523 0.04226209 -0.028610067 -0.06352428 -0.038674574 0.011226704
00000000: 81a1 8c3d 08d6 4c3d 88c1 43bd a04d 6f3d
00000010: e875 9c3d ec3f 65bd 40cb 503d 95f6 a83d
00000020: 5909 2b3d 55a4 2abd 638a 0b3d 031b 2d3d
00000030: a95f eabc 0519 82bd 3b69 1ebd 36f0 373c

conv_transpose2.weight f4 [16, 8, 3, 3]
0.00914331 0.10255341 0.10654391 0.10987652 -0.09909638 -0.023933453 0.04214786 0.06734498
-0.0044930475 -0.006778906 0.080372415 -0.07592573 -0.05599026 -0.1309725 0.049702894 0.10803632
-0.008809381 -0.10217934 0.11729998 -0.03312441 -0.0357579 0.13886419 0.014947094 0.024027172
-0.01980336 0.006317372 0.12333629 0.039827395 -0.09604328 -0.073267564 0.1282544 0.09630997
-0.043176718 -0.034994338 -0.11232824 -0.09821209 -0.07744708 -0.14624639 -0.006637206 0.10710649
0.0651254 -0.07608722 0.048109658 0.054223545 -0.04733129 0.06539949 0.037038893 -0.09674695
-0.04847152 0.010422547 0.002819166 -0.043500118 -0.028358191 0.121740475 -0.12221511 -0.052092098
0.10178016 -0.062674925 -0.0019930033 0.044075303 -0.009565357 -0.079466924 0.1698658 -0.09807424
0.09582742 0.120481096 0.09617223 -0.09947977 0.02441362 -0.0897159 0.11439964 0.068205506
-0.111216746 0.048683885 0.059802294 -0.022135682 0.05264122 -0.09198297 -0.06807037 0.08949775
0.05966526 0.038041286 0.050076947 -0.0014657077 0.10978183 0.15959969 0.06447114 0.15270814
0.07429705 -0.075201444 0.096329294 0.12010441 -0.034002986 0.056814563 0.031008653 -0.09654943
0.10128838 0.058141705 -0.039924026 0.04419111 -0.084522724 -0.030005632 0.08748602 -0.00857
0.0049953163 -0.002875115 -0.1341282 -0.09846419 0.12212646 0.1115093 -0.0637415 0.018133163
0.035149004 0.026155502 0.0811803 0.14393726 -0.0682992 0.06854411 0.027527815 0.06947896
-0.052783314 0.07953741 0.079790235 0.111110896 -0.022852601 0.059853215 0.10771233 -0.050527755
-0.013825136 0.10732923 -0.0088486895 0.04574943 0.017588867 -0.12248129 -0.11439293 -0.09363149
0.06826103 0.083154276 -0.069349885 0.03645075 -0.10990334 0.025285281 0.11761518 -0.10246957
-0.040365823 0.0741831 -0.103064604 -0.070713915 -0.1104593 -0.07156633 -0.08554256 -0.08736805
-0.12842771 -0.098246664 -0.047108546 0.1005513 -0.14789377 -0.09286714 0.07741614 0.0047888295
0.08021283 -0.03138657 -0.056602366 -0.07529031 -0.046842236 0.17214921 -0.00037882797 -0.11497767
0.1325049 0.13212381 0.12714611 0.06720516 -0.0015292309 -0.12949206 -0.039644852 -0.010996303
-0.094437666 -0.051981278 -0.12139761 0.022836015 0.03330169 -0.047882285 -0.033496365 0.020242691
0.009140126 -0.114617586 0.02017688 -0.027456395 0.066538475 0.13194059 0.1018094 -0.09843681
-0.054636158 0.022487119 -0.051010307 -0.045273732 -0.11006429 -0.06439675 -0.09300893 0.11995903
0.00032928734 -0.05007608 0.13486934 0.08136849 0.020318333 0.02394653 0.050589137 -0.03384981
0.010972773 -0.016489252 0.12160153 -0.018409254 0.10199582 0.17534505 -0.013144332 -0.052226275
0.06927445 0.13259624 -0.02893967 0.115284584 0.1455768 0.01168563 -0.0639359 0.11984709
0.080336116 0.017046418 0.012866064 -0.09996206 0.011155339 0.07546225 -0.13877583 0.008327033
-0.06685001 -0.07065293 0.089657925 -0.029503882 0.119936846 -0.11319553 -0.06944802 0.06325191
-0.034817547 -0.0106074875 0.11853367 0.06665834 0.06885607 -0.07045614 0.078251064 0.104361065
0.06477683 0.084724374 -0.037812732 -0.07593903 0.08823526 -0.071459115 -0.07351151 0.051798657
00000000: d2cd 153c 8607 d23d b233 da3d f106 e13d
00000010: 0bf3 cabd 1710 c4bc 3ca3 2c3d 2aec 893d
00000020: 6a3a 93bb 9621 debb 4b9a a43d f37e 9bbd
00000030: 0b56 65bd a81d 06be 4395 4b3d 2542 dd3d
00000040: 3955 10bc 6743 d1bd f93a f03d 76ad 07bd
00000050: e076 12bd 6a32 0e3e a8e4 743c a2d4 c43c
00000060: a83a a2bc f501 cf3b bd97 fc3d 0d22 233d
00000070: 57b2 c4bd 4e0d 96bd 1f55 033e 293e c53d
00000080: 12da 30bd 3956 0fbd 590c e6bd 6c23 c9bd
00000090: 939c 9ebd 9dc1 15be eb7c d9bb a65a db3d
000000a0: 7760 853d 9ed3 9bbd a20e 453d 8219 5e3d
000000b0: 74de 41bd 2bf0 853d 18b6 173d 4423 c6bd
000000c0: 138a 46bd 55c3 2a3c c2c1 383b 2e2d 32bd
000000d0: 704f e8bc 1253 f93d ea4b fabd 865e 55bd
000000e0: 1e72 d03d b65b 80bd 0c9d 02bb 4e88 343d
000000f0: 04b8 1cbc 8ebf a2bd 4df1 2d3e 26db c8bd
00000100: 2b41 c43d cbbe f63d f2f5 c43d 0dbc cbbd
00000110: 12ff c73c f8bc b7bd 5c4a ea3d 54af 8b3d
00000120: 9bc5 e3bd c168 473d 40f3 743d e455 b5bc
00000130: 529e 573d 9161 bcbd 7a68 8bbd 994a b73d
00000140: 8f63 743d 2ed1 1b3d 7c1d 4d3d fd1c c0ba
00000150: 4cd5 e03d 1a6e 233e 7209 843d 865f 1c3e
00000160: 0d29 983d 3703 9abd 4b48 c53d 4df9 f53d
00000170: b746 0bbd 63b6 683d dc05 fe3c b5bb c5bd
00000180: 4870 cf3d ff25 6e3d 6087 23bd bd01 353d
00000190: 401a adbd 5fce f5bc df2b b33d 2f69 0cbc
000001a0: c0af a33b 6d6c 3cbb e758 09be 98a7 c9bd
000001b0: 701d fa3d fd5e e43d e78a 82bd 008c 943c
000001c0: 67f8 0f3d 1044 d63c db41 a63d 4a64 133e
000001d0: 73e0 8bbd db60 8c3d 0382 e13c fc4a 8e3d
000001e0: 5133 58bd 82e4 a23d 1069 a33d 1c8e e33d
000001f0: 6135 bbbc a528 753d 4898 dc3d 31f6 4ebd
00000200: d382 62bc 6dcf db3d 18fa 10bc c163 3b3d
00000210: 8716 903c 78d7 fabd d746 eabd dec1 bfbd
00000220: 70cc 8b3d ca4c aa3d 5007 8ebd 624d 153d
00000230: 0115 e1bd 1423 cf3c 3ae0 f03d 91db d1bd
00000240: a256 25bd 4fed 973d 8913 d3bd 75d2 90bd
00000250: 7c38 e2bd 5e91 92bd f030 afbd 05ee b2bd
00000260: 8e82 03be 8c35 c9bd e4f4 40bd d7ed cd3d
00000270: 7771 17be 2131 bebd 5a8c 9e3d 9deb 9c3b
00000280: a046 a43d 348f 00bd e2d7 67bd ce31 9abd
00000290: a5dd 3fbd e247 303e 6e9d c6b9 6a79 ebbd
000002a0: 5daf 073e 774b 073e 9732 023e dca2 893d
000002b0: 7970 c8ba 9199 04be a462 22bd d629 34bc
000002c0: 8968 c1bd 52ea 54bd 4f9f f8bd 9812 bb3c
000002d0: 5a67 083d 3720 44bd 7c33 09bd 00d4 a53c
000002e0: 78c0 153c a0bc eabd fc49 a53c 3cec e0bc
000002f0: 5345 883d 6f1b 073e 7281 d03d 3d99 c9bd
00000300: 2aca 5fbd e836 b83c 2ff0 50bd f370 39bd
00000310: 6369 e1bd 71e2 83bd 777b bebd 14ad f53d
00000320: 33a4 ac39 931c 4dbd 301b 0a3e 86a4 a63d
00000330: a272 a63c 832b c43c 8e36 4f3d 19a6 0abd
00000340: 25c7 333c 7814 87bc 390a f93d 01cf 96bc
00000350: 2fe3 d03d a78d 333e 535b 57bc 38eb 55bd
00000360: c3df 8d3d 4fc7 073e e312 edbc 531a ec3d
00000370: 1612 153e 1675 3f3c d3f0 82bd 6472 f53d
00000380: 4387 a43d eea4 8b3c 2fcc 523c e9b8 ccbd
00000390: e2c4 363c f48b 9a3d 401b 0ebe 1c6e 083c
000003a0: a8e8 88bd 7cb2 90bd 939e b73d 20b2 f1bc
000003b0: 73a1 f53d 0fd3 e7bd c33a 8ebd 388a 813d
000003c0: d89c 0ebd 07cb 2dbc c8c1 f23d 2b84 883d
000003d0: 6904 8d3d 4f4b 90bd 1842 a03d 41bb d53d
000003e0: b7a9 843d f983 ad3d 86e1 1abd ec85 9bbd
000003f0: b0b4 b43d 2859 92bd 348d 96bd d42a 543d

conv_transpose2.bias f4 [8]
-0.02380128 0.0116133895 -0.077889524 -0.018871779 0.10715754 0.0005296912 -0.07933375 0.002848362
00000000: e7fa c2bc 1646 3e3c 8b84 9fbd fd98 9abc
00000010: 6a75 db3d fada 0a3a bc79 a2bd 96ab 3a3b

conv_transpose3.weight f4 [8, 1, 5, 5]
0.06925842 -0.06954878 -0.19130464 -0.0049214964 0.09687993 -0.19214413 -0.22548541 -0.103467174
-0.21630989 0.06364495 0.07101622 -0.23649283 -0.23903438 -0.10008824 0.07618616 -0.020537969
0.1398998 0.1209535 0.14716424 -0.16126499 -0.025370024 -0.16112038 0.19874549 -0.18659192
0.16024664 0.10208724 0.19937167 0.07470852 -0.066802405 0.054063953 0.0755962 0.12115265
-0.12743193 -0.21719147 0.08839067 -0.023382915 -0.07407471 -0.21828642 -0.23112254 0.18789464
0.13219903 -0.097803004 0.15273467 -0.18866222 0.043367147 -0.15940826 -0.16437192 -0.112143815
-0.10265034 -0.10633897 0.10452212 0.014691786 0.22570203 -0.012262416 0.063592196 -0.1615165
0.08300555 0.2557224 0.20466706 -0.052989334 -0.10654083 -0.12784109 0.04948688 0.24679062
0.1738711 0.09783576 0.09332396 -0.10740202 0.023311423 0.16453336 0.15508798 -0.12000963
-0.010650076 0.1069539 0.11144085 -0.19661362 -0.19168814 0.0074904193 0.11370906 0.032926403
0.14676453 0.105134636 -0.19305499 0.034792207 0.19222765 0.19198434 -0.10351673 -0.05203363
0.19176462 -0.19575652 0.103786126 -0.06641896 0.074458726 0.1057819 -0.10963726 -0.19761603
-0.23515604 -0.12034315 0.0027407887 0.08534334 0.19560671 0.17635305 -0.056907993 0.021474421
-0.079297245 -0.021689832 0.24280825 0.068718955 -0.11410406 0.08008277 0.0060319756 -0.15463468
0.029720576 0.09370106 -0.05881951 -0.17632036 -0.26904055 -0.15499753 -0.19106017 -0.084472954
0.07185034 0.027376633 0.13142604 -0.03802333 0.016079431 -0.099087425 0.23611782 0.18165246
0.18104412 -0.089643285 -0.045849223 -0.011230188 0.10850552 -0.10060465 -0.031619526 -0.13172351
-0.048099805 0.040191133 0.07058513 0.06430735 0.11871504 -0.05295916 -0.10018356 0.07287185
0.004251627 -0.20068316 0.050997943 0.22556497 0.2196046 0.025941988 0.0253849 -0.0009639779
0.25150642 0.24335775 -0.070258446 0.055087727 0.092230126 -0.06258352 -0.027851203 -0.19751489
0.002595097 0.048937514 0.14132774 -0.10838075 -0.068888545 -0.08445677 -0.16652529 -0.07710861
0.12898906 -0.13148192 0.16950694 -0.13159071 0.04612875 0.02804405 0.116839685 0.11534938
0.15724319 0.073680356 0.034380075 -0.028000528 -0.027653117 -0.13405159 0.13028984 -0.011382534
0.02920234 0.010582589 0.015194866 0.18732889 -0.16079901 -0.03296343 -0.092812255 0.18950589
0.1369728 -0.10435765 0.1329336 0.031014988 0.059347525 0.14695759 -0.22035496 0.16527753
00000000: 5cd7 8d3d 976f 8ebd 5de5 43be 8144 a1bb
00000010: fc68 c63d 6ec1 44be a6e5 66be 99e6 d3bd
00000020: 5780 5dbe 4958 823d f470 913d 2d2b 72be
00000030: 6ec5 74be 10fb ccbd 7d07 9c3d 3e3f a8bc
00000040: e541 0f3e 78b6 f73d 39b2 163e a622 25be
00000050: ccd4 cfbc befc 24be f083 4b3e f411 3fbe
00000060: b217 243e 1d13 d13d 1628 4c3e c800 993d
00000070: b3cf 88bd 2a72 5d3d 2ed2 9a3d e11e f83d
00000080: 847d 02be 7167 5ebe 2b06 b53d 878d bfbc
00000090: 7bb4 97bd 7a86 5fbe 63ab 6cbe 7467 403e
000000a0: 2f5f 073e f14c c8bd 7a66 1c3e ab30 41be
000000b0: c0a1 313d eb3b 23be 1d51 28be a8ab e5bd
000000c0: 573a d2bd 3fc8 d9bd b10f d63d d1b5 703c
000000d0: 6f1e 673e 4de8 48bc a03c 823d 9564 25be
000000e0: d0fe a93d 0cee 823e 3e94 513e 580b 59bd
000000f0: 1432 dabd c6e8 02be c1b2 4a3d aeb6 7c3e
00000100: 440b 323e 1d5e c83d a220 bf3d 97f5 dbbd
00000110: 99f7 be3c 6f7b 283e 62cf 1e3e 9cc7 f5bd
00000120: a87d 2ebc a50a db3d 1a3b e43d 1555 49be
00000130: e549 44be 3172 f53b 4ce0 e83d d6dd 063d
00000140: 7149 163e d450 d73d 35b0 45be 4682 0e3d
00000150: 53d7 443e 8b97 443e 9400 d4bd 3721 55bd
00000160: f25d 443e 6674 48be d28d d43d aa06 88bd
00000170: d17d 983d 2ea4 d83d 8089 e0bd db5b 4abe
00000180: bfcc 70be 7876 f6bd ce9e 333b 7dc8 ae3d
00000190: 204d 483e e595 343e 5b18 69bd 20eb af3c
000001a0: 9866 a2bd e0ae b1bc baa2 783e 86bc 8c3d
000001b0: 64af e9bd 6f02 a43d e1a7 c53b 8e58 1ebe
000001c0: 9178 f33c 57e6 bf3d baec 70bd 538d 34be
000001d0: afbf 89be acb7 1ebe 47a5 43be 2800 adbd
000001e0: 4526 933d f644 e03c 8c94 063e 5abe 1bbd
000001f0: 03b9 833c 59ee cabd dfc8 713e 1a03 3a3e
00000200: a163 393e e696 b7bd 65cc 3bbd d3fe 37bc
00000210: 2438 de3d d009 cebd 7a83 01bd 87e2 06be
00000220: 4d04 45bd 759f 243d f08e 903d 92b3 833d
00000230: df20 f33d b4eb 58bd 0a2d cdbd d63d 953d
00000240: 3b51 8b3b e37f 4dbe 38e3 503d 81fa 663e
00000250: 07e0 603e 4b84 d43c fef3 cf3c 76b3 7cba
00000260: 73c5 803e c632 793e a9e3 8fbd aba3 613d
00000270: 26e3 bc3d ca2b 80bd 3528 e4bc 5841 4abe
00000280: 8112 2a3b b472 483d 38b8 103e baf6 ddbd
00000290: 7015 8dbd acf7 acbd 9b85 2abe 1eeb 9dbd
000002a0: b515 043e 32a3 06be 3a93 2d3e b7bf 06be
000002b0: 80f1 3c3d a3bc e53c a549 ef3d 4c3c ec3d
000002c0: 5c04 213e bae5 963d 1fd2 0c3d 5d61 e5bc
000002d0: ca88 e2bc d244 09be b36a 053e cf7d 3abc
000002e0: bf39 ef3c 9862 2d3c e3f3 783c 25d3 3f3e
000002f0: 7fa8 24be a904 07bd 5a14 bebd d50d 423e
00000300: 9942 0c3e 77b9 d5bd bf1f 083e 2513 fe3c
00000310: 6416 733d 0d7c 163e bba4 61be 833e 293e
