code/models/big_obs_decoder_16.pth (torch, 245786 bytes, 7 tensors)

fc1.weight f4 [3200, 16]
000000 40 f2 46 be 85 96 16 be 1b 1c 14 be f2 25 d3 3d
       -0.19428349 -0.14705856 -0.14463846 0.10309972
000010 79 4e b4 3d fb 78 59 3e e3 5b f8 3d 08 b7 22 3d
       0.0880403 0.21237557 0.12126901 0.039725333
000020 aa 8d e3 3d 6c e1 89 be 8d 58 31 3d 90 a0 22 be
       0.11111005 -0.26929796 0.04329734 -0.15881562
000030 6f 64 09 3e 29 03 9d 3d cf ce 4f be 57 12 15 3e
       0.13417219 0.076666184 -0.20293735 0.14557777
000040 8f 01 91 be be 65 6d 3e c2 fd 03 be e6 a1 20 3e
       -0.28321502 0.23183343 -0.1288977 0.1568676
000050 cd 21 6f bd 68 4f 3e 3d bc 57 2f 3e 43 f9 0a 3e
       -0.058381844 0.046462446 0.17123312 0.13571648
000060 2a 9f b4 3d 0b 4e 6f 3e ff a3 da 3d 09 75 0c 3e
       0.08819421 0.23369615 0.10675811 0.1371652
000070 ad e1 83 3e 92 29 3b 3e 81 83 15 3d 85 70 94 bd
       0.25758114 0.18277577 0.036502365 -0.07248024
000080 c0 3b 0e be ff a8 48 be 91 1c 41 3e c8 b6 4d be
       -0.1388998 -0.19595717 0.18858553 -0.20089257
000090 fa 8f 5f bd 30 f6 4d be 27 11 bd 3c fd 35 e5 bd
       -0.054580666 -0.20113444 0.023079468 -0.11191938
0000a0 53 39 02 be 01 11 6c be a4 40 55 be b2 3b 4b be
       -0.1271718 -0.23053361 -0.2082544 -0.1984699
0000b0 69 51 25 3e 66 e4 56 3e ec 5f 4e 3e 66 ce e6 bd
       0.16144337 0.20985565 0.20153779 -0.11269836
0000c0 a9 bc 21 be 7d 66 19 3e 1b 34 3e 3e f1 51 fd 3c
       -0.15794624 0.14980502 0.18574564 0.030922862
0000d0 78 fc 08 bd 13 f0 bd bc 2f e1 1c be 25 92 41 3e
       -0.033443898 -0.023185765 -0.15320276 0.18903406
0000e0 4e 95 7b 3d 97 4a 62 be 1e fa 30 3e 15 b5 5b 3e
       0.061421685 -0.22098766 0.17282912 0.21455796
0000f0 58 b8 5c be 02 79 e7 3c 11 d4 10 3d 2d 1a b4 3d
       -0.21554697 0.028255943 0.035358492 0.08794055
000100 b9 07 66 be 96 4e 55 bd 24 80 00 be 2d e9 bf bd
       -0.22463883 -0.0520769 -0.12548882 -0.093706466
000110 ba 07 b3 bc a7 4c 88 bc 13 6d 43 bd c0 9a 0f 3e
       -0.02185427 -0.016638113 -0.047711443 0.14023876
000120 f0 34 7b bd e0 d0 56 bc d2 c4 65 3c 42 5c 88 3d
       -0.061329782 -0.013111323 0.014023976 0.06658222
000130 54 a9 88 bd 61 cd 53 be 47 2c 56 bd bc 5e 81 3e
       -0.06672922 -0.20683815 -0.05228832 0.2526759
000140 fa 29 89 3d dc 77 e3 bd 41 f0 dd bd c4 a2 4b 3e
       0.066974595 -0.11106846 -0.108368404 0.19886309
000150 53 11 30 3e df 50 39 be e0 e5 63 3e 44 e1 ce 3d
       0.17194109 -0.18097256 0.22255659 0.1010156
000160 21 d1 d1 bd 66 38 56 3d 5a 64 60 bd c9 fc 46 3d
       -0.10244966 0.05229988 -0.054783203 0.04858092
000170 78 ba f9 bd 73 1c ec 3d 87 36 27 3e 40 50 06 3e
       -0.12193769 0.11528864 0.16329394 0.1311655
000180 06 d2 02 3e 58 b1 4e 3e f1 5d a6 3d 44 0c 7d 3e
       0.1277543 0.20184839 0.08123387 0.2471171
000190 3d fa 03 be 4d 95 38 be 23 42 93 bd 88 f8 7d be
       -0.12888427 -0.18025704 -0.07190349 -0.24801838
0001a0 5f 82 07 3e 8b e5 9f bc 29 18 7a be b0 23 5f 3c
       0.13233326 -0.019518634 -0.24423279 0.013619348
0001b0 7f b9 3b 3e 64 b3 90 3d eb ac 70 be 0a dc 67 be
       0.1833248 0.07065466 -0.23503463 -0.22642532
0001c0 ee 8b 37 be 5d 39 fd bd f1 a7 82 bd 61 01 a2 be
       -0.17924473 -0.12364457 -0.063796885 -0.31641677
0001d0 2b 94 37 be 1d 9c 07 3e 88 b7 f6 3d 1c 8a 0d 3e
       -0.17927615 0.13243146 0.120467246 0.13822216
0001e0 a0 9b 88 3e 77 e5 94 be 51 29 d1 bd 67 f4 de 3c
       0.26681232 -0.29081318 -0.102129586 0.02721615
0001f0 fd 27 81 3d dd bd 69 3e d9 ac 34 3e f8 ab b8 bd
       0.06306455 0.22826333 0.17644061 -0.090171754
000200 49 4f ee bd 91 04 48 3d a8 ba 5a 3e 8c db 1b ba
       -0.11636216 0.04883248 0.21360266 -0.0005945496
000210 14 87 7b be 01 b6 00 be 91 8c 15 3e 11 25 26 3e
       -0.24563247 -0.12569429 0.14604403 0.16225077
000220 31 d1 4e be 2a 58 13 3e fe d9 a6 3e 7b c9 2f be
       -0.20196988 0.143891 0.3258819 -0.17166702
000230 da ea 22 3e 9c 9e e7 3d bf a4 4f 3e e3 42 d8 bd
       0.15909901 0.11309549 0.2027769 -0.10559633
000240 3c 86 99 3e dc b9 32 3e 5f 6f 8c bd 28 5f 3a 3e
       0.29985225 0.17453712 -0.0685718 0.18200362
000250 f2 18 44 3e 0b 4e 17 bd 4a f6 29 be 8d 69 85 bd
       0.19150141 -0.036939662 -0.16597858 -0.06514273
000260 47 1b 6c be 35 de 37 be 0d 3b 12 be 39 46 47 3e
       -0.2305728 -0.17955859 -0.14280339 0.19460382
000270 4e d8 69 3e fc ea 82 bc f5 59 f0 bd 5a 3d 19 be
       0.2283642 -0.01598119 -0.11735908 -0.1496481
000280 4b d2 4b be b6 42 33 be 45 b1 64 3e c8 a9 80 bd
       -0.19904439 -0.17505917 0.22333248 -0.06282383
000290 49 c8 16 3e bd 1c 90 3d 8e c4 79 be 7b c8 72 be
       0.1472484 0.070367314 -0.24391386 -0.2370929
0002a0 dc 98 03 be 12 c7 2f bd 58 cb 1e be 9d 70 a9 3d
       -0.1285128 -0.042914458 -0.15507257 0.082734324
0002b0 57 41 62 be 11 9f f2 bd 67 5c 27 3d 1e f4 10 3d
       -0.22095238 -0.11846746 0.040859606 0.03538906
0002c0 85 23 b4 bc 31 4d b2 bd ec dd 05 be c3 ca 27 3e
       -0.021989593 -0.08706129 -0.13072938 0.16385941
0002d0 4f 37 d6 bc 0b 23 1f 3e db 70 46 bd 5e 14 25 3e
       -0.02614942 0.15540712 -0.04844747 0.1612105
0002e0 f8 96 bb bd 45 7e a9 bd e7 57 e6 bd 62 a4 ed bd
       -0.091596544 -0.08276037 -0.11247235 -0.11603619
0002f0 33 48 af bc e3 25 ae bc e4 08 af bd 0b a2 97 bd
       -0.021396732 -0.0212583 -0.085466176 -0.07403954
000300 9b a6 58 be 99 ac 6b 3c 88 52 59 be ee 6a 19 3d
       -0.21157305 0.014384412 -0.2122289 0.03745549
000310 c7 7d 39 be 61 24 4a be 2d 5e cc bc 03 e1 c1 3d
       -0.18114386 -0.1974044 -0.02494725 0.09466746
000320 13 c8 5e 3e 0e a1 17 be 08 39 4d be f5 9c 90 bc
       0.2175601 -0.14807531 -0.20041287 -0.017652968
000330 87 84 27 bd c7 90 69 3e 9d a8 25 3e 51 4e 15 3c
       -0.040897872 0.22809134 0.16177602 0.00911291
000340 9c b9 76 be 01 1e 2c 3e dd 30 0d 3e e3 8a f4 3a
       -0.24094242 0.1680832 0.13788171 0.0018657114
000350 d3 32 d0 bd ea 27 16 3d 37 1a 8e be f3 cb 56 3e
       -0.10165944 0.03665916 -0.27754375 0.20976238
000360 62 21 92 3c 19 5f 65 3e 17 a5 20 3e d4 b2 7b 3e
       0.017838184 0.22399558 0.15687977 0.24579936
000370 ea 9a fa bd 34 04 1a bd 3c 1a 62 3e f0 d0 b6 bd
       -0.12236579 -0.037601665 0.2208032 -0.089265704
000380 19 de b6 3d 33 c0 1e be c9 c9 1f 3e 9d 36 a2 3b
       0.089290805 -0.15503006 0.15604319 0.004950358
000390 38 72 7b be 61 55 8e 3e 90 ed 67 3e 24 fa 1b 3e
       -0.2455529 0.27799514 0.22649217 0.1523214
0003a0 a1 e6 9d 3c f9 8c 44 be 4a af 31 be 66 2b 3d 3e
       0.019275011 -0.19194402 -0.17352024 0.18473586
0003b0 2a 51 1b 3e 4f 0b 54 be 1a 56 02 3e a3 10 55 3e
       0.1516768 -0.20707439 0.12728158 0.20807128
0003c0 bb b5 08 3e 98 54 e8 3d f9 5f 9b 3c b4 88 04 bd
       0.13350575 0.1134426 0.018966662 -0.032356933
0003d0 74 b0 ed bd bc ce 53 be 93 fa 64 3c 2a f6 7f 3e
       -0.116059214 -0.20684332 0.013975757 0.24996248
0003e0 45 f4 b6 3d 0c 7d 1a be 10 83 6a bd 4f 95 4e bd
       0.089333095 -0.15086764 -0.057253897 -0.05043536
0003f0 62 34 5f 3e 3d 01 34 3e 24 e6 49 3d 4c e7 3f 3e
       0.21797326 0.17578597 0.049291745 0.18740577

fc1.bias f4 [3200]
000000 59 39 19 be 89 8a f1 3d f1 1c 92 3e 62 07 4b 3e
       -0.14963283 0.117940016 0.28537706 0.19827035
000010 fe 93 3c 3d bc 83 48 3e 73 fc 3d 3e 07 2b 36 bd
       0.046039574 0.19581503 0.18553333 -0.044474628
000020 88 07 12 3e f0 1c 36 3d 7a db eb 3d 62 45 ea bd
       0.14260685 0.04446119 0.11516471 -0.11439015
000030 1c 8f b2 bd d2 4a e6 3c 1a ce 21 3e 31 e1 f5 3d
       -0.08718702 0.028111849 0.15801278 0.120058425
000040 04 25 f4 3d ee 0f 91 3e b2 0d 89 3e 93 24 c2 bd
       0.11921123 0.28332466 0.2676826 -0.09479632
000050 0c f5 f2 3d 75 43 32 3e a0 24 0a 3e 8c 49 f3 3d
       0.11863145 0.17408545 0.13490534 0.11879262
000060 d8 d9 ad bd 96 13 7e 3c fa ef 8b 3e b7 d9 84 bd
       -0.08488816 0.015507599 0.27331525 -0.06486838
000070 c3 5f 39 3e 46 b3 d2 3d 4f af 24 3d 10 28 95 bd
       0.18102936 0.102881 0.04020625 -0.07283032
000080 10 b2 ea bc 92 ac d7 3b cf 84 ce 3d 07 1e 94 3e
       -0.02864936 0.0065818513 0.10083925 0.2892916
000090 fd 4b 29 3e b6 6d 56 3c 16 f1 c9 bc 95 d4 11 3c
       0.16532893 0.013087681 -0.024651092 0.008900781
0000a0 10 d3 42 3e 6a 09 92 3e ea ac fa bd 61 8f c1 3d
       0.19025826 0.28522807 -0.12240012 0.094511755
0000b0 73 1e 18 be 54 25 8a 3e 20 50 52 3e a3 ce a0 3e
       -0.14855365 0.26981604 0.20538378 0.3140765
0000c0 fe 09 00 bd 74 9d 96 3e 7a 42 4a bc 26 d3 92 3e
       -0.03125953 0.29417002 -0.012344951 0.28676718
0000d0 0e 3c ce bd ac bd 3b 3e 2c a5 67 3e 2a c0 37 be
       -0.10070048 0.18334073 0.22621602 -0.17944399
0000e0 7c 41 a3 3e ad 9d 82 3e 1d 05 e4 3d a0 f2 2e 3e
       0.31885898 0.25510922 0.11133788 0.17084742
0000f0 0a 10 37 3e 36 ea 0b be b8 5d d2 bc 24 61 60 3e
       0.17877212 -0.13663563 -0.025679454 0.21912056
000100 89 9d 3e be 22 08 8d 3e 3f f9 76 3e d2 19 24 3e
       -0.18614782 0.27545267 0.24118517 0.16025475
000110 90 50 e4 bc cb 40 0b 3c 95 c4 77 3d 18 41 55 3e
       -0.027870446 0.008499335 0.06049021 0.20825613
000120 e8 7f 76 3e 38 3b 08 3e 8a e5 e2 3d 63 8c 90 3e
       0.2407223 0.1330384 0.11078937 0.28232107
000130 ac 37 e8 bd 6c 2e 51 bd 86 09 87 3e 35 4a b5 bc
       -0.113387436 -0.051069662 0.26374453 -0.022130111
000140 99 29 8c 3e 65 6c f7 3c 1b 41 60 3d 05 e6 3d 3e
       0.27375486 0.030203054 0.05474959 0.18544777
000150 0e df 2e 3e 99 bb 8a 3e 09 75 bb 3d 9e 27 8e 3c
       0.17077276 0.2709625 0.09153182 0.017352875
000160 ae c8 96 3e 95 5d 5e 3e 8b 65 eb 3d 69 e0 81 3e
       0.2944998 0.21715386 0.11493977 0.25366524
000170 6a 15 94 bc 25 aa a8 3e 75 3d 30 be 65 57 75 3e
       -0.018076617 0.3294231 -0.17210944 0.2395912
000180 93 4b f2 bd 35 c2 67 3e 6f a4 6d 3e 2e 64 b2 3d
       -0.11830821 0.22632678 0.23207258 0.08710514
000190 b4 c6 ec 3d a1 fa 5f bc 82 37 5d be c4 3e 7f 3d
       0.11561337 -0.013670594 -0.21603206 0.062315717
0001a0 6b 37 25 bd 3c 6a 1e 3c 2d e0 20 be f5 32 10 be
       -0.040336054 0.009668883 -0.15710516 -0.14081939
0001b0 ca a0 2b be 3d d0 89 3e e1 39 52 3e 59 02 fe 3d
       -0.16760555 0.26916686 0.20529892 0.124027915
0001c0 77 2c b1 bc 48 85 b2 3d 78 7b b4 3c db 1e 8f 3e
       -0.021627648 0.08716828 0.02203153 0.27953228
0001d0 51 5c 88 3e b3 5b 39 3d f7 17 a9 3e d5 58 73 3e
       0.26632932 0.045253467 0.33026096 0.23764355
0001e0 d6 2d 14 3d 0f 41 e0 3c e0 29 80 3c 19 81 28 3d
       0.036176525 0.027374772 0.015644968 0.041138742
0001f0 14 c6 b5 3d f4 75 59 bd 9e 82 3d 3e 4e 30 86 bd
       0.08875671 -0.053091004 0.18506858 -0.06552182
000200 61 24 0d 3e 3b 56 df bd b1 bc 89 3e 07 f4 0b 3e
       0.13783409 -0.10905119 0.26901773 0.13667308
000210 8c 71 19 be 7f c1 3d 3e d4 bf d1 3c cd 6c 93 3e
       -0.14984721 0.18530844 0.025604166 0.28793946
000220 58 fe 95 3e dc 6e 3e be 18 7d 21 3e f9 7a bb bd
       0.2929561 -0.18596977 0.15770376 -0.091543145
000230 9d 6b a5 bb 78 f6 0c bd 53 25 8e bd 4c bb 85 3e
       -0.005048229 -0.03441474 -0.06940713 0.2611946
000240 86 b8 48 bc 49 b2 96 bd 23 0d 32 bc 6d b3 1a 3e
       -0.012251025 -0.07358224 -0.01086739 0.15107508
000250 6c 02 16 3c ad 96 af 3d f6 c7 1d 3e fb 34 f1 3d
       0.009155851 0.08573661 0.1540831 0.11777683
000260 30 c2 96 3e 58 a9 4e 3e d9 2f c7 bd da ac 32 be
       0.29445028 0.20181787 -0.09725923 -0.1744875
000270 c9 71 03 3e 45 13 93 3d 20 8d ed bc 33 37 68 3e
       0.12836374 0.0718141 -0.028997958 0.22677307
000280 3f 47 48 bd c4 9a 31 3e 89 06 3c bc c4 00 b6 3d
       -0.04889607 0.17344195 -0.0114761675 0.08886865
000290 e1 37 19 be 96 26 20 3d 23 84 f7 3c 6d 0d 8e 3d
       -0.14962722 0.0390993 0.030214375 0.069361545
0002a0 db dc ab 3e f4 74 95 bd 5e f7 2a 3e 8b a8 84 3e
       0.33566937 -0.07297698 0.16695926 0.25909838
0002b0 1c 74 f6 bc 16 d8 60 3d 58 dc d2 3d d7 70 8c 3d
       -0.030084662 0.054893576 0.102959335 0.0685746
0002c0 6d 80 d5 bd 74 08 5f 3e 5d de 73 bd d5 53 7f bc
       -0.10424886 0.21780568 -0.059538234 -0.015583952
0002d0 50 f0 8f 3e 3e 7e dc 3d db eb 86 3e 6f a5 dc 3c
       0.2811303 0.10766266 0.26351818 0.026934354
0002e0 ea f2 eb 3d 03 8f 29 be bb dd d7 bd f9 c6 54 3e
       0.115209416 -0.16558461 -0.105403386 0.20779027
0002f0 35 8a ab 3c 20 63 16 be 18 57 1a be 6c 5e 69 3e
       0.020939926 -0.1468625 -0.15072286 0.22789925
000300 ce 70 39 3e 87 69 63 3e a1 0e 2f be 9e ab e7 bd
       0.18109438 0.22208224 -0.17095424 -0.1131203
000310 f3 2d 9b 3e 97 2d 5f 3c b1 4d 22 bd ce 0d 49 3e
       0.30308494 0.013621709 -0.039624874 0.19634172
000320 0e fc 09 3e a2 ab 5f 3e 65 2e af bd fe 0e 10 bd
       0.13475057 0.21842816 -0.08553771 -0.035170548
000330 aa 31 5e 3e be c9 28 3e 9f 09 d9 3d c3 2f 51 bd
       0.21698633 0.16483209 0.10597538 -0.05107094
000340 f6 cd 2e 3d c7 b7 1f be 1a 4f e9 bd 6e 97 41 be
       0.04267689 -0.15597449 -0.113920406 -0.18905422
000350 6e c1 05 bc 19 aa dd 3d a9 5b 0d 3e 1f e5 02 be
       -0.008163793 0.10823459 0.13804497 -0.12782715
000360 c7 f9 7c 3e 37 5e d7 3d d9 7a 9d be e9 70 a0 bd
       0.24704657 0.10516017 -0.30757788 -0.07834036
000370 7e e3 dc 3d 5c e0 02 3d 66 d7 5b 3d 84 bc 41 3e
       0.10785578 0.031952247 0.053672217 0.18919569
000380 b6 f1 84 bd 87 e0 4e bc cb 20 2a 3e af f3 4b 3e
       -0.06491415 -0.012626774 0.16614072 0.19917177
000390 7b fc 8d be c8 7e 8e 3d 54 f3 ef 3d 73 6a 19 3d
       -0.2773169 0.06957775 0.11716333 0.037455034
0003a0 2a a6 64 bc c0 e4 8b be 26 5c a4 bd 71 e9 15 bd
       -0.013955632 -0.2732296 -0.080253884 -0.03659958
0003b0 20 e0 81 3e 8c 2a 8b 3e 6e 37 8b be f3 99 59 3d
       0.25366306 0.27180898 -0.27190727 0.053125333
0003c0 b4 fb 9d bb 01 e3 65 be a2 de 86 bc ac e8 43 bb
       -0.004821265 -0.22449876 -0.016463581 -0.0029893322
0003d0 21 16 11 bc 1d b7 13 3c 99 05 aa 3d de 7b 13 3e
       -0.008855374 0.009015826 0.08301849 0.1440272
0003e0 66 af ae bd 55 b3 c1 bd 45 44 05 3e 6a 11 2b 3c
       -0.08529548 -0.09458033 0.13014324 0.010441164
0003f0 ad ab 85 3e 5b c5 2f be 41 db 47 be 30 0a f2 3d
       0.2610754 -0.17165129 -0.19517232 0.11818349

conv_transpose1.weight f4 [32, 16, 3, 3]
000000 99 9b 84 bd 63 1e 0a 3d 3d 8a 92 bd 0d 86 22 3c
       -0.064749904 0.033720385 -0.07155273 0.0099196555
000010 00 d9 4d 3d 1d 4c 44 bc 6d b9 7e bd 39 d6 2b 3d
       0.050255775 -0.011981037 -0.062188555 0.041952346
000020 d8 8b 4b 3d d6 ca 53 3d 4f 81 52 3d ba 16 e9 3c
       0.049693912 0.05170711 0.05139285 0.02845322
000030 c7 f5 8a 3d 3e 41 33 bd a6 0b a2 ba 9c e0 6e bd
       0.067851596 -0.04376339 -0.0012363091 -0.058319673
000040 de 98 19 3b cc d6 99 bc 1f 99 09 3d a2 7c 97 bd
       0.0023437063 -0.018779181 0.033593293 -0.07396819
000050 d4 db 4b 3d 5e 02 92 3b 91 58 10 bd 54 be 57 bd
       0.04977019 0.0044558486 -0.035240714 -0.052671745
000060 d9 ba f4 3b 69 ee 9e bd 55 cd 85 bd 80 fe 89 bc
       0.007468563 -0.07760317 -0.065333046 -0.016844988
000070 73 a5 d9 3c e0 40 56 bb 72 65 e4 3c 1d 9d 6c 3d
       0.02656815 -0.0032692477 0.027880404 0.057767022
000080 d5 ca 3c 3d 5a bd 18 3d a3 4a d8 bb 3c ec 7a 3d
       0.046091873 0.037289955 -0.0066006943 0.061260447
000090 3a a9 0e 3c d4 b9 a2 bd ae ff d1 3b 32 7d 82 3d
       0.008707339 -0.079456 0.006408653 0.06371535
0000a0 c4 e2 3e bd 83 42 ed bc a6 63 ad bd 2d d3 94 bd
       -0.04660298 -0.02896238 -0.08466272 -0.07266841
0000b0 49 ac b6 bc 14 36 7f 3d c1 9a 2c 3d 16 19 cf 3d
       -0.022298949 0.062307432 0.042139772 0.10112207
0000c0 89 48 a1 3d 21 f1 14 bd 0f 6c c2 3d d8 1d 96 bc
       0.07875163 -0.03636277 0.09493267 -0.018324777
0000d0 b0 1e 5e bd 51 90 7e 3d f7 99 cc 3c a6 37 2e 3c
       -0.054228485 0.06214935 0.02497576 0.010633385
0000e0 65 3d 38 bc db 62 84 3d 8a 88 8c 3d 6e 4a 4c 3d
       -0.011245106 0.06464168 0.0686198 0.04987567
0000f0 bc 70 11 3b f6 d6 e2 bc 0a f1 0a bc 9e 6d e5 3c
       0.002219244 -0.027690392 -0.00848032 0.028006371
000100 16 b0 9a 3d 89 a4 81 bc 7d b4 4f 3d 09 33 7a bd
       0.07553117 -0.015825527 0.050709236 -0.061083827
000110 57 ed 43 bd e7 53 a8 3d 13 9a 7c 3c 51 f0 fb 3c
       -0.047833767 0.08219128 0.0154175935 0.03075424
000120 f1 99 53 bd df 80 25 bd a1 f1 91 bd 2e 41 12 3d
       -0.05166048 -0.040406104 -0.07126165 0.03570669
000130 ed 57 ac 3c 0b fe c9 bc a7 3c 4c bc a1 65 58 3d
       0.02103802 -0.02465727 -0.0124656325 0.052831296
000140 33 f1 9d bd 89 11 10 3c f6 a4 97 bd e3 03 04 bd
       -0.07712021 0.008793243 -0.07404511 -0.03223027
000150 87 54 8e 3d e5 7f 93 bc b0 df 1d 3d 5b 1f d4 bd
       0.06949716 -0.01800532 0.038543403 -0.10357543
000160 ef 87 28 bd f8 cf 68 3d 48 50 e0 bc 72 64 e1 3c
       -0.04114526 0.05683896 -0.027382031 0.027513716
000170 59 00 23 3d 91 13 f4 3c 9a 72 13 3d 38 49 81 3d
       0.039795253 0.029794486 0.035997964 0.063127935
000180 6b 8f 95 3d c9 d7 45 3d eb ae de 3c e0 0a a0 3d
       0.073027454 0.048301492 0.027183017 0.07814574
000190 d3 cd 31 3d c1 2d c8 3c 37 fc 91 3c 55 bf 86 3d
       0.04340918 0.02443588 0.01782046 0.065794624
0001a0 39 06 fd 3b b4 13 be 3d c7 16 95 3d 75 37 ab 3a
       0.007721689 0.09281102 0.07279735 0.0013062792
0001b0 7c cf 36 3d b3 c7 a1 3d b9 e6 29 3d 19 8c 8c 3d
       0.044631466 0.07899418 0.0414798 0.06862659
0001c0 fa 6f 0d bd 96 42 1c 3d 54 01 1b bd 7d 56 98 bd
       -0.034530617 0.03814944 -0.037843063 -0.07438371
0001d0 ea 91 8c 3d 30 b5 39 bd 29 65 2f bc 52 a7 c1 bd
       0.068637684 -0.04533881 -0.010705271 -0.09455742
0001e0 44 1b e0 3a 37 3a 6c bd f3 a3 2a bd 33 43 57 bd
       0.001709797 -0.057672706 -0.04166026 -0.05255432
0001f0 55 ff 2b 3c 5d e9 c1 bc 8f 71 85 bd d2 c3 d9 3d
       0.010497888 -0.023670847 -0.065158 0.10633053
000200 75 de 48 3d 38 71 a2 bd 2e 4e 52 bd 49 77 2b bd
       0.049040277 -0.07931751 -0.05134409 -0.041861806
000210 c2 01 7a bd 0d 32 1b bc 78 a1 50 bd 71 4a 54 3d
       -0.061036833 -0.009472382 -0.05093524 0.051828805
000220 ae 78 1b bd 76 4b 64 3d 34 49 1c 3d 15 c3 f1 bb
       -0.037956886 0.055736028 0.03815575 -0.007377992
000230 a7 ae e6 3a c8 54 84 3d f5 48 63 bd 82 d1 ae 3d
       0.0017599658 0.06461483 -0.0554895 0.08536054
000240 ed dd 2e bd 46 dc 08 3c c1 9f cc bd b3 cf b6 bd
       -0.042692114 0.0083532985 -0.09991408 -0.08926334
000250 c5 15 99 bd 41 ec 23 bd d2 91 93 3d 2f e3 1f 3d
       -0.07474855 -0.04002023 0.072055474 0.03903502
000260 22 60 8b 3d 01 5c 3f 3d f9 02 30 bd c5 31 ae bd
       0.06805445 0.0467186 -0.042971585 -0.085055865
000270 9a 3e 72 3c 2a 6c a6 3d f3 8c e6 3d ef 6d 80 3d
       0.014785433 0.081260994 0.11257353 0.06270968
000280 c6 a5 3c 3c 83 fa a5 3c 0f 80 95 3d 79 8b a0 bd
       0.011514133 0.020261055 0.07299816 -0.07839102
000290 b7 5f 78 bd 81 33 ce 3c bb cb 2b bd 62 62 06 bd
       -0.060638156 0.025171043 -0.04194234 -0.03280867
0002a0 64 a2 d2 bc 4e 1d 5e bd 5c a4 32 bd 6e ad 52 bd
       -0.0257122 -0.054227166 -0.043613777 -0.051434927
0002b0 9d f5 40 3d af 60 eb 3c 59 d7 93 bd 08 af 18 3d
       0.047109235 0.028732626 -0.07218809 0.037276298
0002c0 a2 65 74 3d 6a d3 af bd aa 5d 58 bd 8c 7b a1 bc
       0.059667237 -0.08585246 -0.0528237 -0.019712232
0002d0 10 75 a7 bd 44 3f 9c 3d 93 8f a0 39 87 1d 48 bc
       -0.08176625 0.076292545 0.0003062455 -0.012214071
0002e0 e7 2d 81 bd 72 80 d6 bc 00 91 bb bb 28 62 a0 bd
       -0.06307583 -0.026184294 -0.0057240725 -0.07831222
0002f0 69 84 38 3d d9 07 10 bd 3b f3 df 3c 39 24 81 bd
       0.04504815 -0.035163734 0.027337661 -0.06305737
000300 f0 16 af 3d 0b f0 a4 3d 42 5e cb 3d 32 da 95 3d
       0.08549297 0.08053597 0.099300876 0.07317008
000310 e9 84 56 bd 7c e5 34 3d aa 69 c6 bc 74 07 86 3d
       -0.052372847 0.044164166 -0.024220306 0.0654439
000320 d6 3f 0c bd 0b 8c fc 3c 28 e7 0a 3b 60 ce 51 3c
       -0.034240566 0.030828496 0.0021194909 0.012805551
000330 49 36 1c 3d 94 b2 58 bd 43 7c 3e 3d 1f 08 92 bd
       0.038137708 -0.05290468 0.046505224 -0.07130455
000340 2c 05 86 3d 18 c2 5b 3c 85 d8 8f 3b d9 d8 23 3c
       0.06543955 0.013412975 0.004389825 0.010000431
000350 eb 57 1d 3d ec 60 d3 bc 5f bb 97 bb 06 15 bd bc
       0.038413923 -0.025803052 -0.0046304907 -0.023081314
000360 b5 ba 68 3d 31 69 97 bc 0a 7f 11 bb 2d df 4b bc
       0.056818683 -0.018482776 -0.0022200965 -0.012443346
000370 46 7c 38 3d 1e 79 4f 3d 11 76 c2 bc 46 43 c0 bc
       0.04504039 0.050652616 -0.02373794 -0.023469578
000380 15 f1 9a bc b8 c9 ca bd 1c a4 28 bd e0 a7 16 3d
       -0.018913785 -0.09901756 -0.041172132 0.03678119
000390 bd c1 8b bd 65 c2 8c bd fb 0b 58 bd 31 13 32 3d
       -0.06824062 -0.06873015 -0.0527458 0.043475334
0003a0 24 8e 0d 3d cd ad 86 bc 7f 3c 69 bd 33 78 97 bc
       0.034559384 -0.016440297 -0.05694246 -0.018489933
0003b0 c3 18 4b bd 0c 2a 85 bd 43 63 27 bc 45 d4 29 ba
       -0.04958416 -0.065021604 -0.010216537 -0.0006478469
0003c0 38 c3 2d 3d 3c ad 9f 3d 23 04 ef 3c 5b 92 54 3d
       0.042422503 0.07796714 0.029176777 0.051897388
0003d0 5e 60 ea 3c fd e2 66 3d b9 b2 6b bd 2c dc 64 3d
       0.028610405 0.056368817 -0.05754349 0.055874035
0003e0 f7 6b 5c bd 03 2e 55 bd 58 ed 26 bd 31 fe 7d bb
       -0.0538139 -0.052045833 -0.040753692 -0.0038756246
0003f0 e8 29 0f bd 7e 55 2b 3d ba 67 0b 3d 37 d0 4f bd
       -0.034952074 0.04182958 0.03403447 -0.05073568

conv_transpose1.bias f4 [16]
000000 33 3f b8 bd fd 1c 74 bd 13 3e 16 be ee f2 94 3d
       -0.08996429 -0.059597958 -0.14672117 0.07272898
000010 f4 61 2f be 58 5d eb 3d 9b f0 3e bd 58 2f 81 3d
       -0.1712721 0.11492413 -0.046616178 0.06307858
000020 5b 82 6b 3d 4a a2 34 3d 5b 48 a9 bd e5 2c 06 3e
       0.057497364 0.044100083 -0.08265754 0.13103063
000030 ce dd 22 3d f5 19 2b be d9 ee 3b 3d 61 db 28 3e
       0.03976231 -0.1670912 0.04588208 0.16489936

conv_transpose2.weight f4 [16, 8, 3, 3]
000000 00 c9 21 3e 3b 7a 67 bc 7f 92 03 be 82 ba 1a 3e
       0.15799332 -0.014128263 -0.12848853 0.1511021
000010 d0 e3 52 bd 7b 94 91 bd e3 4a c5 bc aa ac 0f 3d
       -0.05148679 -0.071083985 -0.02408356 0.035076775
000020 d4 38 d8 3c 3f 23 f4 3d fd a6 87 3d 90 61 ea bc
       0.026394285 0.11920785 0.06623647 -0.028610975
000030 a3 12 bd 3d e7 93 78 bb f7 4b b7 3d 4d 00 f5 bc
       0.0923207 -0.0037929954 0.08950036 -0.02990737
000040 14 93 25 3d 97 a2 c1 ba 33 b3 23 3d 77 c5 29 bc
       0.040423468 -0.0014773187 0.03996582 -0.010362021
000050 cc 26 b0 bd 47 b2 dc bc a2 ef 04 3e ac b2 0f bd
       -0.0860115 -0.026940478 0.12982038 -0.035082504
000060 8b 1b cb 3d 30 17 cb bd be 62 56 3c 62 ee 99 3b
       0.09917363 -0.09916532 0.013085065 0.004697607
000070 10 58 17 bd 7b c0 25 bc ed 1b 14 bd 1d 56 a0 3d
       -0.036949217 -0.010116692 -0.036159445 0.07828925
000080 75 15 57 3d b5 3a 1f bc ea e4 c6 3c 9a 40 24 3d
       0.052510697 -0.009718587 0.024279077 0.04010067
000090 0c ee bc bc f6 c9 69 3c de fe d6 bd da f6 90 3d
       -0.023062728 0.014269343 -0.10497831 0.07078333
0000a0 a5 60 99 3d 13 1d 1d bd 60 89 11 3c 52 42 f0 bd
       0.074891366 -0.038357805 0.00888285 -0.117313996
0000b0 41 9a 91 3d 98 f7 ce 3d b5 30 e6 3d 02 c0 93 bd
       0.071095 0.101058185 0.11239759 -0.07214357
0000c0 2f 72 6c 3c 8a 9c f6 3b ca c1 9d bd 33 ca 14 bd
       0.01443152 0.007525985 -0.07702978 -0.036325645
0000d0 10 26 e4 bd d3 c8 7d bd 13 54 b4 bd a2 13 d6 3c
       -0.11140072 -0.0619591 -0.088050984 0.026132409
0000e0 d2 ba b9 bd 02 5b f4 bd 39 57 9e bd 6e 0c f6 3c
       -0.09068836 -0.11931421 -0.0773148 0.030035224
0000f0 e9 09 9b bd 81 93 fd 3d 65 a3 58 bc 64 8c d3 3d
       -0.075702496 0.1238165 -0.01322255 0.10329512
000100 14 9b 2d bd bc 26 b3 bd d0 d2 4d bd 7f 5c 26 3d
       -0.042384222 -0.08747622 -0.050249875 0.040615555
000110 c7 61 96 bd 84 41 f4 bb 44 ea be bd 5d f2 90 bd
       -0.07342868 -0.007454099 -0.09322026 -0.07077477
000120 df 70 f0 3b 94 5c 03 be 47 f2 29 be 3f 4f d1 3c
       0.007337674 -0.12828285 -0.16596328 0.025550483
000130 42 17 1a be 1d 17 32 3d 4a f5 45 3d 3a 79 5c bd
       -0.15047935 0.043479074 0.04832963 -0.05382655
000140 95 4d f0 3d e4 c0 13 3d a5 10 d2 3d e7 f7 0b be
       0.117335476 0.036072627 0.10257081 -0.13668786
000150 9e 41 ba bd 7b e4 50 3c d6 30 b1 3d cb 7e f3 bc
       -0.09094547 0.0127497865 0.08651893 -0.029723546
000160 1e 92 9c 3d ce ee ad 3c 45 49 d6 bd ab 95 f6 bd
       0.07645057 0.021232035 -0.10463194 -0.12040266
000170 e6 3c f4 bc 65 05 30 3c 89 24 e6 bd fe ab 98 bd
       -0.029814195 0.010743474 -0.11237437 -0.0745468
000180 83 67 32 bc 6f 2d 95 3d 5b ad 8b bd 11 d5 dc 3c
       -0.010888937 0.072840564 -0.06820174 0.026957067
000190 db 26 11 bd 1f cd 86 bd 72 8a 68 bd 9f 06 d1 3d
       -0.035437446 -0.065820925 -0.056772657 0.10206341
0001a0 f0 0b 39 3c 6b 1f 0e bd 52 97 e5 3d 7a 92 69 3d
       0.01129435 -0.03469793 0.11210503 0.057024457
0001b0 6e c2 1f bd b8 f3 ea bc ac c9 e7 bd 6c fa 8e 3d
       -0.039003782 -0.028680667 -0.11317763 0.06981358
0001c0 33 3c 06 3d 2c 12 0b be 8e e5 ab bd ec 03 31 3d
       0.032772254 -0.13581151 -0.083933935 0.04321663
0001d0 19 aa 95 bd 35 0a 03 3e 1a cd e2 bd bf 70 d1 bd
       -0.07307834 0.12796862 -0.11074276 -0.10226583
0001e0 77 3e 75 3d c4 f9 6f 3b a7 7b b1 3d 24 ab f2 3c
       0.059874024 0.0036617378 0.08666163 0.029622622
0001f0 ad 82 05 be eb ad 4b 3c d5 da 9e bd fe ba 84 bd
       -0.1303813 0.012431602 -0.07756583 -0.064809784
000200 8b af 2d bd 1e 7e cc 3c ec 16 b7 3d b4 9e e1 3d
       -0.04240374 0.024962481 0.08939919 0.11016598
000210 97 3e 25 3d 78 0d 6b bd 57 f8 04 3c e0 82 81 3c
       0.040342893 -0.05738589 0.008115849 0.015809476
000220 13 cb 86 bc 19 90 11 3e 6d 28 db bd dc cb d6 bd
       -0.016454255 0.14215125 -0.1070107 -0.10488102
000230 bb 09 c6 3d 83 96 a6 bb 62 25 bf bd 0d 26 c1 bc
       0.09669825 -0.0050838604 -0.09333302 -0.023577714
000240 1b 49 ae bc 34 73 98 bd d8 30 c9 3d 2c ac ad 3d
       -0.021275094 -0.07443848 0.09823769 0.08480105
000250 a4 9d 3a bc e4 c0 a6 3d 9f 63 4b 3c 28 48 c0 bd
       -0.0113901235 0.0814226 0.012413888 -0.09388763
000260 d0 a2 49 3d 48 7c a3 3d b4 c5 91 bd ca b7 e4 3d
       0.049227536 0.07982689 -0.07117787 0.111678675
000270 00 c9 c1 bd 4b dd 57 bd ab 21 9d 3d 35 a1 76 3c
       -0.09462166 -0.052701276 0.07672437 0.015053083
000280 93 ac ce 3d c2 26 86 3d e8 18 dd 3d b8 b8 b9 3d
       0.1009151 0.06550361 0.10795766 0.090684354
000290 f4 c4 b3 bd 09 be b0 bd d6 e6 82 bd 78 79 f6 3d
       -0.087778 -0.08629996 -0.06391685 0.12034887
0002a0 b4 2d ba 3b 57 6f c9 bd da 48 14 bd 4e de ce bd
       0.005681718 -0.098356895 -0.03620229 -0.10100995
0002b0 9a 0c eb 3c 2b 08 b4 3d 13 df dc bd b3 57 46 bc
       0.028692532 0.087906204 -0.107847355 -0.01210587
0002c0 50 12 fa 3d 26 47 b2 3d 2e 1c d2 bc 30 4b ee 3d
       0.12210524 0.08704977 -0.025648203 0.11635435
0002d0 d4 92 d5 3c 4b ee e6 bc f1 30 a7 3c dd 98 9c bd
       0.02607099 -0.028189799 0.02040908 -0.07646344
0002e0 aa a5 d7 3d f5 7d f0 bd 2d 84 de bc 38 ca 2e bd
       0.10529645 -0.117427744 -0.027162636 -0.04267332
0002f0 ac 51 f6 bd ca b6 41 3d d0 e8 d1 3b 7e 79 9b 3d
       -0.120272964 0.04729346 0.0064059272 0.07591532
000300 6e 51 b6 bd b9 69 eb 3c 20 20 50 bd 77 78 8c 3d
       -0.0890225 0.028736936 -0.050811887 0.06858914
000310 24 25 ed bd 3f ee c8 3d 8a b4 1f 3d d3 46 80 bd
       -0.1157935 0.09811067 0.038990535 -0.06263509
000320 4f 3a 04 be fd 6d 65 3d 16 42 64 bd 2d 31 55 3d
       -0.12912868 0.056013096 -0.055727087 0.05204885
000330 20 d4 ad 3c 36 b0 12 bd fb bd d1 3b f2 ee ce bd
       0.021219313 -0.03581258 0.0064008213 -0.10104169
000340 30 c7 13 bd 8c 59 95 bd 14 97 c8 bc b2 98 85 bd
       -0.036078632 -0.0729247 -0.024486102 -0.06523265
000350 c3 14 42 bd 77 e3 31 3d c0 a7 a3 3d 83 dc 8e bd
       -0.04738308 0.043429818 0.0799098 -0.06975653
000360 09 78 45 3d a9 fb 16 3c a6 46 d2 3c ad 00 7f bc
       0.048210178 0.009215274 0.025668453 -0.015564126
000370 32 6b c2 bd 22 38 e0 bd 5d 10 b0 bd 54 b3 32 bd
       -0.09493102 -0.109482065 -0.08596871 -0.043628052
000380 60 06 67 3d 0d 48 90 3d 94 78 ae bd 67 33 69 bd
       0.056402564 0.070449926 -0.08519092 -0.056933787
000390 c1 53 18 3d 7d 89 be bd d6 01 b4 bd 06 e4 c1 39
       0.03718925 -0.093035676 -0.08789413 0.0003698172
0003a0 a9 0f 05 be 75 81 f6 bc e7 97 ee 3d eb 9e 63 3c
       -0.12994255 -0.030091027 0.11650067 0.013892869
0003b0 3f f3 40 bd a3 b9 d3 3d 14 e5 37 3c be 27 31 3d
       -0.047106978 0.10338142 0.01122405 0.04325079
0003c0 19 b6 be 3d 11 d9 8d bb 6e 2d b1 bd a9 00 02 be
       0.09312076 -0.004328855 -0.08651243 -0.12695564
0003d0 0d 57 84 3d 88 8a b0 3d ea ce cf bd 99 23 ed bd
       0.06461916 0.08620173 -0.101468876 -0.11579055
0003e0 16 fa ac 3d 92 fc 93 3d 92 67 b4 3d f6 4f 9f bd
       0.084461376 0.07225908 0.08808817 -0.07778923
0003f0 ed 69 43 3c a8 cb 13 3d 7b 60 f0 3d 0f 30 6d bd
       0.01192711 0.036082894 0.11737152 -0.05790716

conv_transpose2.bias f4 [8]
000000 b9 fb 2d be ec 23 3d be a2 19 26 3d 90 19 a1 bb
       -0.16990556 -0.18470734 0.04055179 -0.0049163774
000010 c9 71 5c 3d 8d 63 0f 3d 82 a8 55 3d 95 7f 85 3d
       0.05381945 0.03500705 0.052162655 0.06518475

conv_transpose3.weight f4 [8, 1, 5, 5]
000000 cb ab e2 bc ac 54 7b 3e 90 72 1d 3c e4 25 55 3e
       -0.027669808 0.24544019 0.009609833 0.20815235
000010 47 ea 10 be fc 4a 03 3e 1b ad e6 3d 3a 33 94 3d
       -0.1415187 0.12821573 0.11263486 0.07236333
000020 14 8a 8d 3d 20 32 28 be ee c4 4c 3e 53 b2 74 3e
       0.06911102 -0.16425371 0.19996998 0.2389615
000030 ef 98 60 bc 62 34 45 3e 9f 40 85 3d f5 49 5a 3e
       -0.013708337 0.19258264 0.06506466 0.21317275
000040 60 95 15 3e d4 81 ed bd c7 12 92 3d 6c b8 de 3d
       0.14607763 -0.115970284 0.07132488 0.108750194
000050 66 23 38 bd 00 a3 d3 bd c4 a3 a2 bd 0d 37 13 be
       -0.044955634 -0.10333824 -0.07941392 -0.14376469
000060 1b 82 ed 3d 31 35 5c 3e 90 42 23 3e e1 ab 4f 3e
       0.11597081 0.21504666 0.1594336 0.2028041
000070 69 ad 7f bb 2e e4 f5 bd a6 1b 92 3d a6 d9 7e 3e
       -0.0039013273 -0.120064124 0.0713418 0.24887714
000080 77 00 84 bd 4b 95 1b be e9 24 33 3e 48 02 5b 3e
       -0.06445401 -0.1519367 0.17494549 0.21387589
000090 b7 69 4e 3e 40 6f 21 3e 8a 94 e4 3c 9e d7 06 3e
       0.20157515 0.15765095 0.02790286 0.13168189
0000a0 a2 ef 06 be a4 37 2e bd 30 8c 55 3e ce 0b 42 3e
       -0.1317735 -0.04253353 0.20854259 0.18949816
0000b0 fa 6e d2 bd 69 51 03 bd bf 96 32 be 34 31 72 3d
       -0.10275073 -0.03206006 -0.17440318 0.059128955
0000c0 3e f6 9d bd 75 cc 12 3e dc 66 2e bd cb d9 1e 3e
       -0.077129826 0.14335807 -0.042578563 0.15512769
0000d0 18 3b dd 3d d0 e5 a6 bd 0b 3c aa bd 2a 33 40 3e
       0.10802287 -0.08149302 -0.083122335 0.18769518
0000e0 47 62 24 3e 7f 1a 5c 3e f5 89 81 3d 4e 84 cd 3c
       0.16053115 0.21494482 0.06325141 0.025087502
0000f0 65 f6 59 bd 9d d0 83 3d b8 c4 f4 3d 8e 5f f6 bd
       -0.053213496 0.06436274 0.119515836 -0.12029944
000100 88 1b 4f 3d 08 8f 1e 3e e1 10 e4 3d e8 d8 33 3e
       0.050563365 0.1548425 0.11136032 0.17563212
000110 22 62 ae bd 0e 71 04 be eb e8 62 3d 45 48 02 3e
       -0.08514811 -0.12933752 0.05539791 0.12722881
000120 fb ca 54 3d 19 ba fe bd 9c 18 43 be 39 81 0c 3e
       0.05195139 -0.12437839 -0.19052356 0.1372117
000130 1c 22 09 be ce 17 26 be f5 2b 08 3e 2a 9e 6f 3d
       -0.13391918 -0.16220018 0.13298018 0.058500446
000140 21 30 91 bc a2 62 33 bd 9e c9 94 3d 5a d3 cc 3d
       -0.017723145 -0.043795235 0.07265018 0.100012496
000150 88 43 49 bd d4 5c 3a 3e 57 00 de 3d e6 b9 32 3d
       -0.04913667 0.18199474 0.108399086 0.043634318
000160 7e e5 ac 3c 20 f8 60 bc 7f b2 7a bd a1 9f 02 3d
       0.021105524 -0.013731033 -0.061205383 0.031890515
000170 81 38 33 3e 17 13 b1 3b e3 5d c0 bd 1f 1d e1 bb
       0.17502023 0.005403887 -0.093929075 -0.0068699266
000180 2b 9c 3b 3e 4b 69 ef 3c d5 cc 69 3e 95 72 64 3d
       0.18321292 0.029225012 0.22832043 0.055773336
000190 38 cc c5 bc ea 43 b5 3d de 75 5a 3d 32 3d 8c 3d
       -0.02414523 0.08850844 0.053335063 0.068476096
0001a0 d6 8f 0b bd d7 ef 33 be 93 f0 53 bd 13 52 b6 bd
       -0.03407272 -0.1757196 -0.0517431 -0.08902373
0001b0 66 32 b6 bd a5 1e 1b be 10 1b 11 bd 3f 85 ac bc
       -0.088963315 -0.15148409 -0.0354262 -0.02105963
0001c0 ea 0b 6b be 3a 63 0c 3e 92 15 1c 3e 11 d2 36 be
       -0.22953764 0.13709727 0.15242603 -0.17853571
0001d0 96 a4 07 be 56 0e 38 be fb bf 2b bd bc 73 06 be
       -0.13246378 -0.17974219 -0.041931134 -0.13130087
0001e0 55 29 22 be fe cf d5 bd d0 63 c2 bd f5 ad cd bd
       -0.1583608 -0.10440062 -0.09491694 -0.10042945
0001f0 30 f4 92 3d 57 f1 4d be 88 d7 31 bd bb a8 e8 3d
       0.07175481 -0.20111595 -0.043418437 0.11360308
000200 05 29 1e be 0c 26 a7 bd 80 14 8c be c2 fe 49 3d
       -0.15445335 -0.08161554 -0.2735939 0.04931522
000210 4a 0d cb bd d9 ca 11 3e 03 de e0 bc 94 fd 31 be
       -0.09914644 0.14237536 -0.027449613 -0.17381889
000220 b7 6e a9 bd 54 ac d2 bc df 46 84 3c 64 df 31 3e
       -0.0827307 -0.025716938 0.016147075 0.17370373
000230 96 fa 5b be 2a da 19 3d be 32 58 be 6e 7f 8c bd
       -0.2148231 0.037561573 -0.21113107 -0.06860243
000240 5d cf cd 3d 4e ad 06 be e2 b7 2c be 57 a9 ee 3d
       0.10049317 -0.13152048 -0.1686702 0.11653393
000250 5a f2 22 bd a4 48 b7 3c 4b 8a 88 3c 6b 84 04 be
       -0.039781906 0.022373505 0.016667506 -0.12941138
000260 81 3a c3 3d 7f 88 c0 bd e0 1e 93 3b 67 a8 7c bd
       0.09532643 -0.094010346 0.0044897646 -0.06168404
000270 62 a6 92 be 1f 13 6a be a2 b1 ef 3c f5 3b 9b 3d
       -0.28642565 -0.22858857 0.029259507 0.07579795
000280 c5 03 7c be 5f 62 63 be ce 65 63 be 1e 95 5e be
       -0.24610813 -0.22205494 -0.22206804 -0.21736571
000290 35 2e ad 3d 25 2c 48 be 24 24 7b be 34 0b 91 bd
       0.08456079 -0.1954809 -0.24525505 -0.07082215
0002a0 ae e8 d1 bd 79 34 af 3d d3 da d0 3b 0e bb b5 bd
       -0.10249458 0.0855493 0.006373742 -0.088735685
0002b0 45 f7 d7 3d 3f ab ef 3d b0 87 a0 3d 22 f5 57 3d
       0.1054521 0.117025845 0.0783838 0.05272401
0002c0 08 0e a0 bd fc 91 07 3d 36 8f fc 3d e0 9f 14 3e
       -0.07815176 0.033098206 0.12332003 0.14514112
0002d0 44 a0 a4 bd 1c 93 e8 3c 84 06 33 bc 29 8e a6 3d
       -0.08038381 0.02839046 -0.010926846 0.08132584
0002e0 ed 52 62 bd 63 b3 48 3e e6 09 0e 3e 1b 21 7f 3d
       -0.055254865 0.1959968 0.13870963 0.06228743
0002f0 07 56 19 be 33 49 55 be ba 2b a2 bd 08 a8 9b 3d
       -0.14974223 -0.20828705 -0.079184964 0.07600409
000300 0a 18 13 be e5 e9 cb bd af 13 70 be 5c c6 70 bc
       -0.14364639 -0.09956721 -0.23445009 -0.01469573
000310 a2 51 37 be 8e da 77 bd 45 c4 b0 3d 50 0f 6f bc
       -0.17902234 -0.060511164 0.086311854 -0.014591053
