code/models/decoder_64.pth (torch, 860066 bytes, 7 tensors)

fc1.weight f4 [3200, 64]
000000 3a 27 93 3d 4f 34 fb bd cd 11 ac bd 6c f2 17 bd
       0.07185216 -0.122658364 -0.08401833 -0.037096426
000010 22 1c fb bd a0 82 11 3d bc ed f8 3d 46 63 06 be
       -0.12261225 0.035524964 0.12154719 -0.13123807
000020 24 5f 66 3d c1 50 d4 3c c4 54 4a 3c d8 06 83 3d
       0.056243077 0.025917413 0.012349311 0.0639779
000030 cb 55 ef bd 56 86 03 3e 4f ed aa bc 45 fc de bd
       -0.116862856 0.12844214 -0.02086511 -0.1088796
000040 d1 e0 8e bd e7 67 42 3d d2 a2 94 bc 87 88 08 be
       -0.06976474 0.04746237 -0.018144045 -0.13333331
000050 9f b8 b4 bd 8b da 37 bd 19 6e 14 bd 7e 38 18 be
       -0.08824276 -0.044886153 -0.03623781 -0.148653
000060 a1 3d b8 bc 65 d8 09 3e 6f f6 f3 bd 40 c1 a2 bc
       -0.022490324 0.13461454 -0.11912238 -0.01986754
000070 47 79 55 bd c8 0e ce bd 78 ba 12 be 8c ec 91 bd
       -0.052117612 -0.10061413 -0.14328945 -0.07125196
000080 b6 c7 d4 bd 29 98 bc 3d b5 38 bc bc 74 ad a8 3d
       -0.10389654 0.0920871 -0.022976259 0.082362086
000090 59 d5 64 3d c4 13 6d 3c c0 5a c7 bd b4 c1 9c bd
       0.055867527 0.0144700445 -0.09734106 -0.076541334
0000a0 e2 1e c8 3d 34 de 4c 3d c9 9a 7f bd 3a 55 83 3d
       0.097715154 0.050016597 -0.062403474 0.0641274
0000b0 d6 a5 9a bc f8 ab e6 3d d9 4c 86 bd 8b ae a5 3d
       -0.018877905 0.11263269 -0.06557626 0.08089932
0000c0 7a 0c 65 3d 15 a0 8b bd ec 1c a9 bd 0f 44 df 3d
       0.0559201 -0.068176426 -0.082574695 0.10901653
0000d0 6a df b1 bc 5b 2f c4 bd 0d fb bc bd 65 dd bd bb
       -0.021712977 -0.09579345 -0.09227572 -0.0057942146
0000e0 da be a2 3d 86 87 7d bd 8e ba a3 3d d0 32 82 bd
       0.07946558 -0.061896823 0.07994567 -0.06357348
0000f0 5b a2 15 bc 77 b3 ee bd 1a 15 11 3d 13 5d 94 bd
       -0.009132947 -0.11655324 0.035420515 -0.07244315
000100 6c 89 06 3d 09 95 30 bd d7 f9 08 3c 28 c2 d5 bd
       0.0328459 -0.04311088 0.008360348 -0.10437423
000110 0a d2 c6 3b 9c c3 9f bc 65 88 1c bd 05 4e d9 3d
       0.006067519 -0.019502454 -0.038216013 0.10610584
000120 e9 35 a0 3b 98 db 98 3c fd f8 93 3d 12 b2 73 bd
       0.004889239 0.018659398 0.07225225 -0.059495993
000130 00 b9 a2 3d 10 96 89 3c 80 36 b8 3d 2e fd 80 3d
       0.07945442 0.016795188 0.0899477 0.0629829
000140 13 08 88 3c aa 1f 07 3c 22 a2 b7 bd fc 43 0a bd
       0.016605413 0.008247295 -0.08966471 -0.03375624
000150 00 a2 54 3d 99 4e 9d bc 8e 3b 45 3d 12 89 ab 3d
       0.051912308 -0.019202517 0.0481525 0.083757535
000160 c4 bb 35 3d bf 8b c5 bd 62 58 bb 3d 55 0b 4a 3d
       0.04436852 -0.09645795 0.09147717 0.049327213
000170 ed 24 62 3c ba 4d 86 3d e7 79 9a 3d a1 5b 27 bc
       0.013802749 0.06557794 0.07542782 -0.010214717
000180 70 63 0a bc 59 dd 17 be 64 49 1e bd aa 5b 4b bc
       -0.008446559 -0.14830531 -0.03864421 -0.012411991
000190 aa 1e db bb cf 1d c8 bc 35 48 92 bd 72 54 6e bd
       -0.006687005 -0.024428276 -0.07142679 -0.058186002
0001a0 e1 0e a5 3c bd a5 73 3d 05 0a 71 bd af 66 c6 bd
       0.020148696 0.059484232 -0.058847446 -0.09687554
0001b0 ae 7a e1 3d 77 5d 7f bd 41 c9 29 3d 00 11 8c bd
       0.110097274 -0.062344994 0.041451696 -0.0683918
0001c0 de 71 a9 3c 93 97 24 3d fd 94 28 3d e1 bc e9 bd
       0.020684179 0.040183615 0.04115771 -0.11412979
0001d0 3e 5c fb 3c 0b 90 e0 bc 38 29 02 be f9 ef 73 bd
       0.030683633 -0.027412435 -0.12711036 -0.059555028
0001e0 ae b1 d1 3d 29 cc e4 bd 17 f2 cc bd 4a ca c0 bd
       0.10238968 -0.11171753 -0.100071125 -0.094135836
0001f0 5a 20 dc 3d 32 22 05 be 8b e5 98 bd 0d da 4d bd
       0.10748358 -0.13001326 -0.07465657 -0.050256778
000200 78 8a ea bd 08 0c 00 3e 83 2c 83 3d 77 b8 1e 3c
       -0.11452192 0.1250459 0.06404974 0.0096875345
000210 f8 30 ce 3d 42 09 9e 3d 4e a7 1a 3d f0 99 8f bd
       0.10067934 0.077166095 0.03775721 -0.07011783
000220 f2 e9 68 3d 06 b9 4c 3b 9e ca 05 bd 03 bd bd 3b
       0.056863733 0.0031238212 -0.032663934 0.005790354
000230 2f ef 2d 3d b4 d2 bc bd 40 99 9a bd ff 96 4d 3c
       0.04246443 -0.09219876 -0.07548761 0.012548207
000240 69 4a e7 bc a1 8e de 3d d0 90 98 bc 22 d4 0c 3d
       -0.028233724 0.10867048 -0.01862374 0.034381993
000250 10 a9 db bc 16 71 df bd b4 1f 75 bd 48 20 d7 3d
       -0.026814014 -0.10910241 -0.059844688 0.10504204
000260 34 17 d3 bd 93 ad 48 bd c2 20 bf bd a4 4b 7d bd
       -0.1030716 -0.04899366 -0.0933242 -0.061839715
000270 3b 63 95 bd 79 30 9a bd 48 d1 e7 3d 8e 8a 13 3d
       -0.07294317 -0.07528777 0.11319214 0.036020808
000280 51 9d c9 bd b0 3f f4 bd 8f b9 9a bc a4 81 4e 3d
       -0.09844459 -0.1192621 -0.01888731 0.050416604
000290 0c 3d 09 bd ee 1c 9f bd b7 2f 0c 3c 06 eb ce bb
       -0.033505484 -0.0776919 0.008556298 -0.006314638
0002a0 ee 19 18 bd 92 92 89 3d ac e0 03 be a6 4b 01 be
       -0.037134103 0.06717409 -0.12878674 -0.12626514
0002b0 87 34 90 bd ce 64 3c 3d c6 a2 28 bd b4 cd c6 bd
       -0.07041269 0.045994572 -0.041170858 -0.097072035
0002c0 9c 99 39 bd 7f 0c d9 3d eb e9 d3 3d 1b 03 ef 3c
       -0.04531251 0.105980866 0.10347351 0.029176285
0002d0 31 62 82 3d 0a 71 c0 bd 24 10 98 3d 3b bc bd bd
       0.06366385 -0.093965605 0.074249536 -0.09264418
0002e0 66 97 c4 bc ef 8e dd bd 86 fb f8 3c 04 11 6b 3d
       -0.023997974 -0.10818278 0.030393373 0.057389274
0002f0 cf 0e 8d 3d 69 e3 ef 3a f7 ef c5 3c 6b 05 06 3d
       0.0688759 0.0018302026 0.024162276 0.03272001
000300 83 7b 13 3c 9d 84 89 bd f2 dd d3 bd 21 6c 1e 3c
       0.009001615 -0.06714747 -0.10345067 0.009669335
000310 1d 11 59 3d d0 3b b8 3d 81 33 23 3e a8 ba 87 3c
       0.052994836 0.08995783 0.15937616 0.016568497
000320 8f 63 bb bd 61 b1 78 3d ca 6d d2 b9 df 61 b3 bd
       -0.09149849 0.060716037 -0.0004013612 -0.08758902
000330 24 19 d5 bd 5b 7c bf bd b5 aa 9d bc bf 80 05 be
       -0.10405186 -0.09349891 -0.019246439 -0.13037394
000340 e9 24 08 bd 44 42 a4 3c 42 81 d2 bc c1 91 cf 3d
       -0.033238325 0.02005113 -0.0256964 0.10135222
000350 bb 08 4c 3c 7c be e5 3d 6e a3 e7 3d cf c9 f2 bd
       0.012453253 0.11217973 0.113104686 -0.11854898
000360 e9 79 0d 3c 3f ef 9c bd db 57 ef bd 62 0a 67 bb
       0.008635023 -0.0766282 -0.11686679 -0.0035253991
000370 3a c2 c9 3c b4 12 d2 bd ff 90 d6 bd bf 40 76 3d
       0.024628747 -0.102574736 -0.104768746 0.06012034
000380 df dc 3f bd e9 a4 c1 bd 6b a7 bf 3c 67 0f 80 3d
       -0.0468415 -0.09455282 0.02339526 0.06252938
000390 7c 9f 44 bc bf 59 58 bc 4b 35 2a 3d a8 36 24 3e
       -0.012000915 -0.013204991 0.04155473 0.16036475
0003a0 72 f3 65 3d 98 58 10 3d 4f b2 5d bc b6 b7 7d bd
       0.05614037 0.03524074 -0.013531282 -0.06194278
0003b0 3e 4a 5e 3d 4c 45 fe 3a 6c af 5f 3c c6 a5 42 bd
       0.05427002 0.0019399314 0.013652664 -0.047521375
0003c0 79 45 c5 3d f9 92 b1 bd 1e 04 11 be d6 1b 8a bc
       0.096323915 -0.08670611 -0.14161727 -0.016858976
0003d0 b2 44 17 3c 3f 88 3c bc e8 e9 50 bd 28 cd e0 bd
       0.009232687 -0.011507093 -0.05100432 -0.109766304
0003e0 1f 91 0c bc b7 b4 1d 3e be a1 81 bc 88 d4 cf bc
       -0.008579521 0.15400968 -0.015824195 -0.025369897
0003f0 f9 8f 1e be c6 d1 6c 3d 8b 38 dd 3d 8e bf 83 bd
       -0.15484609 0.057817243 0.108018 -0.064330205

fc1.bias f4 [3200]
000000 28 16 31 bd 65 91 b2 3d db ab d8 bd 70 75 06 3e
       -0.04323402 0.08719138 -0.10579654 0.13130736
000010 07 70 4c bd 91 9b a6 3d f1 f5 91 bd 6c aa 2a bd
       -0.049911525 0.08135141 -0.07126988 -0.041666433
000020 fd 82 42 3d ea 9b 90 bd f5 02 b0 3d a1 a7 6c bd
       0.0474882 -0.07060988 0.08594314 -0.05777705
000030 7e f5 98 bd 87 57 87 bd f5 18 e3 bd b2 61 06 bc
       -0.07468699 -0.066084914 -0.110887446 -0.008202003
000040 97 94 79 bd 6c de f2 bd 2a fd b0 bd ca c5 8d bd
       -0.060932722 -0.1185883 -0.08642037 -0.06922491
000050 dd c8 ae 3d d8 df 6c 3d 40 b0 d6 3c 7f 3d 37 bd
       0.085344054 0.05783066 0.02620709 -0.04473638
000060 a3 fb e7 3d c5 88 12 3d dc 5d 0c bd 3e 7a 03 bd
       0.11327293 0.035774965 -0.0342692 -0.032099
000070 9a 88 7c 3d 80 77 c3 ba 59 8c 33 3d 74 97 2b 3d
       0.06165371 -0.0014912933 0.043835018 0.041892484
000080 6a be aa bd 6a fa 91 bc 62 ca d0 bd f9 69 67 bd
       -0.083371 -0.017819602 -0.101948515 -0.056497548
000090 f9 97 b7 bc 5b 55 05 bd 59 e8 5b 3b 81 24 d6 3d
       -0.022411333 -0.032552104 0.0033555238 0.10456181
0000a0 82 1c 97 bc c2 cf 59 bd 46 19 9f bd 6a 05 0f 3d
       -0.01844621 -0.05317665 -0.077684924 0.034917273
0000b0 54 57 a6 bd 3c e6 c2 bc d1 de a3 3d 3a 94 ba 3c
       -0.08122125 -0.023791425 0.08001483 0.022775758
0000c0 2d 16 7a bd ee ac a7 3d 68 33 c8 3c 04 a4 c3 bd
       -0.061056305 0.081872806 0.024438575 -0.09552768
0000d0 6a 45 8a 3d 29 95 a6 bd fa fe e1 3d b8 ce 8a 3c
       0.06751521 -0.08133919 0.11034961 0.016944274
0000e0 5e 3b 09 bc 98 a0 8f 3c 43 ba 80 bd d3 64 d6 3c
       -0.008375971 0.017532632 -0.062855266 0.026171124
0000f0 c9 68 3b 3d 48 02 8c bd 47 1c 3a bd c1 d3 d9 bc
       0.045754228 -0.068363726 -0.045437124 -0.02659023
000100 33 05 ce 3d 25 cd 04 3e 79 11 5d 3d 39 7c 14 bb
       0.100595854 0.12968881 0.05397174 -0.002265705
000110 1b d9 77 bd c8 a4 59 3d 32 51 66 ba 9a 9b 0d bd
       -0.060509782 0.053135663 -0.0008785903 -0.03457222
000120 50 c7 b2 bb 0b d5 99 3a 18 be 0f 3c a5 88 2d bc
       -0.005455889 0.0011736465 0.008773349 -0.010591661
000130 94 dc 98 3d 17 6b 82 bc 35 87 d6 bc aa d3 58 3d
       0.07463947 -0.015920205 -0.026187519 0.052936234
000140 a0 00 1c bd ec 44 8c bd 35 80 ab bd af 28 73 3d
       -0.038086534 -0.06849083 -0.08374063 0.05936497
000150 b9 b4 5f bd b3 92 51 3d 21 e7 c3 3d 16 84 d9 3d
       -0.05461571 0.051165294 0.09565569 0.106208965
000160 1c d1 3a 3d 68 02 da bd f6 df 2a 3d 77 51 55 bd
       0.04560958 -0.1064499 0.041717492 -0.052079644
000170 13 c1 13 bc b5 87 a4 bc 88 88 0b 3e 6b 5d e1 bd
       -0.0090182 -0.020084241 0.13626301 -0.11004146
000180 e9 d3 17 bd 5e d5 f8 3d 40 a4 b8 bb ef 03 f1 bd
       -0.037067328 0.121500716 -0.0056348145 -0.117683284
000190 d5 dd 0b bd 72 48 c4 bd ef 8a ce 3d 8f 52 7a 3d
       -0.034147102 -0.0958413 0.10085093 0.06111389
0001a0 04 e5 77 bd 35 52 ad 3c d9 a6 7b bc 5d 6b 09 3e
       -0.06052114 0.021157363 -0.015359604 0.13419862
0001b0 b1 a6 07 3d fc 97 b5 bd 7a 74 e0 bd 02 c1 eb 3c
       0.033117954 -0.08866879 -0.10959716 0.028778557
0001c0 32 91 33 bb 37 15 30 3c e8 14 b6 bd 6d 87 68 3d
       -0.0027399776 0.0107472455 -0.08890706 0.056769777
0001d0 d3 8d df 3d 1c 6e a4 3c 65 d3 5b bd 9d a8 c6 bd
       0.10915723 0.020072035 -0.0536684 -0.09700129
0001e0 3d 52 3a bd 7e f5 df bc 5a 0a 7d 3d 17 38 f3 3d
       -0.045488585 -0.02733874 0.06177745 0.11875933
0001f0 97 07 8f bd 5b e6 c7 3d 6c 03 ea bd d9 ba e2 bd
       -0.069838695 0.09760734 -0.11426434 -0.110707946
000200 70 8d 83 3d 46 fb 9c bc a9 09 b9 bd 25 09 28 bd
       0.064234614 -0.019162785 -0.09035046 -0.041024346
000210 a1 1e 27 3d 8e f8 eb bd 01 3e 2a bd 0b 1e c5 3d
       0.040800694 -0.115220174 -0.041563038 0.09624871
000220 6c a1 99 bd a6 a2 97 3d 30 5b 70 3d 2a 1c 4b 38
       -0.07501492 0.074040696 0.058680713 4.84252e-05
000230 a0 e7 55 3c 1d ec 9d bd 9e 84 74 bd 3b ba 90 bd
       0.013055712 -0.07711051 -0.059696786 -0.07066771
000240 74 ef 17 3d 85 29 f0 3d af ed 96 bb e5 dd 81 bd
       0.037093595 0.11726669 -0.004605971 -0.06341151
000250 c5 83 9c 3d 15 68 83 3d ef 2a dd 3b 69 de ba bd
       0.076423205 0.064163364 0.006749503 -0.091244526
000260 fb 05 f5 3d 14 5f e4 bd 8b 67 c4 3d 12 ab 60 bd
       0.11964031 -0.11150947 0.09590062 -0.054850645
000270 90 d2 a0 3c 15 af c5 ba 14 77 a6 3d da 63 8c bd
       0.019631654 -0.0015082086 0.08128181 -0.06854983
000280 ee 41 a1 3d d8 aa 73 bd c0 4c 01 be e7 0b d9 39
       0.07873903 -0.0594891 -0.12626934 0.00041398333
000290 a3 e8 96 3d ae 01 b9 3d 94 55 21 3d 56 bd 55 3c
       0.07368591 0.090335235 0.039388254 0.0130456295
0002a0 e3 63 c9 3d 1b 8b 2b 3c 18 d8 50 bd 5c 4c b3 bd
       0.09833505 0.010470177 -0.050987333 -0.08754799
0002b0 97 24 65 3d f6 74 c5 bd 57 ef f6 3d b1 39 95 bd
       0.055943098 -0.09641449 0.12057369 -0.072863944
0002c0 06 eb d7 3d 36 f3 4c bd 86 36 05 3e 7f 0c ed bd
       0.10542874 -0.05003663 0.1300908 -0.11574649
0002d0 1d e6 fd 3d 37 55 23 bd 58 00 8d bd d4 74 c9 3d
       0.12397406 -0.03987619 -0.06884831 0.09836736
0002e0 41 f0 c0 bd 83 02 1c 3d 12 14 72 bb 79 d6 c7 bc
       -0.09420825 0.038088333 -0.0036938232 -0.02439426
0002f0 e1 3f d1 bb 3d d7 8a 3d 4f cd 5b bd b6 2c 44 bd
       -0.006385789 0.06779335 -0.053662594 -0.047894202
000300 7c dc a1 3c 8b 64 c1 bc b3 c7 c1 bd a1 5d 57 3d
       0.019758455 -0.023607513 -0.09461918 0.052579526
000310 35 1a 14 3d e3 6b 8f 3d b4 03 ef 3c 14 e6 33 3d
       0.036157805 0.07003 0.02917657 0.04392059
000320 3d bb 73 bb a5 94 79 bd a7 af 03 3e b6 44 05 3e
       -0.003719046 -0.060932774 0.12859975 0.13014492
000330 04 e8 3e bd 62 85 95 3d 41 04 c5 3d 5e 46 a6 3d
       -0.046607986 0.073008314 0.09619952 0.0811889
000340 87 46 ab bd 0d 01 72 3c 88 2d bb 3d d3 b6 b5 3d
       -0.083630614 0.014770758 0.09139544 0.088727616
000350 dc 41 c6 3d 0d 51 a8 3d e2 98 b0 bc 41 40 0d bd
       0.096805304 0.08218584 -0.021557275 -0.034485105
000360 04 ca 2a 3d 71 c3 0c 3d ce dd 87 bd 8f 01 d8 3d
       0.041696563 0.034366075 -0.06634103 0.10547172
000370 b0 0e ba 3d ad b0 7d bd 0e 18 07 bd d2 4d 25 3c
       0.09084833 -0.06193607 -0.032981925 0.010089355
000380 0c 96 e9 bd 8c ab 77 3d 72 18 e3 bc 28 9a f5 3d
       -0.11405572 0.060466334 -0.027721617 0.119922936
000390 35 d8 c6 3d 84 0e 20 bd 5e f3 91 3d f3 e6 b0 bd
       0.09709207 -0.039076343 0.07126497 -0.086378
0003a0 19 a0 d0 3d 87 03 9c bd f2 87 51 bc 8a 83 6d bd
       0.10186786 -0.0761786 -0.01278876 -0.057986774
0003b0 ce 03 52 3c 5c 7d f7 bd 6a 77 10 3c b2 3b 15 bd
       0.01281829 -0.12084457 0.008817533 -0.036433883
0003c0 85 9f 35 bd 55 e2 cd 3d 58 62 e1 bd 02 f8 16 3c
       -0.044341583 0.10052935 -0.11005086 0.009214403
0003d0 0b 69 f1 3c 8f df 05 3e 88 f8 41 bc 2a 6b e2 3b
       0.029469034 0.13073562 -0.01183904 0.0069097476
0003e0 14 4a cc bd d0 ae a5 bd c6 e9 ae bd 36 c1 14 3e
       -0.09975067 -0.080899835 -0.085406825 0.14526829
0003f0 ba 81 d5 bd b7 dd 61 bc c1 03 16 bd 9d 57 1d 3d
       -0.10425134 -0.013785771 -0.036624674 0.038413633

conv_transpose1.weight f4 [32, 16, 3, 3]
000000 17 c8 17 bd 05 b8 26 3c ed f1 0f 3d 7b 8d 93 bd
       -0.037056055 0.01017571 0.035142828 -0.0720472
000010 67 69 d8 3d a0 ef b5 3d 24 f1 e1 3c 62 79 9f 3d
       0.10566979 0.088835955 0.027580805 0.07786824
000020 09 3b b4 3c 84 fe 7a 3c 12 fd 0f 3d 99 e6 fd 3c
       0.022000806 0.01531947 0.035153456 0.030993747
000030 91 35 30 3d 80 bc a8 ba 0e 17 b6 bd 7d 88 bb 3d
       0.043019835 -0.001287356 -0.08891116 0.091568924
000040 4f f2 53 bd 0c ef ab 3c 8f 2e 96 3d 17 f7 c5 3c
       -0.051744755 0.02098801 0.07333099 0.024165673
000050 d8 8d 31 bc 5c e8 8b 3d 9d 87 11 bc fb 64 05 3d
       -0.010837041 0.068314284 -0.00888243 0.032567006
000060 46 b3 c6 3d e2 f9 43 3d 1e 60 91 3d 27 91 92 3d
       0.097021624 0.04784573 0.07098411 0.07156592
000070 46 3c b8 3d 2f 25 1d bd 71 84 57 bd c8 c8 72 3d
       0.08995871 -0.03836554 -0.05261654 0.05927351
000080 c2 29 82 bc 87 78 87 bd 62 cd 91 3d ce e7 38 bd
       -0.015889052 -0.06614786 0.07119252 -0.04514294
000090 7c cd 7d 3d fa 68 9e bd fe 92 61 bd 83 fd 4f bd
       0.061963543 -0.077348664 -0.055071823 -0.050778877
0000a0 37 2e 7c 3d d3 78 1c 3d 33 99 85 bb de 7f ed 3d
       0.06156751 0.038201164 -0.0040771007 0.11596654
0000b0 17 50 36 3d 9a ca 03 bd 6a a8 38 bd ee 72 0e 3d
       0.044509973 -0.032175638 -0.045082487 0.034777574
0000c0 f7 23 c5 3d 69 c8 50 bd 1c 54 8f bd 73 03 32 bd
       0.096260004 -0.050972376 -0.069984645 -0.04346032
0000d0 93 63 ae bc bb bb 8b bd 58 4d ce 3d 2b 1a 49 3d
       -0.021287715 -0.06822916 0.10073346 0.04909722
0000e0 f3 ad f2 3c b3 78 9f 3c e9 a3 f3 3a f9 1f 4c 3d
       0.029623961 0.019466734 0.0018588278 0.04983518
0000f0 28 9f af bc c0 3d d7 bc 5d 92 8f bd b1 a3 b9 bd
       -0.021438196 -0.026274562 -0.070103385 -0.09064425
000100 58 dc bb bc c2 19 86 3d 12 49 7b bd 82 2b 9f 3d
       -0.022932217 0.06547882 -0.061348982 0.0777197
000110 87 1d 46 bc 20 db cb bc a6 85 90 bc 8f 49 cd 3c
       -0.012092001 -0.02488476 -0.017641854 0.02505949
000120 01 73 74 bd 56 74 83 bd 04 3e cb 3d 23 9f 91 3d
       -0.05967999 -0.06418674 0.09923938 0.07110431
000130 e1 92 b8 bd d0 4b be 3d f1 be 3c bd c5 89 8d bd
       -0.0901239 0.09291804 -0.046080533 -0.06911043
000140 67 e5 9f 3d be 34 f6 bc bb 85 c1 bd 71 b1 c2 bc
       0.07807427 -0.030054446 -0.09449335 -0.023766251
000150 15 11 86 3d fe c0 bc 3c b3 bc 60 3d b3 8f ac ba
       0.06546227 0.023041245 0.054867458 -0.0013165384
000160 dd ff a8 bd b4 51 a8 3d 94 84 72 3b 10 de 0c 3d
       -0.08251927 0.08218709 0.0037005292 0.034391463
000170 a3 47 50 bb e2 02 60 bd 2c 43 24 3c a8 cc 4a 3c
       -0.003178098 -0.05469025 0.010025781 0.012377895
000180 e4 92 90 bb f5 83 f8 bc 59 a7 ba 3c f5 d9 ae 3d
       -0.004412042 -0.03033636 0.022784876 0.08537666
000190 ea 71 5d 3d a7 41 a1 bc dd 88 49 bd 5b 0d 56 ba
       0.054063715 -0.019684626 -0.04920279 -0.0008165442
0001a0 61 72 69 bc 2f 49 4a bd 58 6b ad 3d e3 bd 17 bb
       -0.014248461 -0.0493862 0.0846774 -0.0023153953
0001b0 9d 1b 8e bd 40 0b 7b 3d 92 41 b1 3d d7 49 37 3d
       -0.069388606 0.061290026 0.08655085 0.044748154
0001c0 1b dc 88 bd cf 4e 66 bd 74 dc 1f 3d d4 02 32 bd
       -0.06682607 -0.0562275 0.0390286 -0.04345973
0001d0 a5 db 96 bd 61 ae 87 bd 63 89 bd 3d 35 eb 7e bc
       -0.073661126 -0.06625057 0.0925472 -0.015559007
0001e0 af d4 52 3d d3 51 74 3c 39 1b 1a 3b a6 5d 4f bd
       0.051472362 0.014912087 0.002351476 -0.05062642
0001f0 bc e9 85 3d 84 bf 8e 3d 72 e2 57 3c 4e 03 bd bd
       0.06538722 0.069701225 0.013176547 -0.09229146
000200 33 ea 91 3d 4d 41 f1 bc 1f 58 b7 bd 82 81 96 3d
       0.07124748 -0.029450083 -0.08952355 0.073489204
000210 61 a6 d1 bc bc d8 97 bd 70 b6 c1 3c a9 49 d3 3c
       -0.025592031 -0.07414386 0.023646563 0.02579196
000220 de ad 2a 3b b4 c6 8e bd 2a 89 c0 3d 49 a3 5d 3d
       0.0026043574 -0.06971493 0.09401162 0.0541108
000230 01 07 99 3d 0f 17 3d bd 97 2c a2 bc 99 83 cb bc
       0.07472039 -0.04616457 -0.019796653 -0.024843024
000240 86 ac 38 3c 98 d8 b4 3d ff 99 9d bc 02 0d 83 bc
       0.011271602 0.088303745 -0.01923847 -0.015997414
000250 e5 10 3b bd 6e f0 39 3d 05 bb 53 3d aa 14 d2 bc
       -0.04567041 0.045395307 0.051692028 -0.025644619
000260 ef 01 6b 3d 26 bd 3b bd 33 7a 4c bc 26 01 99 bd
       0.05737489 -0.045834683 -0.012480306 -0.07470922
000270 6d 2f bd bc 6c 69 2c 3b 84 e9 93 3d c6 f8 35 bd
       -0.023093903 0.0026307954 0.07222274 -0.044426702
000280 39 be 9e 3c 88 dc ff bb 3a 46 91 3c 80 0b 4d bc
       0.019377815 -0.007808272 0.017733682 -0.012514949
000290 09 4b 06 bc bc 22 66 3c a8 80 1a bd f6 a6 bc bd
       -0.008196601 0.014046367 -0.037720352 -0.09211533
0002a0 f6 4d fe 3c f2 62 6e bb 97 8c f9 3c c7 6a 41 3c
       0.031043034 -0.0036374894 0.030462546 0.011805243
0002b0 22 32 b7 bd 41 1d 70 bd 2a 20 0a bd bf 84 70 bd
       -0.08945109 -0.05862165 -0.03372208 -0.058720347
0002c0 ba b6 70 bd 90 53 26 3c 5d 7b 0c 3d 39 d4 42 bd
       -0.05876801 0.010151759 0.034297336 -0.047565673
0002d0 02 5d 97 bd 41 52 cf bc e4 60 b4 bc 56 2c 85 bd
       -0.07390787 -0.025307776 -0.022018857 -0.06502597
0002e0 fe f1 e7 bc e5 fb 43 3d 54 23 43 bd c5 9f 37 bd
       -0.028313633 0.047847647 -0.047641113 -0.044830102
0002f0 d3 32 5c 3c c7 a6 66 3d bc 9e 7a 3c 64 18 cb 3d
       0.013439852 0.056311395 0.015296634 0.099167615
000300 d3 b0 4e bd 58 9b b4 3d 72 fb 25 3c 43 5e 1f bd
       -0.0504616 0.08818692 0.01013075 -0.038908254
000310 4e a3 42 bb f3 47 e3 bd 80 97 9b 3c 14 88 32 bd
       -0.0029699388 -0.110977076 0.01899314 -0.043586805
000320 21 ba 7c bd bc e6 50 3d a7 56 51 bc 9d af 1e 3d
       -0.061700944 0.051001295 -0.012777007 0.038741697
000330 96 6d 16 bc 06 fd c1 bc 29 73 e0 3c ce 32 63 3c
       -0.009181401 -0.023680221 0.027398663 0.013867093
000340 39 19 c1 3d 06 31 97 bb 83 0a a0 bd 5d d3 4a bd
       0.09428639 -0.0046139983 -0.07814505 -0.049517978
000350 f4 e4 91 3d 87 eb 2d bd aa d8 e2 3d ae 01 2b 3c
       0.071237475 -0.042460945 0.11076482 0.010437412
000360 94 a2 20 bd 2e d9 d6 bc e3 02 5c bd 60 d6 d7 3d
       -0.039217547 -0.026226606 -0.05371369 0.10538936
000370 1f d6 8e bd 87 cc 48 bd f8 14 86 3d 55 0f f9 bc
       -0.06974434 -0.049023177 0.06546968 -0.030402819
000380 be 75 0d bd a4 80 34 bd f2 c7 61 3d c0 71 ab 3d
       -0.034536116 -0.044067994 0.055122323 0.083713055
000390 d1 08 89 3d e7 a8 c3 3d d0 95 c7 3d 58 5e 16 3d
       0.06691135 0.095537 0.09745371 0.036711067
0003a0 1b 51 32 ba 9c f7 82 bd 6a 19 da 3d cf eb 1c bd
       -0.0006802247 -0.06394884 0.106493786 -0.038310822
0003b0 ac 9e c8 3d f9 b6 fb bc 9e a1 ca 3a b1 d2 5a bc
       0.09795889 -0.030726897 0.0015459543 -0.013355897
0003c0 9c 4b a1 bc 57 0a 67 3d 09 5c 90 3b 4e c6 c2 bd
       -0.019689374 0.056406345 0.0044055027 -0.0951048
0003d0 27 cb 4c 3d 72 f6 ab bd 30 ce ab bd a5 17 4b bd
       0.04999843 -0.08396615 -0.083889365 -0.049583096
0003e0 b7 b2 8e bc 14 73 c3 3c db 46 4b bb 88 e5 92 3d
       -0.017419202 0.023858584 -0.0031017575 0.07172686
0003f0 90 9b 6f 3c 64 44 34 3d 6f 00 55 bd a1 b1 8c 3d
       0.014624491 0.044010535 -0.052002367 0.068698175

conv_transpose1.bias f4 [16]
000000 2f fc 36 3d 8a e1 02 3d 29 14 93 3d be 33 a3 bd
       0.044674095 0.031953372 0.071815796 -0.079688534
000010 bc d8 c7 3d f7 a5 4f 3d d9 40 2a 3d 60 a3 4a bd
       0.09758136 0.050695386 0.04156575 -0.049472213
000020 94 f1 a5 3d 90 b9 45 3d f6 1e d5 3c d0 29 00 bd
       0.08102718 0.04827267 0.02601574 -0.031289876
000030 c3 cb 93 bc cf 23 2f bd 33 09 43 bd d5 5e 2c 3d
       -0.018041497 -0.04275876 -0.047616195 0.042082626

conv_transpose2.weight f4 [16, 8, 3, 3]
000000 ec cb fb bc 84 45 b2 bd cb 8d 3b 3b fd ec 2f 3c
       -0.030736886 -0.08704665 0.002861845 0.010737655
000010 9c 38 f7 3d df c1 8c bd b5 d6 fc ba d5 2d 1d 3d
       0.12071344 -0.068729155 -0.0019290062 0.038373787
000020 00 13 c4 bc b0 ba 32 3d ad b4 df 3b 6d 40 39 bd
       -0.023934841 0.04363507 0.006826958 -0.045227457
000030 8e e4 13 bd 40 2d 21 bd 37 6d 36 3d d9 49 9d 3d
       -0.03610664 -0.039349794 0.04453775 0.07680101
000040 9a f5 f8 3d 18 7b 53 bc 9b 98 b3 3d 7b 94 30 3d
       0.1215622 -0.012907766 0.087693416 0.043110352
000050 a2 b9 4d 3d 9f 2a a8 bc 16 75 0e 3e f3 12 60 bc
       0.05022586 -0.020528136 0.13911852 -0.013676393
000060 b4 cd c9 bc cd 22 8b 3c 60 c1 42 bd c8 76 e6 bd
       -0.02463422 0.016984368 -0.047547698 -0.112531245
000070 2e f2 60 bd 80 88 09 3e 3a 50 02 3e 4e a6 49 bd
       -0.05491846 0.13430977 0.12725917 -0.049230866
000080 cd cb 2a 3d 94 06 ff bc 38 0c 37 bc 44 fc 69 bd
       0.041698266 -0.031131066 -0.011172347 -0.057125345
000090 b3 b4 87 bb 09 ba 31 bd f5 50 2c 3d f9 61 68 bd
       -0.004141414 -0.043390308 0.042069394 -0.05673406
0000a0 4b ff 83 bd b0 b8 a5 bd 4a 88 9e bd 3d ff 60 3d
       -0.06445178 -0.08091867 -0.07740839 0.054930914
0000b0 e0 be a3 3d 64 db b5 bd 55 67 1a be 27 90 b4 bd
       0.07995391 -0.08879736 -0.1507848 -0.088165574
0000c0 74 d1 15 bd da e2 bd bd 48 95 94 bd 07 ec f2 bd
       -0.036576703 -0.09271784 -0.07255036 -0.11861425
0000d0 4a b6 b0 bc 2d 4a bf 3c d5 07 c4 bd 30 b7 c2 3d
       -0.021571297 0.0233508 -0.09571806 0.095075965
0000e0 1a 1a 13 3e bc 70 c6 bd cc ca 4f 3d 0e 91 0c 3e
       0.14365426 -0.09689471 0.05073051 0.13727209
0000f0 c7 de 08 3d 95 77 76 3d 5d dc 50 bd 15 a9 e1 bc
       0.033415582 0.060172636 -0.050991405 -0.027546445
000100 6f c0 00 3e 5c 5b fb 3c 46 88 4b bc bf b4 fe 3c
       0.12573408 0.030683212 -0.012422627 0.031092046
000110 a8 1e 03 3e 93 c4 a4 3c 6f 11 90 bb 74 ef 4f 3d
       0.12804663 0.020113265 -0.0043966095 0.05076547
000120 e4 0c 6f 3c 8c b5 da bd 62 03 61 3d 84 f5 2c bd
       0.014590476 -0.106791586 0.054934867 -0.04222633
000130 67 d7 11 be a6 2c ef 3c 7e 97 1e be dd 6b d2 bd
       -0.14242326 0.029196095 -0.15487477 -0.102744795
000140 e1 50 98 bd 1d 26 e2 bd d0 c8 0f bd e8 ab 03 3e
       -0.074373014 -0.11042426 -0.03510362 0.12858546
000150 90 a3 81 bd 7f 89 c3 bd 63 c9 f2 3c dd 05 8d bd
       -0.06330025 -0.0954771 0.029637044 -0.06885884
000160 85 ed ff bd cb 26 d4 bd 25 d6 27 3c b9 bf 30 3d
       -0.12496475 -0.10358962 0.010243927 0.04315159
000170 bf 30 b2 bd 16 8e 0e be 6a 1f e5 bd a0 1a 8b 3d
       -0.08700704 -0.13921389 -0.111876324 0.06792188
000180 2d ae 29 bc 42 ca 6e bd 67 ba 09 3e 02 2e 1d bd
       -0.010356468 -0.058298357 0.13450013 -0.038373955
000190 b9 2a 0e be 1b 95 bf bc 4f 0c 0b be 4d 97 34 be
       -0.13883485 -0.023386529 -0.13578914 -0.17635842
0001a0 eb 8e 51 3d 4d b0 8a bc 95 d4 13 3c 15 87 ac bc
       0.051161688 -0.01692977 0.0090228515 -0.021060506
0001b0 b4 93 e3 bc c5 fe cb bd 30 55 3e bd 7d 45 f9 bd
       -0.027780391 -0.09960703 -0.04646796 -0.12171457
0001c0 0b 30 fc bd 6d 02 02 3e 01 02 b6 bb 2b 5e 59 bb
       -0.12313851 0.12696238 -0.005554438 -0.00331677
0001d0 9c 8e 6b 3d aa 25 8c bd dc cb 30 bd 5d 13 a5 3d
       0.05750905 -0.06843121 -0.043163165 0.08060334
0001e0 bc e1 1e 3d 1f 88 6c 3d e0 0c 88 bd 16 0c 68 3d
       0.038789496 0.057747003 -0.06643081 0.05665215
0001f0 2a 3c d2 bd e7 ae bc 3c 37 e5 b8 bc 56 dc 59 3d
       -0.10265382 0.023032619 -0.022570236 0.053188644
000200 b4 bd 6e bd 1b 3b 7f 3d 2b 13 9e bb 03 67 bd 3d
       -0.058286384 0.062312227 -0.0048240623 0.092481636
000210 09 c6 91 3d ef ba 71 bd 74 d4 b0 bd d5 fc e1 3d
       0.0711785 -0.059016164 -0.08634272 0.11034552
000220 56 ce 8d bc 8a 67 ed 3c 04 76 f0 bd 75 f7 0c be
       -0.017310303 0.028980035 -0.1174126 -0.13766272
000230 b3 25 7f 3d 78 49 fa bd 44 57 0d be cc 03 e6 3c
       0.062291812 -0.12221044 -0.1380282 0.028077982
000240 b6 23 ea 3c 70 37 dc 3d 85 96 5b bd 71 1c 8b 3d
       0.028581481 0.10752761 -0.053610343 0.06792534
000250 07 85 91 bc 44 9d aa 3d b3 03 bc 3d 69 09 4f 3c
       -0.017763628 0.08330777 0.09180393 0.012636521
000260 7d e0 82 bd 2a ae 59 bd dc 95 df bd 6c c4 7a bb
       -0.06390474 -0.05314461 -0.10917255 -0.003826405
000270 1d e8 86 3d 48 3b 7c 3d b3 dc 65 3d 98 4a 16 3d
       0.06587241 0.061579973 0.05611868 0.036692232
000280 90 cc db 3d 31 7e 47 bd 19 1a 80 bd 7c dc 44 3d
       0.107323766 -0.04870433 -0.06254978 0.048061833
000290 cb e6 d1 bc 01 f8 29 3d cb e4 47 bd 00 4d d8 bd
       -0.025622746 0.04149628 -0.04880218 -0.105615616
0002a0 5c 19 a0 3d ef 1f e5 3d 1e 8f 0f 3e 26 4f 62 3d
       0.07817337 0.111877315 0.14019439 0.055251263
0002b0 38 d4 e5 3b f8 c4 36 3d 07 3b 90 3d ae 00 60 bd
       0.007013824 0.044621438 0.070425086 -0.05468815
0002c0 93 38 3e 3d 0b e9 de 3d fd 5a 80 bc ef e7 7a bd
       0.046440672 0.10884293 -0.015668387 -0.061256345
0002d0 53 73 08 be da 0f 3c 3d 13 1b ff 3b 4e bf 32 bc
       -0.13325243 0.045913555 0.00778521 -0.010909868
0002e0 a8 2d b1 3c 0f f9 e1 bd 7c b1 6c bd a0 52 4f 3d
       0.021628216 -0.11033832 -0.05778645 0.050615907
0002f0 84 dc 07 3c 11 8e fe 3d 27 ed 6d bd 6f f4 9b 3d
       0.008292321 0.12429441 -0.058087494 0.076149814
000300 6a 08 24 3e 13 2a 37 bd 7f d6 35 bd c7 e9 0f bc
       0.16018835 -0.04471786 -0.044394013 -0.008783764
000310 01 f2 af bd cf 94 4a 3d e0 60 7f bc 19 f4 e2 bd
       -0.085910805 0.04945832 -0.015587062 -0.11081714
000320 66 e7 fc bc a6 cf b6 3d 1f a4 f8 bd 44 47 23 3c
       -0.030872058 0.089263245 -0.121406786 0.0099657215
000330 c2 46 50 3d 33 59 f5 bd f7 36 d8 3d 6f 24 16 bd
       0.05084873 -0.11979904 0.10557359 -0.03665584
000340 65 b5 00 bd 7f 2a d5 bc d1 f9 f4 3d ad c0 d3 bd
       -0.03142299 -0.02602124 0.11961711 -0.10339484
000350 cd 88 33 bd f9 ce 84 bd f7 0b 70 bd ae b4 5b 3c
       -0.043831635 -0.064847894 -0.05860516 0.013409777
000360 81 d1 45 3c a1 71 6c bd 39 84 de bd 50 ec 39 3d
       0.012073875 -0.057725552 -0.10865063 0.04539138
000370 cd eb ef bb 81 56 9d bd 73 02 09 bd cd 18 30 bc
       -0.007321811 -0.07682515 -0.0334496 -0.0107481005
000380 37 ef 80 bd 6a 66 8e bd 7c fc 64 bd 24 e4 b8 bd
       -0.062956266 -0.06953128 -0.05590485 -0.09027889
000390 e4 39 ff 3d fc 1d 3c bd 9d fb 85 3d a9 0c 9a bd
       0.12462214 -0.045927033 0.06542132 -0.07521946
0003a0 6c 4e 0a be b4 d3 f4 bd fa 41 56 bc 89 5b ac bd
       -0.13506478 -0.11954442 -0.0130772535 -0.084158964
0003b0 d7 1f 0c be 80 03 e6 bd 94 d1 ce bd 52 0b 5e bd
       -0.13684021 -0.11231136 -0.100985676 -0.054210015
0003c0 43 a5 fe 3d f2 88 ac 3c 8d 91 d6 3c e1 5f 1c 3b
       0.12433865 0.021061394 0.02619245 0.002386086
0003d0 63 5f 25 be 8c 75 23 be b2 ae 2b 3d 40 fe fb 3d
       -0.16149668 -0.1596281 0.04191465 0.12304354
0003e0 e2 4e 2b 3c 91 ad b2 bd cb 89 05 3e 8e 74 9f bd
       0.010455819 -0.087245114 0.13040845 -0.07785903
0003f0 bd cc af 3d 15 e7 08 3d e7 e5 bc bd 71 37 4e bc
       0.085839726 0.033423502 -0.09223538 -0.01258646

conv_transpose2.bias f4 [8]
000000 7c 4b 21 bd c3 d6 04 3d fc 58 e6 3d aa c2 e2 bd
       -0.039378628 0.032431375 0.11247441 -0.110722855
000010 01 0d f6 3d 5d 4f 7b 3d 0c f0 20 3d 63 b2 07 bb
       0.12014199 0.061354984 0.039291427 -0.0020705692

conv_transpose3.weight f4 [8, 1, 5, 5]
000000 37 71 4b 3e a5 d3 ad 3d fa f0 40 bd 00 a3 4e 3e
       0.19867407 0.084876336 -0.047104813 0.20179367
000010 d3 b9 89 bc 54 21 05 be 4e 5f 85 3d 91 35 0d ba
       -0.01681224 -0.13000995 0.065123186 -0.0005386705
000020 1f de 8e 3d 19 9f 2a 3e 20 3e 43 be d3 da a4 3d
       0.0697596 0.16662253 -0.19066668 0.0804955
000030 81 83 4d 3e 38 53 56 3e f1 2c 53 3e 0c 66 46 be
       0.20069696 0.20930183 0.20622613 -0.19374865
000040 9c 39 20 3e 0e 4f 91 bc 47 4e 97 3d 51 f5 8b 3d
       0.15646976 -0.017737892 0.07387977 0.068339
000050 f5 90 58 be 09 b6 e9 3c 4a c3 0b 3e a4 b0 5d 3d
       -0.21149047 0.028529184 0.13648716 0.054123536
000060 d3 5c 0e 3d 90 e1 56 be 41 69 d6 bd 24 c9 c9 bd
       0.034756493 -0.20984483 -0.10469294 -0.09852818
000070 21 0a 57 bd fe 98 36 be aa 0d 00 be 60 95 c3 3d
       -0.052499894 -0.178318 -0.12505212 0.095499754
000080 93 76 0d 3e bb 4d fb bd 9a db f0 3d c0 b8 05 be
       0.13814764 -0.12270685 0.11760636 -0.13058758
000090 52 b0 9e 3c 2d 5a 94 3d 34 49 a5 bb bb 51 28 be
       0.019371185 0.07243762 -0.005044127 -0.16437428
0000a0 3a 18 34 3e 5d 3e 09 bd 6f 77 6d 3e 6e 6a 25 3e
       0.17587367 -0.03350674 0.23190092 0.16153881
0000b0 ab a6 a4 3d 49 68 fa bd 03 16 30 be 4e 47 76 bd
       0.08039602 -0.12226922 -0.17195897 -0.060126595
0000c0 4d 25 8d bd a8 7a 94 3d b2 b4 bf bd 4e 52 d5 bd
       -0.0689188 0.07249957 -0.09360637 -0.10416089
0000d0 24 75 0d 3e bb 8e 58 3e 71 ac 4e be 73 5e 2b 3b
       0.13814217 0.21148197 -0.20182969 0.0026148825
0000e0 79 32 81 be e0 1e 08 3d 65 42 a1 bd 73 48 6d 3d
       -0.2523382 0.03323257 -0.07873992 0.05793042
0000f0 52 b8 92 bd ff 41 de bd 1b a2 1b 3e 26 75 16 3e
       -0.071640626 -0.108524315 0.15198557 0.14693126
000100 0d f7 0c 3e ec 3b 96 3d c5 07 33 3d ee 7d 17 3e
       0.13766117 0.07335648 0.04370858 0.14794132
000110 53 38 81 3e c6 91 fb 3d a5 c7 38 be f8 36 11 be
       0.25238284 0.122836635 -0.18044908 -0.14181125
000120 bd 6d b8 bc 53 91 39 bd b0 de ce bc c7 68 9a 3e
       -0.022513265 -0.045304608 -0.02525267 0.30158064
000130 96 ca 0c 3e 5d 13 4b be 22 09 05 3d 59 c0 22 3e
       0.13749155 -0.19831605 0.032479413 0.15893687
000140 4f 23 a9 3d 5f e8 0d 3e 29 bb c6 bc c4 da e7 3d
       0.08258688 0.13858174 -0.024259167 0.11321023
000150 97 16 b5 bd 62 61 55 be e7 32 6c 3c bd d7 fa 3c
       -0.08842199 -0.2083793 0.014416433 0.03062045
000160 e8 9a f7 bc e6 81 8f bc 23 5e 28 3a 7b 8f e3 bd
       -0.030225232 -0.017517995 0.0006422719 -0.11111351
000170 79 20 db 3d 8a 26 e7 3d 61 d0 64 3d 05 46 1d be
       0.10699553 0.112866476 0.055862788 -0.15358742
000180 16 ab 08 3e 83 c8 45 3e 4a 34 e9 3d cd d1 22 bd
       0.13346514 0.1931477 0.113869265 -0.039750863
000190 8b 35 3f 3d 6a ec ae 3d fa 4d 8f bd d9 34 d2 bb
       0.046681922 0.08541186 -0.06997295 -0.0064149913
0001a0 ae 2c 01 bd 06 80 d6 3d df d4 32 3d a6 58 db ba
       -0.03153675 0.10473637 0.04366004 -0.0016734793
0001b0 62 fd 73 3d 44 5d 0b be 5e f8 31 3c 15 cc 9f 3d
       0.059567817 -0.13609797 0.010862438 0.078025974
0001c0 ff f1 1d be 3b 77 74 bd b4 0f 5b be f7 ba 51 3d
       -0.15424345 -0.05968402 -0.21392709 0.051203694
0001d0 2c c9 74 3c 2f 1a 03 bd 96 80 ff 3d e9 a9 5f 3c
       0.014940541 -0.032007392 0.12475698 0.01365135
0001e0 0f 59 99 bd cf fa 68 be 87 c6 82 be 44 af 9b bd
       -0.0748769 -0.22751926 -0.2554209 -0.07601789
0001f0 12 48 e8 3d 31 cc 70 bd 81 06 87 be 72 36 6d 3d
       0.11341871 -0.058788482 -0.2637215 0.05791325
000200 25 e0 82 3e 9a c8 78 3e e5 60 30 3e fd 87 10 be
       0.25561634 0.24295273 0.17224462 -0.14114375
000210 06 20 ca bc 16 74 2a 3e 2a 5c 15 be 95 85 69 3e
       -0.024673473 0.16645846 -0.14585939 0.22804864
000220 d9 eb a1 bc f3 79 e9 bd c7 32 f9 3d b9 2f 58 be
       -0.019765781 -0.11400213 0.12167888 -0.21111955
000230 84 47 57 be a0 6d a9 3c 4f 47 8e 3d 75 7b f4 bd
       -0.21023375 0.020682156 0.06947195 -0.1193761
000240 e0 c0 5e 3c 18 e2 25 3d 39 fd e4 3d b8 23 9f 3d
       0.01359579 0.040498823 0.11181111 0.07770485
000250 96 86 3c be 75 2e 11 3d 45 49 a1 3d f2 85 01 3e
       -0.18410715 0.035444696 0.07875303 0.12648752
000260 8a 26 0c 3c 0e e1 2f be 81 31 ba bd e6 d0 01 3d
       0.00855411 -0.17175695 -0.09091473 0.03169336
000270 15 46 5f be 6d 28 5e 3d 72 77 6b bc 66 55 87 bc
       -0.21804078 0.05423777 -0.01437174 -0.016520213
000280 f7 e8 67 be 8d d6 a3 bd 16 10 8a bd e4 cd 4a be
       -0.22647463 -0.07999907 -0.067413494 -0.19805104
000290 a5 af e8 3d c1 d1 0d be e9 ef 2f 3c cb 41 e9 3d
       0.113616265 -0.13849546 0.010738351 0.11389502
0002a0 38 d9 45 be 70 24 5a be 8b 13 11 3e d8 20 40 be
       -0.19321144 -0.21302962 0.14167611 -0.18762529
0002b0 5f 83 7f 3d 96 a6 52 be ed 68 8c bd 6b c8 34 be
       0.062381145 -0.2057136 -0.068559505 -0.17654578
0002c0 d9 4c bd bd ec 79 34 be 3d e4 ce 3d 6f 18 8d bc
       -0.09243173 -0.17624635 0.10102127 -0.017223565
0002d0 40 57 ee bd 29 09 98 bd 4b 94 98 bd 1f 29 7f bc
       -0.11637735 -0.07423622 -0.0745016 -0.015573769
0002e0 bd e4 4d 3d fb 75 69 3c 25 f6 36 3e b6 e8 79 bb
       0.05026697 0.01424932 0.17867334 -0.0038133091
0002f0 79 00 48 3e 16 4c 6d 3d f8 4e b2 ba 07 36 c8 3d
       0.1953143 0.05793389 -0.0013603857 0.0977593
000300 b0 45 a4 3d 03 a9 c5 3d c0 64 1a be cd b5 22 be
       0.08021104 0.09651377 -0.15077496 -0.15889664
000310 55 0b 8e bd 11 5e 4a 3e f5 01 b3 3c ac 34 52 bd
       -0.06935755 0.19762446 0.02185152 -0.051319763
