code/models/decoder_8.pth (torch, 143251 bytes, 7 tensors)

fc1.weight f4 [3200, 8]
00000000: eb77 84be 97a5 0b3e 7e38 6ebd 7f4f 993e
00000010: 2364 933e 4960 34bd e027 133d f973 dabd
00000020: 36d9 7dbe a290 3a3e 8ef5 10be 8f8a 74be
00000030: 75d7 993e 1569 b2bb 0e07 91be ff0d 3cbe
00000040: 26eb 893e 4f97 993e f578 fa3d c44d af3e
00000050: 5d5e 29be 8876 983e 7d23 393c ea89 f03d
00000060: 50ca 35be 8792 433e a014 9d3e 43e8 b2bd
00000070: 755b cf3d 60ee 97bd f4ff a13d 5911 c73d
00000080: 692a f7bd 9bbb 7c3d a14d 593e 7f46 92bd
00000090: fca5 9e3e 4b54 333d 857c 04bd 6ec9 8ebd
000000a0: 8fd8 313e 9a47 a43e fd0c 7fbe 00b1 b1be
000000b0: f5bd 88bd 5733 76bc d602 62be 8e98 8b3e
000000c0: 1890 903e 2d62 93be 7864 fb3d 2c39 9bbe
000000d0: 06d4 b73e 0bdf afbe f2fd 103e f80b b83d
000000e0: 7a12 853e 4229 0cbe af83 11be c4aa 9fbe
000000f0: 6f15 813e 5a63 8bbe 1782 a43c 0b83 013e
00000100: 9750 f23d 0b0b 7cbe 721f 14be c603 9139
00000110: f72c 0ebe b2ba c33e a48a 9c3d 135b 86be
00000120: b1e9 8d3e 4925 9d3e 6aa1 6e3e c62b 073d
00000130: 56ac 363e f12b 063e 172a 3d3d e1e5 4e3e
00000140: f3ec 403e afa3 3bbe 8e6a 93bb 4574 a83e
00000150: 5feb b0be 9d57 613e 8514 e93d 8056 1ebe
00000160: 2570 b6b9 a643 53be ecca abbe 6900 2a3d
00000170: d2ab 773e d032 a63c 79e1 503e d38a a93e
00000180: d0a8 8bbe 24dd 423e 5734 bcbe 8688 c5bd
00000190: 4306 e13d 9bf4 bfbe e7cd 69bb 0e5b 283e
000001a0: 93c8 52bd 8007 373c 58fb 4ebc 395a 4a3e
000001b0: 92b5 52be a0b6 53be 721d c33d ad55 56bd
000001c0: c615 083e 7c9d 8bbe 63c8 4c3e 4d22 8abe
000001d0: 9d9e 8abe 38d6 8fbe 2200 6ebe f4f9 ce3d
000001e0: f937 223d 09ed c5bd 75a4 1cbe 45b4 cd3d
000001f0: eef2 85be c2da 02be 7037 5abe d357 afbe
00000200: 9b0e 663e 125a 60be 45ff d5bc 7040 8e3c
00000210: ec6e 123d 95b5 793c b5d7 94bd b1c4 0e3a
00000220: f239 3dbe 2995 99be 5f7d 5abe 3dc2 78be
00000230: 7e0b 273e 507f 5a3e d2fd fc3d 9667 223d
00000240: a4e2 c83c 5494 a4be b371 08be b53e a73e
00000250: 4251 8cbe 5069 a8bd ce5b 8c3b 4a07 3dbe
00000260: f644 1cbe 03a7 a73e 903f aebe 8873 e7bb
00000270: 1b6e 6cbe da70 ba3e 3fe5 b5be ee5e 333d
00000280: 7be1 87bc 7aa1 33bb 0b83 babd 1cac 1cbe
00000290: 6682 d0bb d264 8d3e 5891 783b e5c2 abbd
000002a0: e378 683e 8dd9 47be dff3 8abc b03c 793e
000002b0: 442f 83be 9d0b 10be 62c1 3f3e 4536 763e
000002c0: 2317 bcbe b5e3 4b3e af97 553d defe c3be
000002d0: 1462 b23d 3da8 bfbd 7b8c 9b3e 396e 32be
000002e0: a653 943e 31c1 66be c228 3f3e 4502 873e
000002f0: 7735 9e3e 0c41 56bd 0c9c 983e a4a0 82be
00000300: 9c90 abbe aea9 58be c123 96be 4d33 afbe
00000310: 8492 94be 48aa 90be 61ae 2ebe ac42 a6be
00000320: 569c 263e 58ce 83be 163c 98be 4328 36bd
00000330: 2623 7fbd 6b84 63be c5d1 e63d 4105 b0bd
00000340: 062b 24be 34f7 09be 3610 38be a129 3f3e
00000350: ab94 51be 1042 6d3e ad48 99be f1ef 37be
00000360: d956 74be 2688 523e 8de0 8abe 25cb d13d
00000370: 1551 203e 608f 9a3d 2d6b 30be 5050 ddbd
00000380: 20b6 963e d0bc 53be 7382 72be b7bc adbb
00000390: c2c0 7c3e 0396 a3be 82f3 05be 3109 2f3e
000003a0: c3bb 673e 914b a2be e528 b3bc 8340 823d
000003b0: 1a8d 743e 367a a33e 41ff 12be e5ee 7a3e
000003c0: c9f4 9abd eceb 8cbc 1ef2 3cbe 12f1 bebd
000003d0: 77e8 30be 2b59 8f3e c292 483e e3e6 183d
000003e0: 6184 b6bd 2775 1f3e 43ec 50be 05a5 673e
000003f0: 1e44 9a3e 5ef5 c03d c3f4 4dbe 2e7e e63e
-0.2587274 0.13637386 -0.058159344 0.29943463 0.28787336 -0.044037137 0.0359267 -0.10666651
-0.2478989 0.18219236 -0.14156172 -0.23880981 0.30047193 -0.0054446557 -0.28325695 -0.18364714
0.26937217 0.29998252 0.12230102 0.34239018 -0.16539903 0.29777932 0.011299965 0.11745055
-0.17752957 0.19098864 0.30679798 -0.08735707 0.10124866 -0.07418513 0.07910147 0.09720106
-0.12068636 0.061702352 0.2122102 -0.07142352 0.3098601 0.04378156 -0.032345314 -0.069720134
0.17367767 0.32085878 -0.24907298 -0.34705353 -0.066768564 -0.015026889 -0.22071394 0.27264827
0.28234935 -0.2878584 0.12275022 -0.30317056 0.3590395 -0.34349856 0.14159372 0.08986658
0.2599066 -0.13687614 -0.1421039 -0.3118497 0.25211665 -0.27224237 0.020081563 0.12647645
0.118317775 -0.24613588 -0.1446512 0.00027659367 -0.1388434 0.38228375 0.07643631 -0.2624136
0.27717355 0.3069251 0.23303762 0.03300073 0.17839178 0.131027 0.046182718 0.2020488
0.18840389 -0.18324159 -0.0044987863 0.32901207 -0.34554574 0.22006078 0.11380867 -0.15462685
-0.000347973 -0.20631275 -0.33553255 0.041504297 0.24186638 0.020287901 0.20398511 0.33113727
-0.2727723 0.19029671 -0.36758682 -0.096451804 0.109875225 -0.37491307 -0.0035675706 0.16440985
-0.051460814 0.011171222 -0.012633167 0.1976098 -0.20577076 -0.20675135 0.095271006 -0.0523278
0.13289556 -0.2726859 0.19998316 -0.26979294 -0.27074137 -0.28093123 -0.23242238 0.101062685
0.03960416 -0.096643515 -0.1529711 0.10044149 -0.26161903 -0.12778762 -0.2131021 -0.34246692
0.22466509 -0.21909359 -0.026122699 0.01736471 0.035750315 0.015241046 -0.07267705 0.00054461794
-0.18479136 -0.29996613 -0.21336888 -0.24292846 0.16312978 0.21337628 0.123531 0.03964957
0.024522133 -0.32144415 -0.13324623 0.3266503 -0.27405745 -0.08223212 0.004283405 -0.18459812
-0.15260682 0.32744607 -0.3403287 -0.007063333 -0.23088877 0.36414224 -0.35526463 0.043791704
-0.01658701 -0.002740948 -0.09107026 -0.1530003 -0.006363201 0.27615982 0.0037928429 -0.083867826
0.22702365 -0.19516583 -0.01696199 0.24339557 -0.25621998 -0.1406693 0.18726113 0.2404414
-0.36736402 0.19911082 0.05214661 -0.38280386 0.08710113 -0.09358261 0.30380616 -0.17424859
0.2897007 -0.22534634 0.18667892 0.2636892 0.30900165 -0.052308127 0.29806554 -0.25513184
-0.33508766 -0.21158478 -0.29324153 -0.34218827 -0.29018033 -0.28254914 -0.17058708 -0.32472742
0.16270575 -0.25743365 -0.29733342 -0.04447199 -0.06228938 -0.22218482 0.11270479 -0.08594752
-0.16032037 -0.13473207 -0.17974934 0.18668224 -0.20466869 0.23169732 -0.2993826 -0.17962624
-0.23861255 0.20559749 -0.27124444 0.10243825 0.1565593 0.07546878 -0.17228384 -0.10806334
0.29435825 -0.20677495 -0.23682575 -0.0053020376 0.24682906 -0.31950387 -0.13081172 0.1709335
0.22630219 -0.31698278 -0.021870086 0.06359961 0.23881951 0.31929177 -0.14355184 0.24505194
-0.0756622 -0.01720234 -0.18451735 -0.09323324 -0.17276178 0.27997717 0.19587234 0.037329566
-0.08911968 0.15572034 -0.20402627 0.22621544 0.30130094 0.094218 -0.201129 0.45018142

fc1.bias f4 [3200]
00000000: 425a c53e 2f89 843e 502d 803e bcaf 693e
00000010: cfb1 303e 83e3 c5bd 9bdb a9be 84cd aa3c
00000020: 8721 7dbe a480 56be 1bd5 533e 7935 26be
00000030: 0485 dbbd 75d8 793d c88e 49bc e618 95be
00000040: 6919 303e 6251 89be 6b32 ca3d f8a2 843e
00000050: efe2 493d dc5b 2bbd 23f2 b73e d1ce 96be
00000060: c56f bfbe bed9 c3bd 8ce9 8abe 3af0 c5be
00000070: 4c04 133d d29b b6be c38e d83e 269e 66bd
00000080: 059c a73d 287e 723e 8a22 8ebe ae32 703e
00000090: 8d1f 95be 9702 0ebe 98e7 a0be b8a7 263e
000000a0: 5aa0 f53e e213 eb3e 394b 71be 0725 acbd
000000b0: e1a4 9c3e ecf2 e53e c449 a53e cc1f 653c
000000c0: b347 1b3e 27f7 19be 9838 c0bd 1d2f 793e
000000d0: 9d8b 43bd 4052 873e a28b 8b3e df7c bdbd
000000e0: b1b6 8d3e d0c8 c43d 7d65 be3e 648d b33e
000000f0: 4b74 1c3e 5075 bdbc e5b4 563e 3355 283e
00000100: d5f6 adbd 39ba 4c3e 2aa3 b3bd 81c3 d93d
00000110: 3410 a6be 93eb aebe d4f6 8e3c 6699 753e
00000120: 0704 8ebd 58d4 493e 16ec 813e b811 693e
00000130: 9980 40be 037e 5e3e 2c81 83be 6811 5d3e
00000140: 8a4a 303e f43e b4be 75e5 9c3e 8482 c53e
00000150: 7b14 893e b23c ecbd b6e4 7abe 3e51 1abe
00000160: 0824 8b3c 3125 053e 6558 7bbe e43a 5f3e
00000170: 8a4a 0bbe 0a04 b43e b4f4 cfbd cde9 e43e
00000180: 88af 853e 5461 ba3e 4872 8cbd 7740 a7be
00000190: 86a3 693e 4149 52be 5e4c d43e e82d a0bc
000001a0: de52 fb3d b6a0 29be 717a a03e e137 af3e
000001b0: 4d1e c3bb 5818 8a3d aa59 f8bc e0dc b2bd
000001c0: 8943 34be 4dff c3bc a7ff c3be 36ae 183e
000001d0: 74d9 87be cac2 14bd 74d0 1bbc db0f 4a3d
000001e0: 2037 7fbe 6080 583e 019e a93e b11e 0fbb
000001f0: e709 303e ea9f e2be 390d 82bd 4610 44be
00000200: 854a acbe 60bb 60bd 97d0 533e d0aa e1bd
00000210: 322a d1bd d685 82be c428 9abe 09b8 15be
00000220: 45d0 b9bc 1dd2 07bd b256 8cbe 1130 9cbe
00000230: bf92 c43e 9a6b 753e 3322 0d3e 67a6 cc3d
00000240: d06f ca3e 50b8 d13e 71c0 70be 2a69 c23e
00000250: 3c29 183e 9b1e 923e 00c5 e93d c575 12be
00000260: 29e9 933e 663d 773e 7755 51be bed4 2f3b
00000270: ef0f 653e 453d 643e 4cfe aa3d dbb0 bdbd
00000280: dfa2 393e 83f0 3fbd b9c2 943e 7d86 be3e
00000290: df89 2fbe 5f42 32be d5ad da3d e0bf 723e
000002a0: e70e 70be 6822 adbd afb8 d33d 5507 8bbe
000002b0: 3f15 5ebd 2ee5 66be de34 17bd 40d3 4fbe
000002c0: 520a 9a3e 5d21 acbe 06a8 98be cf56 72be
000002d0: 9f6a 563e 39d1 7c3e f28f 133e d508 a43d
000002e0: 736b 8cbe 8909 d43c 6001 923e 35a3 73bd
000002f0: c10c 4abe 8fc9 8abe 4130 973e 50d9 2a3e
00000300: b583 b43e 19d9 8d3d ecd8 963d b69f 7a3e
00000310: 9648 39be 45a2 11be dbec 8abe 5418 83be
00000320: 4b13 b4bd 32fe 4abe f4ba c83e 1c0e 8c3e
00000330: 905e 143e b879 f43e 50f0 383d 5130 963e
00000340: 4f83 b4be 3361 27be 3b20 973e 9136 b93e
00000350: 975e b53e d636 813c 0057 ab3e 96bd 343e
00000360: ab24 8e3e bf10 823c 60be 8d3e 6095 45be
00000370: 7d44 763e 830e 703e 8bbf b73c 005e a03d
00000380: 93c4 6b3e dc37 143d d50f 373e cd49 0c3e
00000390: c30e 913e c10f 853e 373c 023e 4fe1 223e
000003a0: ee17 2abe 8ccf a1bc 2206 933d 451a ccbd
000003b0: b2ba 7d3e 31b7 e53d eca8 1b3b dc3f 6ebd
000003c0: 60d8 72be df6f 32bd c493 823d dfa5 423e
000003d0: 1222 d2be 1fac 053d 9ea9 85bd 065a 2e3e
000003e0: 9ae7 cdbd 212a 20be 7b8b babe 4a71 d33d
000003f0: b909 08be c663 773d 68f9 ce3d b4f7 693d
0.38545424 0.25885913 0.2503457 0.22820944 0.17255329 -0.09662535 -0.33175358 0.02084995
-0.24719821 -0.2094751 0.20686762 -0.16231336 -0.1071873 0.060997445 -0.012302108 -0.29120559
0.17197193 -0.26819903 0.09872898 0.25905585 0.049288686 -0.04183565 0.35926923 -0.29454663
-0.3738996 -0.095630154 -0.27131307 -0.3865984 0.03589277 -0.35665756 0.4229642 -0.056303166
0.08184055 0.23680937 -0.27760726 0.23456833 -0.29125634 -0.13868175 -0.31426692 0.16274917
0.479739 0.45913607 -0.23563851 -0.084055 0.30594543 0.44911897 0.3228284 0.013984632
0.1516407 -0.15035687 -0.093857944 0.24334379 -0.047740567 0.2642994 0.2725497 -0.09252333
0.27678445 0.096086144 0.37186804 0.3506881 0.15278737 -0.023127228 0.20967443 0.16438751
-0.08494345 0.19992913 -0.087713555 0.106329925 -0.32434237 -0.34164104 0.017451681 0.23984298
-0.06934362 0.19709909 0.25375432 0.22760665 -0.18799056 0.21727757 -0.25684488 0.21588671
0.17215934 -0.3520428 0.30643812 0.38576138 0.26773438 -0.11535014 -0.24501309 -0.15070054
0.016984954 0.13002469 -0.24545439 0.21799809 -0.13602653 0.35159332 -0.10154095 0.44709626
0.26110482 0.3640238 -0.06857735 -0.3266637 0.22816285 -0.20535757 0.41464514 -0.01955314
0.12271665 -0.16565213 0.31343415 0.3422232 -0.00595454 0.067429245 -0.030316193 -0.08733535
-0.17603888 -0.023925448 -0.38280985 0.14910206 -0.2653309 -0.036318578 -0.009510148 0.049331527
-0.24923372 0.21142721 0.3312836 -0.0021838362 0.17191277 -0.4426263 -0.06350178 -0.19146833
-0.33650604 -0.054866195 0.2068504 -0.11018908 -0.10213126 -0.25492734 -0.30109227 -0.14620985
-0.022682318 -0.033159364 -0.27409893 -0.30505422 0.38393208 0.23966828 0.13782577 0.09992676
0.3953843 0.40960932 -0.2351091 0.3797086 0.1485948 0.28538975 0.11414528 -0.14302738
0.28888825 0.24144515 -0.20442759 0.0026829685 0.2236936 0.22288997 0.083492845 -0.09262248
0.18128537 -0.04686023 0.29054812 0.3721198 -0.17142437 -0.17408131 0.10677687 0.23706007
-0.23443185 -0.08453828 0.1033796 -0.2715403 -0.05421948 -0.22548363 -0.036915652 -0.20295429
0.30086 -0.33619204 -0.29815692 -0.23665927 0.2093911 0.24689187 0.1441038 0.08009497
-0.27425727 0.025883453 0.28516674 -0.05948182 -0.19731428 -0.27106902 0.29529002 0.1668446
0.35256734 0.06926174 0.07365593 0.24474987 -0.18094096 -0.14222057 -0.2713383 -0.25604498
-0.08792742 -0.1982353 0.39205134 0.27354515 0.14489198 0.47749114 0.045151055 0.29333737
-0.3525643 -0.16345672 0.29516777 0.36174443 0.3542373 0.015773218 0.33464813 0.17650446
0.2776235 0.015877126 0.27684307 -0.19295263 0.24049564 0.23443036 0.022430202 0.07830429
0.23024206 0.036186084 0.17877133 0.13700028 0.28331575 0.25988582 0.12718283 0.15906261
-0.16610691 -0.019752286 0.07178904 -0.09965948 0.2477825 0.112165816 0.0023751808 -0.05816637
-0.23715353 -0.04356372 0.0637584 0.19008587 -0.4104162 0.03263485 -0.065264925 0.17026529
-0.1005394 -0.15641071 -0.3643454 0.103243425 -0.13284959 0.060397886 0.10106164 0.057120994

conv_transpose1.weight f4 [32, 16, 3, 3]
00000000: beb4 b2bd b520 13bc e1ad babd 4ed5 afbd
00000010: 45f3 b3bd 7a04 f4bc ad0b 25bd 8bb9 81bd
00000020: 06cf 053c 8691 763d 283d 453d d333 4b3d
00000030: e824 d5ba 19fe a63d 77c4 3b3c bfa8 8b3d
00000040: e103 e13d 720c a83a 18ef 973d 7a13 23bc
00000050: 499b 143d 1f8c bfbc ee62 6e3d f3ba 99bc
00000060: 248f 7ebd 3a25 833d c423 423c 6546 0b3d
00000070: 1e51 013d c56b 883d 4e58 b23c 9dda 2cbb
00000080: 0627 80bd b258 2a3c 377d 90bd 16e2 56bd
00000090: c911 e83b ec11 03be e372 2abb 4eef 92bd
000000a0: 4d78 39bd dc05 de3c 4e0f 9a3d 6c0e 0b3d
000000b0: 8203 e93c ed01 32bd bbc4 313d 0f2c 803d
000000c0: 9a35 f43d 42ba 1e3c 4cf2 6bbd 2b8e 003e
000000d0: 6078 513d 9552 a53d e3f6 58bd 0b9f 773d
000000e0: 3277 59bd 0a43 153c 17ef 293d 568d 8abd
000000f0: bb71 853c e3f9 87bd 685c 943d 940d 14bc
00000100: 6a91 103d 06e6 353d 68cd 4abd 27be 2b3d
00000110: 077d 663d e433 773d 4be2 d03d acdf 8ebc
00000120: 35ea abbc d17b 0e3d a572 80bc 5054 073d
00000130: bc28 b1bc 70f4 b13d e956 8e3d ac60 7ebd
00000140: 1001 a5bc 5b06 a63d d808 e83d e5c1 d23b
00000150: 7423 d1bc 925d 0dbd 5776 84bc 8822 053d
00000160: 5193 f63d 1648 60bd 0995 9bbd 138a b23b
00000170: bb99 24bd 997a a1bd 592e aebd 1ff3 e73b
00000180: 061f ebbc 07d7 57bc 9239 b03b d034 563d
00000190: 6507 2f3c 6a6a f13c ca76 34bd 935a ce3d
000001a0: 09b0 c3bc 7fc2 06bd 8dba bf3d 97c9 083d
000001b0: b961 21bd 506c c03d c276 8e3d f790 823c
000001c0: 9638 1e3d 4c99 12bd 6733 083d 7530 9ebd
000001d0: bd4a 66bd 874d d6bc fbf7 b23d 2272 713d
000001e0: 9b70 3abd c045 693d a35f 21bd 4371 3abd
000001f0: dced 99ba a22b 933c fe85 053d b7eb 9cbd
00000200: 3192 fabb 030a 523d 74d8 c5ba 5c09 b3bd
00000210: b936 d0bb 6cbd 473d 0763 723d f157 8dbd
00000220: 5df5 ae3d dc0c 2ebd 9411 c03c 9a48 23bc
00000230: 4e99 813d 03b8 dbbc 25d9 5c3c 540a b6bc
00000240: 4cc4 ab3d c847 95bd f91c 0ebd 6eb0 a3bc
00000250: 50ed b63c c7bb 1fbd 5892 a83c 4905 aabd
00000260: a76d 30bc fdd2 263d d348 813d 2734 d6bb
00000270: 1575 633c a742 5b3d f66b 993c 4f35 3dbd
00000280: a1df 91ba 22dc 53bd bdf4 65bd 1837 88bb
00000290: 129c 243c a526 673d 1df8 34bd 8968 813d
000002a0: cb56 803d 251c ccbc 2e41 d93c fa4a 29bc
000002b0: f31b 053d 675b 4bbd cdf3 933d bb5a fa3c
000002c0: ed67 54bd 62f4 94bd a296 a33c 7fe9 0cbd
000002d0: cbd9 a63c 0206 733d e3c8 903d a797 963d
000002e0: e741 083d 449e 7d3d b543 843d ed91 83bc
000002f0: 5dc9 17bd 982d b3bd 9ceb 3fbd 0265 bbbd
00000300: 4e00 f0bc bef1 11bc 5a86 03bd 3317 32bb
00000310: 7015 e3bc 10f0 82bd e9d8 36bc 294c d03c
00000320: 32ce 0b3d e966 7c3d 47a9 433d 7d4d b73b
00000330: 74d5 8b3c 0e8e 663c 0ff3 153c 5da7 233d
00000340: 9fdf 82bd 1d31 483d c5ae 4f3d f5d6 e5bc
00000350: 5240 c83a a877 45bd 99d4 793d dd9d 213d
00000360: e149 843d f1ea 16ba f7a6 b73d 2c67 86bd
00000370: 0861 f2bc 146e 73bc da3a 763d 1e5f 76bd
00000380: 4879 bfbb 1a97 1b3c c8b1 803d 579d 143d
00000390: b0c6 52bd 37bc c93d 8e75 9eba 4b13 c4bd
000003a0: a6da 8d3d fc16 e33b dcde 483d 23d1 5e3c
000003b0: 7cbf 8fbb e36a fcbc 434f e2bc 4288 b8bd
000003c0: b4ea da3a 8e6c 6d3d 5e88 b2bb e0e0 753c
000003d0: a566 3e3d 97be 68bd dfd1 0ebc 60e8 873d
000003e0: 722b 8fba 510c 33bd 2510 48bd 09c6 8c3d
000003f0: a8f7 053c 31b4 9f3d f492 273d 9a38 be3c
-0.0872588 -0.008979966 -0.09115196 -0.085856065 -0.08786634 -0.02978729 -0.040294338 -0.06334218
0.008167034 0.060197376 0.048154026 0.04960997 -0.0016261609 0.08153934 0.011460415 0.06819295
0.10987068 0.0012821092 0.074186504 -0.009953374 0.036280904 -0.023382245 0.058199815 -0.018765902
-0.06214823 0.06403585 0.0118493475 0.03400268 0.0315715 0.066611804 0.021770623 -0.002637542
-0.06257443 0.010397123 -0.07055133 -0.052461706 0.0070821983 -0.12799805 -0.002600842 -0.0717455
-0.045280743 0.027102403 0.075224504 0.0339493 0.028444055 -0.043458868 0.043400507 0.062584035
0.11924286 0.009687962 -0.05760412 0.12554233 0.05114019 0.08072392 -0.052969825 0.06045441
-0.05309219 0.009110222 0.04148778 -0.06765239 0.016289582 -0.06639459 0.072441876 -0.00903644
0.035294928 0.04440882 -0.049512297 0.04192939 0.05627158 0.06035222 0.10199412 -0.01744064
-0.020985702 0.03478605 -0.015679667 0.03303939 -0.021625869 0.08689201 0.069501705 -0.062103912
-0.020142108 0.08106681 0.11329812 0.0064318054 -0.0255296 -0.034513064 -0.01616971 0.032503635
0.12039817 -0.054756247 -0.075967856 0.0054485886 -0.04018567 -0.07884712 -0.08504934 0.007078543
-0.028701317 -0.013173825 0.0053779567 0.05229646 0.010682915 0.029469687 -0.0440586 0.100758694
-0.023887651 -0.03290033 0.093617536 0.033395376 -0.039399836 0.09395659 0.06956245 0.015938265
0.038628183 -0.035790727 0.033252146 -0.07724086 -0.05622362 -0.026160015 0.08738705 0.058946736
-0.045517545 0.056951284 -0.039397847 -0.04551817 -0.0011743861 0.017965142 0.032598488 -0.076621465
-0.007646822 0.05127908 -0.0015094415 -0.087420195 -0.0063541797 0.04876463 0.05917647 -0.06901539
0.08542893 -0.042492732 0.023445882 -0.00996604 0.06328069 -0.026821142 0.013479506 -0.022221722
0.0838705 -0.07289082 -0.0346956 -0.01998159 0.022329956 -0.038997438 0.020577595 -0.08301789
-0.010768331 0.040728558 0.06312718 -0.0065369788 0.013882895 0.05353036 0.018728238 -0.046193417
-0.0011129269 -0.051723607 -0.056141604 -0.0041569583 0.010046976 0.05643334 -0.04418193 0.063187666
0.062665544 -0.024915764 0.026520338 -0.010332817 0.032497358 -0.049647715 0.07224236 0.030560842
-0.051856924 -0.07273175 0.019969288 -0.034402367 0.020367524 0.0593319 0.07069566 0.07353144
0.033265974 0.061918512 0.064582266 -0.016060794 -0.03705727 -0.08748931 -0.046855554 -0.09150125
-0.02929702 -0.0089077335 -0.03211055 -0.0027174472 -0.027720183 -0.063934445 -0.011160114 0.025426941
0.03413219 0.06162158 0.047768857 0.005593954 0.017069556 0.014071954 0.009152188 0.039954532
-0.063903086 0.048874963 0.050703783 -0.028056601 0.0015277958 -0.048209816 0.060993765 0.03945719
0.06459404 -0.0005757055 0.08967393 -0.06562647 -0.029587284 -0.014857788 0.06011472 -0.060149305
-0.0058433153 0.009496475 0.06283909 0.036282863 -0.051459014 0.09850352 -0.0012089477 -0.09573992
0.069264695 0.00693023 0.04904066 0.013599667 -0.0043868404 -0.030812686 -0.027625686 -0.09010364
0.0016702027 0.057964854 -0.005448385 0.015007228 0.04648461 -0.056822386 -0.008717029 0.06636119
-0.0010922982 -0.043712918 -0.04884352 0.0687371 0.008176722 0.07798041 0.04091163 0.02322035

conv_transpose1.bias f4 [16]
00000000: bf82 94bd 4c68 053e 949c 8d3d ccb3 31be
00000010: 98f9 11be 8b2d 53bd 8404 403e 11cf 48bd
00000020: 4dfb 4cbe 1e4b 47bd 9371 073d 92ae 603e
00000030: 2c8c 103e 192a c53d b6c4 dd3d eaa8 213c
-0.072515 0.13028067 0.069146305 -0.17353743 -0.14255369 -0.051557105 0.18751723 -0.0490256
-0.20017739 -0.04865562 0.033067297 0.21941593 0.14115971 0.0962717 0.10828535 0.009866932

conv_transpose2.weight f4 [16, 8, 3, 3]
00000000: 2d66 ddbd c9b0 debc b85a 4ebd e0a7 873d
00000010: a97d f63d 100c 12bd 2aed 783d 8a55 f0bd
00000020: 6df2 75bd 0784 0c3d 06eb ad3d 9ec5 e03d
00000030: 706a c5bd 7d0c ebbc 9d3c 023d ed59 10be
00000040: ae68 efbd b9d7 a43d 29c0 03bd 503d 92bc
00000050: 9eab d4bd 8021 343d b524 ba3d 2b3f e1bb
00000060: 0334 973d 4650 d8bd dee6 d2bd 3d8c ff3d
00000070: cca8 bd3b f09b 9e3d 20cb 8e3d 48ed c23d
00000080: 6744 abbd a640 113e 85e2 ae3d 4e55 a6bc
00000090: 16e1 e2bd 342c 1ebe b2b3 10be aa65 17be
000000a0: 465a 853c cca1 a1bd 7dd2 6b3b cc4d 5cbd
000000b0: 053c 4bbb c083 833d 1159 d63d 5a43 da3d
000000c0: 21ab 58bd e07e 16bd 739e 3f3d 5cf8 093e
000000d0: 54d3 bb3d 5849 f13a baf7 efbd 9c5f 07be
000000e0: e095 7b3d b414 a5bd 43d4 1ebd da85 6dbc
000000f0: 5b9d f6bb f300 6a3d 3436 83bd 308a d73b
00000100: b46e 00be 133c d13d e5be 84bd c105 b8bd
00000110: 788d e9bd 851e 7ebc 63fd 843d 2a9f adbd
00000120: 68f8 363e a70d fc3d 9a11 bebc 7412 4b3c
00000130: b1fb 2d3e eacd fb3c 35c7 b93d 6e86 79bd
00000140: 8c29 b93c 22a9 75bd 033b e5bc 2a61 b2bd
00000150: bf19 5bbd b83f e83c 252d 07bd 239b 883d
00000160: 7a5e ce3d 233d 61bd a75d 7bbd 352b 843d
00000170: 6c70 813c e279 febc 1825 7d3d 8479 093c
00000180: 800c adbd bebd d3bd ee4b 9bbc 28fb 973d
00000190: c879 f23d 896e ef3d 48a0 50bd 0647 673d
000001a0: 1fab da3d 8553 e5bd 6a16 423d fd09 9fbd
000001b0: 3777 98bb b5af b63d 75aa 00bd ee73 32ba
000001c0: ef6e 81bd be5b 063e 6de5 95bd 281c 7f3b
000001d0: 5d44 ec3d 17a1 053e 72d9 9abd c515 63bd
000001e0: ec59 b7bd 7c94 acbc 1423 ce3d 88c5 bb3c
000001f0: 9254 c2bc dec3 c3bd 3779 063e 4285 efbd
00000200: 6eca ad3c 1b74 a73d b146 093e b7f4 a7bd
00000210: 96c9 c93d 24b2 8a3d 391c 953d 9723 e83d
00000220: 92e9 703c 1264 053e f582 1fbb aa7f bb3d
00000230: 9e7b e23c 46c6 99bd bb40 963d c85b 17bc
00000240: 78d1 983d 1f52 b6bc d24f af3c 4f41 dbba
00000250: de7f b6bd 7a2f 50bd 68b8 89bd b31f a83d
00000260: a816 1c3c ab98 95bd 85c1 4d3c 83e1 523d
00000270: c3ad c63d 31b7 663d 2b3e 07bd b528 d13d
00000280: 9391 9d3d 1062 0d3d 1f68 b43d 87ba a5bd
00000290: 5140 f43c 2b7c ffbd cf59 dbbd faf6 3ebd
000002a0: 406d 73bd 3f52 49bd 3c3f e5bc 1bf4 cdbd
000002b0: 6db0 1a3c f488 e1bd 769a eebd 6b83 433d
000002c0: 7fc8 093d d58e 10be 80ca cb3d 67e9 00be
000002d0: c0fe 863d 0a15 a53c 6aea c43c f8a1 beba
000002e0: 5b30 513d 25b8 ff3d 500d bd3d f7bc b63c
000002f0: 8bbd b1bd 39e5 b63d fd59 dfbd 6dbd 79bd
00000300: 05c8 f7bc cf25 c7bd cd90 703d 0af6 8f39
00000310: 30c4 9dbd 3671 cabd 8e71 f4bc d6df e03d
00000320: e19a df3d 8e86 9bbd 98c6 a9bd af4d a0bd
00000330: 311a 213d 50bb 6cbd 5c03 bfbd 69d8 cebd
00000340: e9c9 e3bd e40a aabc c5f6 793d d93a babd
00000350: 28f8 a83d 5b19 8aba 0f89 a8bd 53f9 003e
00000360: 81b7 e4bd 66df a8bd 54a6 debd 4558 f3ba
00000370: e850 c3bd 6c52 03be 425b a8bd ff0b c03d
00000380: 3765 993d 32c1 2cbd 1454 a43d 3b43 10bd
00000390: c9e2 a13d 06d5 223e f449 69bc f5a3 5a3b
000003a0: 354e fa3d 11e2 6b3c e6f5 e8bc 33bd edbd
000003b0: 61d8 71bc 4ea0 bdbd fff7 153d 6a7d e6bc
000003c0: f3ed 09bc daf7 813d a86e 193e cc26 9ebd
000003d0: 43a3 f5bb 9070 f43b 28c4 fa3c fd00 08be
000003e0: 0762 31bd 9b54 563d a804 c0bd 840c 7c3d
000003f0: d0cb f9bd 25e1 e7bd da47 03bd 4fb4 5ebd
-0.10810504 -0.027183907 -0.050379485 0.066238165 0.120356865 -0.035656035 0.060773052 -0.11735065
-0.06004565 0.0343056 0.08492093 0.109751925 -0.09639442 -0.028692478 0.031796087 -0.14096804
-0.11689888 0.08048958 -0.03216568 -0.017851502 -0.10384296 0.04397726 0.090890326 -0.0068739853
0.07382967 -0.10562186 -0.10297941 0.1247792 0.0057879444 0.077445865 0.06972337 0.09517914
-0.08362656 0.14184818 0.08539299 -0.020304348 -0.11078088 -0.1544655 -0.14131048 -0.14784876
0.016278397 -0.078921884 0.0035983615 -0.05378513 -0.0031011116 0.06421614 0.10466207 0.106573775
-0.052897576 -0.03674209 0.04678197 0.13473648 0.09171167 0.0018408699 -0.11717172 -0.13220066
0.06142223 -0.080605894 -0.038776647 -0.014497245 -0.0075260825 0.05712981 -0.06406823 0.0065777525
-0.1254223 0.102165364 -0.06481723 -0.089854725 -0.11403936 -0.015510206 0.06493642 -0.08477624
0.17868197 0.123072915 -0.023201752 0.012394536 0.16990544 0.030737836 0.09071199 -0.060919218
0.022602819 -0.05997575 -0.02798224 -0.08709939 -0.05349135 0.028350696 -0.033002038 0.06670215
0.10076614 -0.054989945 -0.06136861 0.064535536 0.015800677 -0.031063978 0.061802953 0.008390788
-0.0844965 -0.10338925 -0.018957105 0.07420951 0.11839634 0.11691005 -0.050934106 0.056464218
0.1067717 -0.11197571 0.047384657 -0.07765577 -0.0046528834 0.08920232 -0.03141256 -0.0006807436
-0.06319987 0.13120934 -0.0731915 0.0038926695 0.11536477 0.13049732 -0.07561006 -0.055440683
-0.08952698 -0.021066897 0.10065284 0.022921339 -0.023721967 -0.09558843 0.13132177 -0.11695339
0.02121469 0.08176442 0.13405873 -0.082009725 0.098529026 0.06772259 0.07280774 0.11334913
0.014704125 0.13026455 -0.002433953 0.09155209 0.027646836 -0.07508521 0.07336565 -0.009238191
0.07461828 -0.022255955 0.021400366 -0.0016727838 -0.089111075 -0.050826527 -0.06724626 0.08209171
0.009526886 -0.0730451 0.012558346 0.051484596 0.09701111 0.05632705 -0.033018272 0.102128424
0.07693782 0.034517348 0.08808922 -0.08092218 0.029815825 -0.12474855 -0.10710489 -0.046622254
-0.05943036 -0.0491507 -0.027984254 -0.10056325 0.009441477 -0.1101245 -0.11650555 0.04773275
0.033638474 -0.14116986 0.09950733 -0.12589036 0.065915585 0.020151634 0.024037559 -0.001454412
0.051071506 0.12486295 0.09231055 0.022306902 -0.086787306 0.089304395 -0.10905836 -0.060971666
-0.030246744 -0.09724008 0.058731843 0.000274584 -0.077034354 -0.098848745 -0.029839303 0.10980193
0.10918213 -0.07594024 -0.08289832 -0.07827317 0.03933162 -0.057795823 -0.093268126 -0.10099871
-0.11122496 -0.020757146 0.061026353 -0.090932555 0.08250457 -0.0010536121 -0.08229267 0.1259511
-0.11167813 -0.08245735 -0.10871568 -0.0018565735 -0.09536916 -0.1282441 -0.08220531 0.09377288
0.07490008 -0.042176433 0.08023849 -0.035220366 0.07904584 0.15901574 -0.014238823 0.0033361886
0.12221948 0.01439716 -0.028437566 -0.116083525 -0.014761061 -0.09259091 0.03661346 -0.028135974
-0.008418548 0.06346102 0.14983618 -0.07722244 -0.007496269 0.0074597076 0.030611113 -0.13281627
-0.043306377 0.05232678 -0.09375888 0.061535373 -0.12197077 -0.1132224 -0.032050945 -0.054371174

conv_transpose2.bias f4 [8]
00000000: 4006 9d3c 1af2 1dbe 8745 54be e9ba ffbc
00000010: 945f 273e c483 51bd 157f 403e 6a37 4c3e
0.01916802 -0.15424386 -0.20729648 -0.031217055 0.16345054 -0.051151052 0.18798478 0.19943014

conv_transpose3.weight f4 [8, 1, 5, 5]
00000000: 5b43 3fbe 6190 5d3d 9322 7abc 8a2e ba3d
00000010: 6c0e 9b3d 3c11 38bd 40d5 0ebe b18e 773c
00000020: f421 ed3d f444 4d3e 62c3 073e 068f 5ebe
00000030: 819c a33d 996d 1cbe de2d fcbd 2fb8 09bd
00000040: 5c43 83bb afd4 4fbe 84ff ad3d 553a 3f3d
00000050: 9e6a e0bd ab2b febc 12e4 9aba 2d44 2dbe
00000060: da6b e4bc 9fe1 b63c 30f1 cdbd 41c8 283e
00000070: 6812 09be 5c3f 23be 59dc 553e 0d53 6cbc
00000080: d5db 10bd a1ab 44be 3daf 5abd 8233 ea3d
00000090: ef82 cfbd c1c9 be3c 44ac 1dbd fe5f cabd
000000a0: 180d f73d 1323 0a3e e38b 3f3e 5b65 71bd
000000b0: 415a 693d 0bfb c5bd a555 5b3e ef55 57bd
000000c0: 220e 58bd ed32 b4bb 4541 063c 9004 073e
000000d0: 5639 04be d7e5 71bd 68f0 2d3d 1153 cbbd
000000e0: f72d 7039 e3fc 22be 89f6 d0bc 7650 f63d
000000f0: 7e15 913d c970 9abd 3eeb 993d 0c18 b43c
00000100: 7497 553e b1d4 583c 8f78 8e3d 8f0a bf3d
00000110: c63e 043e 3f19 fa3d 21c3 743d d84e af3d
00000120: 33a6 e83d 4666 8ebc 1cfb c33d 642f 253e
00000130: a8f4 17bd 6655 733e e89d 333e df0b a1bd
00000140: 7af2 313e 7094 533d ecf5 433e a6ee 6b3e
00000150: aa04 bf3d 9ffa fa3d 0a5a 70bc de3e 4d3e
00000160: 755a 8d3d b150 403d 391a 32bd e957 23be
00000170: be0a 093d e568 3abe 4067 133d fdd6 b0bd
00000180: ebb7 3ebd bc9f 76be 9040 29be dc26 3d3d
00000190: 721b 453d 49d8 adbd d8d6 14be f922 d93d
000001a0: 8787 ceba f148 18be 1a17 23be e7f2 7a3d
000001b0: 86c9 3b3e a4ad fa3d 87da 27be 863d 6dbe
000001c0: 088d 193e 4621 46bd 9985 22be 28eb 253d
000001d0: 9057 32be 370f 97bd bad0 033e 5057 6bbc
000001e0: a441 4f3d 17f6 6cbe 6c56 f03c ecfa 58be
000001f0: c139 8f3c 7993 193e b965 c4bd a163 083e
00000200: e4d7 413e 081f ffbd 2353 713e 054f 483e
00000210: 51ae 623e 0e44 a73a 49e0 f13b 5709 523d
00000220: 36ee 9dbd b32a 023e c585 e43c d56f b73d
00000230: b7d1 5abd 8684 4bbe 31f0 4bbe d56e 00be
00000240: 6252 1abe 83d9 1c3e 73a8 34bd 8e48 83bd
00000250: 962a 74bd 0148 94bd d12d 7abd 4d52 17be
00000260: 8fad c53a caaf 193e 7d5e 253e e946 163e
00000270: 6947 50be 4061 d23d e61c 4ebe c841 f3bd
00000280: f417 96bd 67a3 c4bd 43fe 1c3d d601 523b
00000290: e1e6 0b3e 29c9 db3d 32c0 08bc 9818 3ebd
000002a0: a959 233e 0088 18be e370 26be 0479 9dbd
000002b0: 0f14 afbd 4a02 adbd b61d 23bd b1c7 40bd
000002c0: 1071 b83d fef9 e1bd c52c 32be 562e 7cbe
000002d0: c148 713d 782c 143e a2c9 52be 5344 e93d
000002e0: 52b4 27be 22d2 a63d 9426 0fbd 93ff 41be
000002f0: 6690 ea3d b15b 293e 2d6c 9c3a 588b 89bd
00000300: cb72 293c 0682 01bd 7cec 93bd c028 69bd
00000310: a0a7 113e 0431 28be c013 33be 0ea7 79bd
-0.18678038 0.05409277 -0.015267032 0.09090908 0.0757111 -0.04493831 -0.13948536 0.015109704
0.11578742 0.20045835 0.13258126 -0.21734247 0.07988835 -0.15276183 -0.12313436 -0.033622917
-0.0040058326 -0.20295976 0.08496001 0.04668649 -0.109578356 -0.031026682 -0.0011817238 -0.16920538
-0.027883459 0.022324381 -0.100557685 0.16482641 -0.13385928 -0.15942138 0.20884837 -0.014424098
-0.0353659 -0.19206096 -0.053389776 0.114356056 -0.101323955 0.023289563 -0.038494363 -0.0988159
0.12063044 0.13489942 0.18705706 -0.05893455 0.05697084 -0.09667023 0.2141939 -0.052572187
-0.052747853 -0.005499235 0.008194272 0.13185334 -0.12912497 -0.059057083 0.042465597 -0.09927953
0.00022905307 -0.15916781 -0.025508182 0.120270655 0.070841774 -0.07541043 0.07515572 0.021984123
0.20858556 0.013234303 0.069565885 0.09328186 0.12914571 0.122118466 0.059756402 0.0855996
0.11359825 -0.017382752 0.0956938 0.1613136 -0.037098557 0.23763046 0.17540705 -0.07863592
0.17377654 0.051655233 0.1913678 0.23040256 0.093270615 0.122548334 -0.0146699045 0.20043513
0.06902019 0.046951953 -0.04348204 -0.15951504 0.03345751 -0.18204077 0.03598714 -0.08634756
-0.046562117 -0.24084371 -0.16528535 0.046179637 0.048121877 -0.08488519 -0.14535081 0.10602374
-0.0015756943 -0.14871575 -0.15926781 0.061266806 0.18338594 0.122401506 -0.16391955 -0.23168
0.14995205 -0.048371576 -0.15871276 0.040507466 -0.17416215 -0.07375949 0.12872592 -0.014364079
0.05059971 -0.23140751 0.029338084 -0.21189469 0.017483594 0.14997663 -0.095897146 0.13319255
0.18930012 -0.124570906 0.2356687 0.19561394 0.22136809 0.0012761371 0.007381473 0.05127844
-0.07711451 0.12711601 0.027895818 0.08956877 -0.053422656 -0.19874772 -0.19915845 -0.12542279
-0.15070489 0.15317349 -0.04410596 -0.06410323 -0.059610926 -0.07240296 -0.06107885 -0.14777489
0.0015081632 0.15008464 0.16149326 0.14675488 -0.20339741 0.10272455 -0.20128211 -0.11877781
-0.073287874 -0.09601479 0.03832842 0.0032044551 0.13662292 0.10731728 -0.008346604 -0.046410173
0.15952171 -0.1489563 -0.16254 -0.076890975 -0.08548748 -0.08447702 -0.039823256 -0.04706544
0.0900594 -0.1103401 -0.1739989 -0.24627051 0.058907274 0.14470088 -0.2058473 0.11389985
-0.1637738 0.081455484 -0.0349489 -0.1894515 0.11453323 0.16538884 0.0011934094 -0.06716031
0.01034231 -0.03161814 -0.0722284 -0.056923628 0.142241 -0.16424948 -0.17488003 -0.06095033
