code/models/decoder_32.pth (torch, 450466 bytes, 7 tensors)

fc1.weight f4 [3200, 32]
000000 31 ad 28 3e 09 11 cf 3d 8c 0d 85 bd 42 38 c2 3d
       0.16472317 0.10110671 -0.064967245 0.094833866
000010 5d b8 7a 3d 63 87 a2 bd 85 5b 97 3c d2 5d ad bd
       0.06121098 -0.07935979 0.018476257 -0.084651604
000020 5a 8a 02 3e 92 5e d5 bd 95 02 56 bd af 1c aa 3c
       0.1274809 -0.104184285 -0.052248556 0.02076563
000030 44 6b ef bd 9b ba 43 3e 1d 7e 35 3d b6 f8 3c 3e
       -0.11690381 0.19114153 0.044309724 0.1845425
000040 3d 98 d1 bc 8f 6b 61 be c5 1a c8 3d 8d 3d 3b be
       -0.025585288 -0.22013687 0.09770731 -0.18285199
000050 b6 83 0d bd 79 07 0f 3e 41 c3 c3 bd fa ba 90 3c
       -0.034549437 0.13967694 -0.09558726 0.017667282
000060 03 de 6e bc ea 1d e0 3a cb f1 f0 bd 54 79 3b 3e
       -0.014579299 0.0017098759 -0.11764868 0.18308002
000070 c4 ae c3 3c 9b bc 47 bd 24 6c ff bd 65 c9 7c 3d
       0.023887046 -0.048763853 -0.12471798 0.061715502
000080 69 dd 6f 3d ce 15 24 be 8e 35 0d be d1 8b ad 3d
       0.058560763 -0.16023943 -0.1378996 0.084739335
000090 e0 c2 35 3e 93 ac b2 bd e1 73 25 3d 22 82 61 bc
       0.1775012 -0.08724322 0.040393714 -0.013763936
0000a0 85 84 11 3e e2 16 8c 3d de 22 d6 bd 06 43 b6 bc
       0.14210708 0.06840302 -0.10455869 -0.022248756
0000b0 75 c2 bc bd ca 8e 01 3e c0 7d 47 be f3 94 1d 3e
       -0.09216777 0.12652126 -0.19481564 0.15388851
0000c0 5f ab 09 bd 5f 72 a5 bd 87 b9 cb bd 0d d4 cb 3d
       -0.033610698 -0.08078455 -0.09947496 0.09952555
0000d0 1b 6f 29 3b 43 f7 fa 3d ba 6e 68 bd 3d 34 25 be
       0.0025853578 0.12254193 -0.056746222 -0.16133209
0000e0 35 4b 97 3c 1b e8 52 3d 13 c0 0a be a9 95 5e bd
       0.018468479 0.051490884 -0.13549833 -0.054341946
0000f0 3c 9f 08 3e ab cc 1d 3b a8 7c 91 3d ee 57 ed 3d
       0.13341993 0.002407829 0.071038544 0.11589037
000100 42 31 dc bd 49 e0 0a 3d 97 01 9c 3d 0c 5b 34 bd
       -0.10751583 0.0339053 0.07617491 -0.04403214
000110 71 01 aa 3d 0a 20 8c bd a0 75 9c 3d 7a 78 c2 bd
       0.08301056 -0.068420485 0.07639623 -0.09495635
000120 4c 34 20 3e 63 87 1d be 14 23 1f 3c e9 24 47 bd
       0.1564495 -0.15383677 0.009712953 -0.048619185
000130 a2 23 46 bd d9 a3 61 3c 68 c5 81 3d d9 df 46 bd
       -0.048373826 0.0137719745 0.063364804 -0.04855332
000140 60 cb 0d be 20 5e 00 3e f6 d4 a8 3d 4e 61 10 be
       -0.13847113 0.12535906 0.08243744 -0.14099619
000150 a4 78 7c 3d ad 5b c0 3d 76 08 89 bd 29 ee 54 bd
       0.06163849 0.09392486 -0.06691067 -0.05198494
000160 ea b3 3f be 8e a8 0f be 5c 1b 11 3e 32 0d 92 bd
       -0.18720976 -0.14029142 0.14170593 -0.07131423
000170 32 45 40 be 8c 93 2d be bc 62 17 bb 48 1c cf 3b
       -0.18776396 -0.16950816 -0.0023099622 0.00632051
000180 64 ea 00 3d 86 63 cc 3d 94 31 19 3e 95 60 df bd
       0.031473532 0.0997992 0.14960319 -0.109070934
000190 ab a7 f8 3d cc 62 87 bc 19 e2 1b 3e be 27 34 be
       0.12141355 -0.016526602 0.15222968 -0.17593285
0001a0 60 1b ca 3d f1 38 eb 3d 3a 65 12 be 4d 70 a4 3d
       0.098685026 0.1148547 -0.14296427 0.08029232
0001b0 ef 27 2c be d6 43 29 be 23 ca be bd bc d8 d5 bc
       -0.16812108 -0.16529784 -0.09315898 -0.026104324
0001c0 8a ee 2a 3e 50 95 3e 3e 25 28 9d 3d 12 d1 19 3e
       0.16692558 0.18611646 0.076736726 0.1502116
0001d0 56 7c df bc e7 62 20 3e 3a ba 48 3d 7a 4d ce bc
       -0.027280968 0.15662728 0.049005724 -0.025183428
0001e0 98 e4 67 3d 78 f3 2b 3e 77 2d 18 be c0 cb bd bc
       0.05661449 0.16792095 -0.14861093 -0.023168445
0001f0 5a bb 18 be 98 69 05 3e f4 bb fe 3d a8 c4 cc bd
       -0.14915219 0.13028562 0.12438193 -0.09998447
000200 cc 0d 32 3e b7 2b 1d be ac ce 20 be e1 9d c4 bc
       0.17388076 -0.15348707 -0.15703839 -0.024001064
000210 72 45 d7 3d ff 0c d7 3d 65 65 0c 3e 80 f5 0c 3d
       0.105112925 0.10500526 0.13710554 0.034413815
000220 ca f6 e7 3d 86 ec d4 bd f3 54 c0 3d c2 a7 29 bd
       0.11326368 -0.10396676 0.09391203 -0.041419752
000230 fa e0 23 bd 22 74 31 bd ab 97 fc 3d d3 cb 59 bd
       -0.040009476 -0.043323644 0.12333616 -0.053172898
000240 3d 30 2f bd 35 23 26 bc 75 49 12 be ce a3 5c bd
       -0.042770613 -0.01014023 -0.14285834 -0.053867154
000250 37 16 f6 3d 0c c7 06 3e 08 e5 86 bd 35 fe 2c 3d
       0.12015956 0.13161868 -0.06586653 0.04223462
000260 61 e1 5e 3d d4 76 5e 3c cc f6 e7 3c fd 6e ba 3d
       0.054414157 0.0135781355 0.028315924 0.091032006
000270 96 b8 99 3d 6c e1 7b bd fb e4 95 bd 20 48 af bd
       0.0750591 -0.061494276 -0.07319065 -0.085586786
000280 b1 45 a5 3d 01 c7 5a 3c bd fe 47 3c 9c b6 05 bd
       0.08069933 0.01335311 0.01220673 -0.032644853
000290 fc 94 11 bd 1d b8 12 be 5b 80 6e bd 6b 3d 17 be
       -0.035542473 -0.14328046 -0.058227878 -0.14769523
0002a0 04 2e 33 3e 6b f1 7f 3d c2 60 0a be 4c 09 a0 3c
       0.17498022 0.062486093 -0.13513473 0.019535683
0002b0 25 a7 b6 bd c5 eb 33 3d 85 b7 c0 3d 86 42 6f bc
       -0.08918599 0.04392602 0.094100036 -0.014603263
0002c0 35 3a 10 be fe 5d bc 3c e2 41 29 bd 30 d7 12 3e
       -0.14084704 0.022994038 -0.041322596 0.143399
0002d0 b8 b2 09 3e 3e 35 51 bc 51 92 20 3d 13 d9 20 be
       0.13447082 -0.012769042 0.03920204 -0.15707807
0002e0 05 c1 8b bd e1 47 f5 3c ae 6e ac 3c 5e a5 02 be
       -0.06823925 0.029941501 0.02104887 -0.12758395
0002f0 cb ac 51 3d 74 06 81 3d 43 6d 81 bd 32 48 09 be
       0.05119018 0.06300059 -0.06319668 -0.13406447
000300 59 f8 ee bd 86 c8 45 3e fa 1e 0b be dd 70 db bd
       -0.11668462 0.19314775 -0.13586035 -0.10714886
000310 a5 4c 90 3d d9 b8 6d bd 93 58 a1 3c f9 d4 ba 3d
       0.07045869 -0.058037613 0.019695556 0.091226526
000320 02 75 6a 3d 14 be 90 3d 68 48 41 bc e6 1f af 3d
       0.057240494 0.070675045 -0.011797048 0.08551006
000330 e8 6e 94 3c 07 d2 be bd c0 7a c9 3d 40 c7 c1 bd
       0.01811929 -0.09317403 0.09837866 -0.09461832
000340 dc f6 08 3e 2c 71 66 bd 16 73 27 3e ca ec 53 3e
       0.1337542 -0.056260273 0.16352496 0.20695797
000350 4e 4d a9 3b 6d 93 47 bd 8a 97 60 3d c9 48 ca bd
       0.005166686 -0.04872458 0.05483202 -0.09877164
000360 dc 9a 30 3e 50 b4 ed 3d 9e 9e e1 3d 69 7e 15 3e
       0.17246574 0.116066575 0.11016582 0.14599003
000370 62 4d 09 be a7 8d 43 bd f7 3d 14 3e 2f be 2f bd
       -0.13408425 -0.047742512 0.14476763 -0.042905983
000380 c6 e3 e6 3d 87 23 00 3e 90 95 c4 3d 48 e5 11 3d
       0.11273913 0.12513553 0.09598839 0.03561905
000390 63 c1 0e 3e 3b 86 4e be b3 fc 98 3d 10 24 d3 3d
       0.13940959 -0.20168392 0.074700736 0.10309613
0003a0 47 e4 16 be 37 21 28 3e 5a 75 17 3e 49 81 7b 3e
       -0.14735518 0.1641892 0.1479086 0.24561037
0003b0 f3 7e 37 3d 30 da f8 3d 85 4a d4 bc 7e 4b 06 3e
       0.044798803 0.12150991 -0.02591444 0.13114735
0003c0 a7 04 2e bd 07 0e 0b 3e d3 b6 3a 3e 2d 29 13 be
       -0.042484906 0.1357957 0.18233804 -0.14371176
0003d0 c1 09 98 bd 95 dc 9c bd 87 2d ed bd a3 a9 da bd
       -0.074237354 -0.0765926 -0.11580949 -0.10676887
0003e0 ef 98 be bd cc e5 e0 3d e2 0c 2a bc 43 73 35 3e
       -0.093065135 0.1098133 -0.010379048 0.1771975
0003f0 88 79 9b bd 29 aa 2d 3d c6 b4 9e 3d 85 5c a6 bb
       -0.075915396 0.042398605 0.077493235 -0.005076947

fc1.bias f4 [3200]
000000 92 69 7d bd bb 6b 0f 3e 15 59 c3 3c 5d cb e2 3c
       -0.061868258 0.1400594 0.023846189 0.027684862
000010 d1 39 f5 bc 53 2c ba 3c e1 32 47 3e b6 55 0e 3e
       -0.029934796 0.022726214 0.19453003 0.13899884
000020 2b b5 82 bd 2c 03 3d bd 1e 81 23 3e 39 de 78 bd
       -0.06382211 -0.046145603 0.15967223 -0.060758803
000030 dc db b2 3c 03 fc e3 bd d9 bd d5 bd 79 5f ee 3d
       0.021833353 -0.11132052 -0.10436601 0.11639304
000040 3c 77 7c bd 49 a1 37 3d 95 a3 d1 bd ae bc c2 3c
       -0.06163715 0.044831548 -0.10236279 0.02377161
000050 85 80 4b 3d 76 23 c7 3d 75 10 cd 3c 7b 53 01 3e
       0.049683113 0.097235605 0.025032261 0.12629502
000060 9a 4e 1a 3e ec 69 88 3b 63 6f 4c 3d 5e c6 c5 bb
       0.15069047 0.0041630175 0.049910914 -0.00603561
000070 1d 5e e4 3d 23 13 96 3d 14 ef 15 3e 60 c4 f7 3d
       0.11150763 0.07327869 0.14641982 0.120980024
000080 9e 3c df 3d c9 12 3f 3e a9 b4 26 3e bf 97 44 3e
       0.10900234 0.1865951 0.16279854 0.19198512
000090 57 34 96 3d 25 b5 4e bd 1f 8c ad 3d 04 66 1c bd
       0.07334202 -0.05046572 0.084739916 -0.038183227
0000a0 3e f1 3e 3e 0c ee cc 3d 33 33 0e be 8a b2 33 3d
       0.18646714 0.10006341 -0.13886718 0.04387144
0000b0 e2 fc d2 3d 1a 5a 4b 3e 79 27 e8 3d c9 04 ea bd
       0.1030214 0.1985859 0.11335654 -0.11426694
0000c0 28 97 a5 bd df a4 7a 3c 36 47 0f 3e 8f 01 8c bc
       -0.080854714 0.015298097 0.13992009 -0.017090587
0000d0 2a 5c d6 bd 93 f1 20 bd 86 9d 4c bd 55 c4 ee 3d
       -0.10466798 -0.039292883 -0.049954914 0.11658541
0000e0 17 85 ea 3d 69 3b 94 bd 9c 6e f0 3d 22 b6 e4 3d
       0.11451166 -0.07237894 0.11739847 0.111675516
0000f0 76 34 3e 3e 9d fe fe 3d d9 46 33 bd 6d 24 5b 3d
       0.185747 0.124509074 -0.043768737 0.053501535
000100 66 61 26 be 6e 7c 01 3d 74 c0 bc 3c 3f de c9 bd
       -0.16248092 0.031612806 0.023040988 -0.09856843
000110 59 40 23 3e eb 37 80 bd 5a 1b 06 be 56 4f af bd
       0.15942515 -0.062606655 -0.13096371 -0.08560054
000120 ad 84 55 3e c1 55 51 3d 14 2c 02 3e 4c 02 12 3e
       0.20851393 0.051107172 0.12712127 0.14258689
000130 ba a5 09 be 2b 9f b9 bd 8d fb 1c 3e e3 27 54 3d
       -0.13442126 -0.09063562 0.15330334 0.05179585
000140 ba 48 59 3d 9a b5 18 3e 60 ee 1e 3d 83 b4 7f bd
       0.053047873 0.14913025 0.03880155 -0.06242801
000150 7b 65 93 3c 37 f0 a6 bd f1 cb 15 3d ef d1 33 3d
       0.017992726 -0.08151286 0.036571447 0.04390138
000160 b3 c2 07 bc cb 81 75 3d 96 7c 4e bd 71 a1 c3 3d
       -0.008286166 0.059938233 -0.050411783 0.09552277
000170 d7 75 a4 bd ed bb 4f 3e 59 12 85 3d 41 96 63 3d
       -0.08030289 0.20286532 0.0649764 0.055563215
000180 b0 63 e5 3d f7 09 e8 bd 06 54 1e bc 27 2a 04 3e
       0.112006545 -0.11330026 -0.009663587 0.12906705
000190 66 59 4b bd f0 d0 eb bd 88 31 0d 3e 43 41 45 3e
       -0.049645804 -0.11514461 0.13788426 0.19263177
0001a0 8a d7 76 3d a7 98 43 bd 98 e1 9b bc aa b7 28 be
       0.060264148 -0.047753002 -0.01902847 -0.16476312
0001b0 8b cb 02 bd ee db 05 3e 97 c7 e7 bc b8 3b c4 3d
       -0.031932395 0.13072178 -0.028293414 0.09581703
0001c0 8c 74 e1 38 9a b9 56 3e 59 ab 46 bd a4 44 50 3d
       0.000107505446 0.20969239 -0.048503254 0.05084671
0001d0 1b 0a b0 3d d6 55 e6 3d 9e 46 82 bc ce 23 0d 3c
       0.085956775 0.11246841 -0.015902814 0.0086144935
0001e0 94 f6 23 bd b8 91 37 3e ea fb 66 bd 9b 76 18 3e
       -0.040030077 0.17926681 -0.056392588 0.14888994
0001f0 d8 1d 16 3e 97 6e 82 3d d1 86 f5 3d 34 28 f8 bd
       0.14659822 0.063687496 0.11988605 -0.12117043
000200 98 5d dd 3d 8c 5a 1a be a5 7c 55 3e ad fd a8 bd
       0.10808867 -0.15073603 0.2084833 -0.0825151
000210 e2 e6 9f 3c e0 53 01 3d d9 5e d0 bc 64 97 ad bd
       0.019519273 0.03157413 -0.025435852 -0.08476141
000220 26 0a 64 bd 8b 22 8f bb 46 5a 1d be a4 4d 5c bd
       -0.05567374 -0.0043681315 -0.15366468 -0.05378498
000230 d9 f7 87 bd 74 3a d4 3d 18 18 0d 3e 0d 5d 45 3e
       -0.0663907 0.103627115 0.13778722 0.19273777
000240 7d 72 7d bd b6 91 d9 3c 9c 3e 19 be 12 db 0b 3e
       -0.061876763 0.026558738 -0.1496529 0.13657787
000250 8d 93 94 bd 76 b0 51 3d 69 f3 cc bd 9d a7 90 bb
       -0.072547056 0.051193677 -0.10007364 -0.0044145123
000260 ec 0b 9f bd a1 18 5b 3b 90 48 66 3d 41 80 1f 3e
       -0.07765946 0.0033431428 0.056221545 0.15576269
000270 8e c3 06 be a2 94 9e 3d 2f e5 0d be f3 e3 0c bd
       -0.13160536 0.07743193 -0.13856958 -0.034397077
000280 82 bd 35 3c a6 46 84 bc 76 bc 1e be 5c a9 c1 3d
       0.011092545 -0.016146969 -0.1550158 0.09456131
000290 1f 24 32 bd 5b 17 d2 bc 46 2f 22 3e 13 4a cb 3c
       -0.04349148 -0.025645902 0.15838346 0.024815595
0002a0 9f 2b 6a bc cc a1 0b 3e 65 a7 c8 bd da d7 04 3e
       -0.014292627 0.1363594 -0.09797553 0.12972966
0002b0 45 33 30 3e a0 89 18 be d0 1b 33 3e 6e 38 0b 3e
       0.17207058 -0.1489625 0.17491078 0.13595745
0002c0 ba a1 56 3e f8 23 c1 bc 69 7a a2 3d a1 2e fd bd
       0.20960131 -0.023576722 0.07933504 -0.123624094
0002d0 5e 3e cc bc 2a 86 0f bd 72 86 1b 3e 2a b3 88 bd
       -0.024932083 -0.03504006 0.15188006 -0.06674798
0002e0 8c 4e 1e 3e 66 da 12 be 79 27 1b 3e 1a 6f 82 bd
       0.15459651 -0.14341125 0.15151776 -0.06368847
0002f0 7f 7f 00 be 07 da d8 3d b6 6c 4e 3c 6e 7a db bd
       -0.12548636 0.105884604 0.012599161 -0.10716711
000300 fd 52 20 3e 67 40 86 bb b7 4f 0f 3e e7 26 07 be
       0.15656658 -0.004097033 0.13995253 -0.13198434
000310 59 2e c9 bd 2b 5d 92 bd 81 76 9f bd bf 2b e5 3c
       -0.09823293 -0.07146677 -0.07786275 0.027974961
000320 05 a3 c6 3d d9 74 b7 3c ad b5 01 be 0f 99 1b 3e
       0.09699062 0.022394584 -0.1266696 0.15195106
000330 ad c0 07 3e d5 a8 21 bd fd 4b ac 3d 66 82 44 bd
       0.13257094 -0.03946765 0.08412931 -0.04797592
000340 4b 3d 8a 3c b5 f3 1c 3e da 6c a3 3d 8b 31 34 3e
       0.01687493 0.15327342 0.07979746 0.17597024
000350 2d 39 fe 3d 00 e2 09 3c d6 c7 b7 bd fa 88 8b bd
       0.12413249 0.008415699 -0.089736626 -0.068132356
000360 e2 84 4e 3c e8 5f 80 3d 1c c5 0d 3e 06 2d da bd
       0.012604924 0.06268293 0.13844723 -0.10653119
000370 1c dc d7 bc 4c 35 bc bd f8 52 ba bd 6b a1 2c 3d
       -0.026350074 -0.09189853 -0.09097856 0.042146128
000380 b9 eb 8b bd 34 4b f1 bd 37 6d ab bd 53 a4 22 3e
       -0.0683207 -0.11781922 -0.083704405 0.15882997
000390 c8 6c d9 bc 08 ce 69 3d 1e b1 96 3d 4e c0 db 3d
       -0.026541129 0.057081252 0.07358001 0.107300386
0003a0 a5 0d e4 3d 6f f1 14 be e6 f3 28 bd 32 88 2b 3d
       0.11135415 -0.14545225 -0.041248225 0.041877933
0003b0 fc 97 a1 bd 1f 31 ee bd 22 5e 1d 3e a7 0d 7b 3d
       -0.07890317 -0.11630463 0.1536794 0.061292317
0003c0 9c 3b 01 3e de 5c c2 bd 9d f2 23 3e ad 2e 2d 3e
       0.12620395 -0.09490369 0.16010518 0.16912337
0003d0 8e 3a 2c bc e4 08 17 bd 08 26 81 ba 01 d8 11 bd
       -0.010512007 -0.036873713 -0.0009853253 -0.035606388
0003e0 04 63 18 3e e7 25 62 3c 1a 42 da bd e7 87 9a bd
       0.14881521 0.013802982 -0.10657139 -0.075454526
0003f0 6f 03 d4 3d 01 7d 83 bd 6a 55 13 be c9 13 1e be
       0.103522174 -0.06420327 -0.14388052 -0.15437235

conv_transpose1.weight f4 [32, 16, 3, 3]
000000 1a a8 81 bc 01 9c bf 3d ab ee b0 3d ae 5c d2 bb
       -0.015827227 0.09355927 0.08639272 -0.0064197397
000010 ad 63 b5 3c a3 70 bc 3d d8 77 76 bd 2a 7b f5 bc
       0.022142256 0.09201171 -0.060172886 -0.029965956
000020 73 38 bc bc 88 f8 1f 3d 37 5f f0 3c b7 6a c3 bd
       -0.022976136 0.039055377 0.029342277 -0.095418386
000030 cd af a1 3b ca d7 8d bd 49 6e 80 bd 4e ec 05 3d
       0.004934287 -0.06925924 -0.06271035 0.03269606
000040 4e 3e 27 3d 3c ff 1c 3c 86 73 24 bd 17 a8 d3 3c
       0.040830903 0.009582337 -0.040149234 0.025836987
000050 85 45 19 bd b8 55 a8 3c bd 30 99 bc 14 3e 8c bc
       -0.037419815 0.020548686 -0.018699998 -0.017119445
000060 1a 5b 4b bd f4 d9 59 3d f3 55 ca 3d cf c6 ad 3c
       -0.049647428 0.053186372 0.09879675 0.021212963
000070 6e 6a 29 3d 9b 2a a2 bd 9a 14 63 bd 7a 1e 4d bd
       0.041361265 -0.079182826 -0.05543957 -0.050077893
000080 0a 22 19 bc 0f cd 19 bd c7 7e c8 3d cb 7b 8b 3c
       -0.009346494 -0.037549075 0.09789806 0.017026803
000090 88 10 46 bc c6 68 76 3d 10 14 d3 3d f4 9a 5e 3c
       -0.012088902 0.060158513 0.10306561 0.013586748
0000a0 05 0e dc 3b 3e db 93 bc 9b c4 01 bd 2d 47 87 bd
       0.0067155384 -0.018048879 -0.03168164 -0.066053726
0000b0 5a e2 2c bd 96 94 ab bc a1 56 a3 3d 6d 34 99 3d
       -0.042208053 -0.020944875 0.079755075 0.074807025
0000c0 7e 4a 75 3d 52 29 a1 3d 5b 5b eb bb 46 a3 77 3d
       0.059885494 0.07869209 -0.0071825213 0.060458444
0000d0 30 09 4b bd 53 9c 00 bd 94 80 b1 3d dc b9 2a 3d
       -0.04956931 -0.031399082 0.086671025 0.041681156
0000e0 7e 25 a5 3c 8c 48 a2 bd f1 f3 98 3d 0c f3 64 3d
       0.02015948 -0.079239935 0.07468403 0.05589585
0000f0 8e 62 c6 bc 7f 5a de 3b c8 ac 29 bd 6e a9 58 bd
       -0.024216916 0.0067856903 -0.041424543 -0.052895956
000100 97 dd 12 bd bd f1 8e 3d 34 ee ee bc 1d a7 f1 3c
       -0.035855856 0.06979702 -0.029166318 0.029498631
000110 3c 4d b8 3d b2 e7 ef 3c 89 50 ac bd 20 42 c4 3b
       0.08999106 0.029285286 -0.08413798 0.005989328
000120 33 e8 78 bd 4e 09 48 bc 1d 9d 8c 3d 3e e9 51 3d
       -0.060768317 -0.01220925 0.068659045 0.051247828
000130 b2 36 7c 3d da c3 63 3d 9b 0c 38 bd f6 d8 69 3d
       0.0615756 0.0556067 -0.044933897 0.057091676
000140 1c 3b 3a 3d a6 90 1d 3c f0 df 9f 3d 44 eb 5c bd
       0.045466527 0.009617006 0.078063846 -0.053935304
000150 91 9b ad 3c bc cd 2a 3d 89 65 ad 3d 60 21 82 3d
       0.021192344 0.04170011 0.08466632 0.06354022
000160 98 df 18 3d 08 63 11 bd 6e 81 0d 3d 0e cc 82 bd
       0.03732261 -0.035494834 0.034547262 -0.063865766
000170 65 23 54 bd b3 67 61 3d 38 55 6e 3b b9 e1 0d 3d
       -0.051791567 0.055030536 0.0036366712 0.034639094
000180 39 d2 eb bc 59 2b ab 3d 43 a2 00 3d 87 15 65 bd
       -0.028786765 0.08357877 0.031404745 -0.055928733
000190 ad 64 74 bd d1 2f 95 3b b2 d8 20 bd 81 90 32 bb
       -0.059666324 0.0045528193 -0.039269157 -0.0027246776
0001a0 ac c1 bb 3c f1 45 3d 3d 5d 48 f3 bc 4e 4f af 3d
       0.022919498 0.04620928 -0.029697591 0.08560048
0001b0 80 a3 87 3d 3a 14 b6 bd 45 c6 44 bd 8a 84 d0 3d
       0.06622982 -0.08890577 -0.048040647 0.1018153
0001c0 8a 6e 8e bc 87 27 b4 bc 29 ea ee bc 6f 1d ed bc
       -0.017386694 -0.021991504 -0.02916439 -0.0289447
0001d0 cd c8 b4 3d 2d 18 7a bd 75 7f bf bd 2c 1e f9 3c
       0.08827362 -0.061058212 -0.093504824 0.030409895
0001e0 76 83 63 3d b4 c6 45 3c d3 d8 83 bd 49 44 00 bd
       0.055545293 0.0120713 -0.0643784 -0.03131512
0001f0 8a d0 92 3c 53 46 14 bd 82 a8 03 3d 54 25 17 3d
       0.017921705 -0.03619988 0.032143123 0.036900833
000200 b0 da af bd 85 2e 6f bd b0 ae 0a bd 3c b7 3b bc
       -0.08586633 -0.058393974 -0.033858 -0.011457261
000210 44 ac 99 bc 6b d7 04 3b 53 c4 38 3d b2 78 8c 3d
       -0.0187589 0.002027 0.045109104 0.06858958
000220 c5 b1 fa bc 92 55 b9 bc 95 2c 6a 3d 97 7c 3f bd
       -0.030602345 -0.02262381 0.057171423 -0.046749678
000230 8a a9 16 bd 81 57 be 3d 32 7d 4f bd f4 b4 87 3d
       -0.03678278 0.09294034 -0.050656505 0.06626311
000240 b3 7c 66 bd cd a8 be bb ea 42 ad 3d ad 79 99 3d
       -0.056271266 -0.0058184625 0.084600285 0.07493911
000250 44 cb 0e bb 9e 83 0b bd 86 96 b7 bb bf 6d 60 3d
       -0.0021788636 -0.034061067 -0.0056026606 0.054792162
000260 27 63 9d 3d 2f 3a 57 bd d5 b4 f6 bc 41 5f 99 bd
       0.076849274 -0.052545723 -0.030115524 -0.07488871
000270 fb 9d 58 bd 3c ec 2b bc 2d 58 3d 3c a3 98 d8 bd
       -0.052885037 -0.010493334 0.011556667 -0.10575988
000280 7e 2c ad 3d d7 f4 87 3d 5f af cc 3c c0 35 e0 3c
       0.08455752 0.06638496 0.024985967 0.02736938
000290 05 f8 49 bd 5b 96 fe 3c 9f b6 3f bd 14 aa 7f 3d
       -0.049308795 0.031077554 -0.04680502 0.06241806
0002a0 af cc 82 bd 3b 40 1d bd 5b 16 61 3c f6 de 20 bc
       -0.063866965 -0.038391333 0.01373824 -0.009818783
0002b0 0d d5 51 3d 48 ee e1 bc 9a 33 b1 3b 0e 91 73 bd
       0.05122857 -0.027579442 0.0054077627 -0.059464507
0002c0 1c 69 8d bc cc c3 80 bb d2 b1 46 3d c6 85 d5 3b
       -0.017262034 -0.003929591 0.048509426 0.006516191
0002d0 3b a0 9d bd ab f1 89 3d 95 44 94 3d e7 6f c0 3c
       -0.07696577 0.06735548 0.072396435 0.02349086
0002e0 57 a4 3d ba c9 0c e2 3d cc e4 bb 3a 49 09 d7 bc
       -0.00072342664 0.11037595 0.0014335155 -0.026249545
0002f0 2a d0 7a 3d 82 4a 6a bd f2 d4 53 bd f5 cb 89 3d
       0.061233677 -0.057199962 -0.051716752 0.06728355
000300 e2 d3 34 3d 5c ce 88 bc 94 a4 99 3d cd 20 97 3d
       0.04414738 -0.016699962 0.07502094 0.07379303
000310 31 fb 98 3d bc 47 89 3c 8d b1 a1 bd db bf 01 bd
       0.07469786 0.016757838 -0.07895193 -0.03167711
000320 cf c8 97 3d 89 3a 74 3d 78 60 74 ba 88 e1 43 bc
       0.07411348 0.059626136 -0.00093222363 -0.011955626
000330 8b a8 1b 3d 69 43 f3 bc be 0a 22 3d 55 d9 bb bc
       0.038002532 -0.02969523 0.039561026 -0.02293078
000340 f9 80 59 3d a8 c6 af bc aa fd 39 3c 78 b4 08 3c
       0.053101514 -0.021457031 0.011351982 0.008343808
000350 b5 b7 8a 3d f2 37 00 bc e6 7a 74 3d 97 3f 6c 3d
       0.067733206 -0.007825838 0.059687518 0.05767783
000360 97 db 26 bd 40 1f 94 bd 01 97 01 3d 65 31 5c 3d
       -0.04073676 -0.07232523 0.03163815 0.053758044
000370 9c 78 92 3d 88 fb bb 3d 30 47 3a bd 3f 45 4f bd
       0.07151911 0.09178835 -0.045478046 -0.050603148
000380 30 27 3f 3d f1 8a e6 3c 55 8c 16 3c ff b4 20 bd
       0.04666823 0.028142424 0.009188731 -0.03923511
000390 a5 57 42 3d 1a 79 e2 3c 47 67 da bc 5f 92 27 3c
       0.047446866 0.027645636 -0.026660575 0.010227769
0003a0 a7 ef 9d 3d 43 ad 3f 3d 55 49 46 3d a2 26 f4 3d
       0.07711726 0.046796095 0.04840978 0.11921431
0003b0 7a d5 fa 3b 28 d9 b8 bc d8 af 23 3d 65 ff 90 3b
       0.007654843 -0.022564486 0.03996262 0.0044249767
0003c0 0b b9 88 3d 77 b2 ff bb 0f 59 ae bd 59 e0 90 3d
       0.06675919 -0.007803257 -0.0851308 0.07074041
0003d0 c1 38 51 bd 7a 3a b3 bd f7 23 0b 3d c8 5c 9a 3d
       -0.051079515 -0.08751388 0.033969846 0.07537228
0003e0 84 6d fd bc 34 f9 8d 3d 22 9d 05 3d cf d9 ab bc
       -0.03093601 0.06932297 0.032620557 -0.020977883
0003f0 56 b3 41 bd c7 80 d0 ba 83 a2 3a bc c3 d9 46 bd
       -0.04729017 -0.0015907519 -0.011391285 -0.048547518

conv_transpose1.bias f4 [16]
000000 f8 31 1a bd 28 77 85 bd 9d b8 3d bd a3 a0 d5 bd
       -0.03764531 -0.06516868 -0.04631864 -0.1043103
000010 7a 7e 92 3d 0c fc bf 3d 87 c8 61 3d b1 83 63 3d
       0.0715303 0.09374246 0.05512288 0.055545513
000020 01 03 46 3b 37 56 75 bc 9a 1e af bd f3 0d 78 bd
       0.0030214193 -0.0149741685 -0.08550759 -0.060560178
000030 e0 86 4a 3d 96 d3 6d bd 26 2c 01 3d 49 53 30 3b
       0.049445033 -0.058063112 0.031536244 0.002690511

conv_transpose2.weight f4 [16, 8, 3, 3]
000000 45 56 b4 bc 09 5e 3a 3d 68 e6 ac 3c cc ed 03 3b
       -0.022013793 0.045499835 0.02110596 0.0020130752
000010 84 52 18 be ab 47 b9 bd 69 a8 a0 bd cf a0 03 bc
       -0.14875227 -0.09046873 -0.07844622 -0.008033945
000020 41 8d 9f 3d f1 e2 e2 bd 30 36 c5 bd 6a 13 14 3d
       0.07790614 -0.11078442 -0.09629476 0.036151327
000030 d1 33 1c 3d 2f 9c 0e bc ae be e3 bc fc c8 db 3c
       0.038135353 -0.008704229 -0.027800884 0.026829235
000040 1a 81 a1 bd 0a da 80 bd 88 8e c2 bd 62 3d 90 3d
       -0.07885952 -0.06291588 -0.09499842 0.07042958
000050 46 bb 5b 3d 96 f0 e6 3d 3c 83 31 3d 00 83 00 3e
       0.053645395 0.11276357 0.043338045 0.12549973
000060 d8 99 bf 3c e2 01 23 3d 7e e5 a2 bd 7d 58 8f 3c
       0.023388788 0.039796717 -0.079539284 0.01749825
000070 06 26 75 bb 70 e1 e0 3c 41 b9 ea bb 29 29 60 3d
       -0.0037406697 0.027451247 -0.0071631973 0.054726753
000080 19 d6 bf bd 7f 01 8a bd ab da ff 3c 86 25 ca bd
       -0.09367008 -0.067385666 0.031232199 -0.09870438
000090 d5 c0 71 3d 25 a0 62 3d a5 11 a6 3d 10 e2 e8 bd
       0.05902179 0.055328507 0.08108834 -0.11371243
0000a0 af f5 5c bd e2 dc ae 3d 62 1d f5 bc ea 2c fe 3c
       -0.05394524 0.08538224 -0.029921237 0.031027276
0000b0 00 bd fb bc 72 d1 1b bc b0 85 4a bc fb de bc bc
       -0.03072977 -0.009510385 -0.012360975 -0.023055544
0000c0 d8 40 ce bd 08 cd 05 bd 4c a3 99 bc 56 9b 5a 3d
       -0.10070962 -0.032666236 -0.018754624 0.053370796
0000d0 36 f9 90 3d 7d 1c d6 bc d6 8a 8f bc a5 c9 b5 3c
       0.07078783 -0.026136631 -0.017522257 0.022190878
0000e0 5f 91 b5 bd e2 ee 2d bd 3b 16 ed bc 1c ca 5e bd
       -0.08865618 -0.042464145 -0.028941264 -0.054391965
0000f0 2e 05 4a bc 39 38 19 bd 6d ed 12 bd f7 05 84 bc
       -0.0123303365 -0.037407134 -0.035870958 -0.016116126
000100 33 a9 0e 3e 96 c3 04 3e 63 e9 36 ba 14 eb 1b 3e
       0.13931732 0.12965235 -0.00069775264 0.15226394
000110 ed 5e 37 bd 18 b0 dd bc 21 b7 f5 3d fb 8e 2b 3d
       -0.044768263 -0.027061507 0.1199782 0.041884404
000120 43 28 18 3e 83 f4 be 3d ad c1 e6 3c 00 41 22 bd
       0.14859109 0.09323981 0.028168524 -0.03961277
000130 6d 31 c0 3c 6f 59 6f 3d 9a 0b 87 3d d5 24 bf bd
       0.023461068 0.0584349 0.0659401 -0.09333197
000140 07 d4 25 bd 7a fe 7b 3d 85 bc bb 3d 36 00 05 3e
       -0.04048541 0.061521985 0.091668166 0.12988362
000150 6c 31 90 bc ed fb 90 3c f2 70 cf 3d d6 c1 f9 bd
       -0.017601691 0.017698253 0.101289645 -0.121951744
000160 5c ad 44 3d 92 3b 95 bd 56 0c 4a bd 63 d7 01 3d
       0.04801689 -0.07286753 -0.04932817 0.03169955
000170 a3 0f 53 bd f6 9d 1d 3e d5 d9 89 bd 76 5d aa 3d
       -0.051528584 0.15392289 -0.06731001 0.083186075
000180 e3 12 e4 bd 08 f7 b3 3a 02 60 ad 3d 8e bd 0f bd
       -0.11136415 0.0013730237 0.08465578 -0.035092883
000190 e5 c2 18 3d 6a 14 5c 3d d9 ad a0 bd cc 88 d5 3c
       0.03729524 0.053730406 -0.07845659 0.026066206
0001a0 61 57 2c 3d 62 83 eb bd d9 ca 10 3d f1 f4 0f 3e
       0.04207552 -0.11499669 0.0353497 0.14058281
0001b0 23 f2 88 3d 48 f9 da 3c 85 6b 33 3d 41 92 bc bd
       0.06686809 0.026730195 0.04380371 -0.09207583
0001c0 0b ce a1 bd 61 96 74 3b 12 f3 a7 3d d9 bf 86 3c
       -0.07900628 0.0037321078 0.08200659 0.016448902
0001d0 6f 3f d5 3c 0b 49 5c bd 25 70 f5 bb b4 cd da 3d
       0.026031224 -0.053780597 -0.0074901753 0.10683766
0001e0 d1 ce df bd bd 94 e1 3d 72 ca b7 bc d4 3b 7b bd
       -0.10928119 0.11014698 -0.0224354 -0.061336353
0001f0 e0 2d 69 3d f3 35 28 3d 81 74 7b 3b 1f e7 8a bd
       0.056928515 0.041067075 0.0038369002 -0.06782364
000200 aa 95 f8 3d 62 81 f3 3d e9 d2 a0 bd ee 7a ef 3d
       0.12137921 0.11889912 -0.07852728 0.11693369
000210 4c 05 16 3e eb b1 67 3d a4 25 e0 3d a5 33 88 bd
       0.14650458 0.05656616 0.109446794 -0.066504754
000220 db 8e 07 3d ed cd 14 3d ce 2f 08 be f6 19 f4 bd
       0.033095222 0.0363292 -0.13299486 -0.11919014
000230 2b 6d ec bd 3e a8 2b 3d be 21 87 bd 3e 64 7b bd
       -0.1154426 0.041908495 -0.06598233 -0.061374895
000240 f3 9a 72 bd de d2 cc bc 70 33 df bd a9 43 e2 3c
       -0.059229802 -0.025002893 -0.10898483 0.027620154
000250 65 61 d4 bd 5b d5 7c bc 7e a0 a9 bd cb 71 0e bd
       -0.10370139 -0.015431727 -0.082825646 -0.03477649
000260 c9 b2 75 3d 3e 54 1c bc 70 da 8e 3d 8a 54 dc 3d
       0.059984956 -0.009541569 0.069752574 0.10758312
000270 a5 c0 c4 bd ff 19 42 bd 3b 12 e0 3d 86 59 a5 bd
       -0.096070565 -0.047388073 0.10940977 -0.08073716
000280 e9 41 af 3a 0e 43 d1 bd 68 b9 11 bc 11 23 62 3d
       0.0013371083 -0.10217868 -0.008894302 0.055209223
000290 79 5e a7 bd 36 fc 1c bc 22 25 68 bd 31 f9 e6 bd
       -0.08172316 -0.009581616 -0.056676038 -0.11277998
0002a0 04 2e cf bd 48 35 57 3d 7c 15 10 bd bd 78 58 3d
       -0.10116199 0.052541047 -0.03517674 0.05284952
0002b0 df 6c ec bc 41 33 7f bd 81 20 da bd ab 90 7c bd
       -0.028860508 -0.06230474 -0.10650731 -0.061661404
0002c0 1e 3b d1 bd 71 1d 9a bd ef be 94 bc de db d2 bd
       -0.10216354 -0.07525147 -0.01815745 -0.102958426
0002d0 29 bc 68 3c c4 3c 3a 3d 57 51 7b bc b6 f4 c6 bc
       0.014205017 0.045468107 -0.015339217 -0.02428661
0002e0 68 75 cc bd ab 0b 72 3d d6 48 90 3d f2 85 af 3d
       -0.09983331 0.05909316 0.07045142 0.0857047
0002f0 83 11 ce bc 4f c5 d8 3d f6 13 14 3e 4d 5b 5b 3d
       -0.025154835 0.10584509 0.1446074 0.053553868
000300 8b f8 e4 bd 02 bc 2c bd e9 24 1f 3d 16 24 4c bc
       -0.11180218 -0.042171486 0.03885356 -0.012459775
000310 2a e4 46 3a 18 24 11 bc ff 69 0e 3d 73 6e a4 3c
       0.00075870997 -0.008858703 0.034769055 0.020072198
000320 b9 e3 92 ba 61 74 f0 3d e4 64 56 3d 42 56 cd bd
       -0.0011206783 0.117409475 0.05234231 -0.10026218
000330 ac b5 97 bd 06 f3 51 bd 7e ca bb 3d e7 58 a2 bd
       -0.07407698 -0.051257156 0.09169482 -0.07927113
000340 23 9c f7 3d 7b b9 97 bc 04 43 c8 bd 87 59 cb bb
       0.120903276 -0.018521061 -0.09778407 -0.006205741
000350 2a dc 85 bd 72 13 ea bd 23 c1 62 3d f2 6c c7 3d
       -0.065361336 -0.1142949 0.05535997 0.097375765
000360 85 e6 94 bd 9f 3e 00 3e 45 71 c1 bd 51 ee 60 bd
       -0.072705306 0.12523888 -0.094454326 -0.054914776
000370 e4 d3 81 b9 32 ea 8d 3d b3 03 0f bc 6e 43 bd 3d
       -0.00024762668 0.06929435 -0.008728909 0.09241377
000380 3b 48 5b bc 42 ea 80 bd e0 3d 00 be 53 ae f8 3a
       -0.01338392 -0.06294681 -0.12523603 0.0018972851
000390 f7 b5 b7 3c cf 91 44 3c 6f e5 a4 3c 91 89 ad 3d
       0.022425635 0.011997654 0.020128934 0.08473504
0003a0 4e d4 e9 3d dc 09 59 3d e9 93 cc 3d 5e fe 92 bc
       0.11417447 0.05298792 0.09989149 -0.017943557
0003b0 9f ab c5 bd 46 bb b1 bc 95 dc 99 3b fa 1a 3b 3c
       -0.09651875 -0.021695744 0.004695485 0.011420006
0003c0 63 d6 bf bd 73 b5 c4 3d cb 8f 33 bd 89 e3 f2 3d
       -0.09367063 0.09604921 -0.043838304 0.11859805
0003d0 1e 4a ab 3d 97 36 0c 3d 10 2c 23 bb 2c e6 61 3d
       0.08363746 0.03423175 -0.002489809 0.05515115
0003e0 04 9b 2c bd aa 91 a6 bd 1c 6d 63 3c 30 d9 5b 3d
       -0.042140022 -0.08133252 0.013880994 0.053673923
0003f0 aa 2e c5 bd 38 39 b8 3d 1f 06 fc bd 4e dd 7d 3d
       -0.09628041 0.089952886 -0.12305855 0.06197863

conv_transpose2.bias f4 [8]
000000 f4 d3 91 bd a6 4e 8e 3b 0f e6 9c bd ec 02 74 bd
       -0.07120505 0.0043428717 -0.07661068 -0.0595731
000010 94 40 e2 bd a9 1b 10 bd 70 4f 52 3d f8 56 d2 3d
       -0.110474735 -0.03518263 0.05134529 0.10270494

conv_transpose3.weight f4 [8, 1, 5, 5]
000000 02 ae 27 3e f0 4c 13 be 53 2f 06 be ea a3 c0 3b
       0.16374972 -0.14384818 -0.1310399 0.005878915
000010 21 6a 1a 3e 27 f3 7e 3b 83 25 9f 3d 11 38 e9 3d
       0.15079547 0.0038902254 0.07770827 0.11387647
000020 d4 4d 35 3e ff 14 1d 3e 22 fb 3a 3e a5 69 fa bd
       0.1770547 0.1534004 0.18259862 -0.12227181
000030 08 33 ef 3c 4e 1c dd 3d 31 52 e2 3d 52 b1 8f bd
       0.029199138 0.10796414 0.11050833 -0.07016243
000040 d9 3c cc 3d eb cb 84 3d 4d 5b 65 3c 75 df f7 3c
       0.09972543 0.06484207 0.013998819 0.03025792
000050 a5 e0 27 3d 7c 56 07 3d d3 9f 70 3b 0d 6c 55 3e
       0.040985722 0.033041462 0.0036716356 0.20842
000060 96 d8 10 be ff 8c 59 bd d5 27 9e 3c 35 f8 4d be
       -0.14145121 -0.05311298 0.019306103 -0.20114215
000070 9b a8 72 be a9 21 9d bc 58 99 85 3a 84 49 5a 3e
       -0.2369713 -0.01918109 0.0010192795 0.21317106
000080 33 31 1d 3e 37 c0 a1 3d c7 3e b1 bd e9 c1 f3 bc
       0.153508 0.0789799 -0.08654552 -0.02975555
000090 9a c6 72 3e ad f4 9b 3d 4c 71 1b be e3 56 c9 bd
       0.23708573 0.076150276 -0.15179938 -0.098310255
0000a0 91 05 54 bd 35 ac 07 3e de 31 8e 3d 85 82 8f 3d
       -0.05176312 0.13249286 0.06943105 0.070073165
0000b0 b3 bf b5 3d 42 d6 d8 3d 4a 09 b1 bd 0a 71 00 3c
       0.08874454 0.105877414 -0.0864435 0.007839451
0000c0 5e b2 db 3d e2 4a 2f 3e e9 77 6d 3e 36 1e 87 3e
       0.1072738 0.1711841 0.23190273 0.26390237
0000d0 3b 52 0b 3e 42 b6 00 be c4 fc 4b 3d a8 7a a1 bd
       0.13605587 -0.12569526 0.049801603 -0.07884723
0000e0 0c 9f 87 bc 5d 61 f8 3c 5c 6e ed bd 3a 79 9f bd
       -0.016555332 0.030319864 -0.11593315 -0.07786794
0000f0 c0 af 3e be a8 4d 3b be 3e 5c a9 bd 73 d2 0a bd
       -0.18621731 -0.18291342 -0.08269547 -0.033892106
000100 b8 23 70 bd ca 27 56 3d 1c a4 3b bd 4d db a4 3b
       -0.058627814 0.05228404 -0.045810804 0.0050310255
000110 a7 b3 07 3e 38 a4 ce 3c 88 b6 4f 3e 43 ef 01 be
       0.13252126 0.02522479 0.20284474 -0.12688927
000120 65 29 b4 bd 79 3a 02 3e 62 22 7b 3b 1c 56 c7 3d
       -0.08796958 0.12717618 0.0038320054 0.09733221
000130 1a 45 3d 3d 1a e8 63 3d d4 74 9a bc 36 07 8a 3c
       0.04620848 0.05564127 -0.018854536 0.016849142
000140 8f 09 40 3e 7d 28 d0 3d 17 74 8e bd 1d 38 0a be
       0.18753646 0.101639725 -0.06955736 -0.13497968
000150 72 0a f9 bd 9e ce 13 bd 59 23 2b 3d a0 7c 0b 3e
       -0.121601954 -0.036085717 0.041781757 0.1362176
000160 63 1c 91 bd 4d ba 86 3d 56 1c 2f be 89 21 17 3e
       -0.070854925 0.06578503 -0.17100653 0.14758886
000170 28 56 3b 3d 97 a5 00 3e 89 b2 92 3b 3a c0 68 3e
       0.045736462 0.12563168 0.0044768495 0.22729579
000180 d6 1a 25 3e 7c 92 89 bd 2e 4c c2 3d 5e b5 1c 3e
       0.16123518 -0.06717393 0.09487186 0.15303561
000190 92 30 5b 3e fa e8 cd 3d 92 e1 89 bc a8 9c 28 be
       0.21405247 0.100542024 -0.016831193 -0.1646601
0001a0 21 1c 3d 3e e1 41 16 3e 85 12 e1 3c 4d 2c dc bc
       0.18467762 0.14673568 0.027474651 -0.026876593
0001b0 3e 5a ec bd 33 0d d4 3d 21 ba 1a bd e4 45 85 bd
       -0.1154065 0.1035408 -0.037775163 -0.06507471
0001c0 b1 cc 14 3e 9e 5e 46 3e f5 a4 42 bc a0 b0 17 3c
       0.14531209 0.19372031 -0.011880149 0.009258419
0001d0 0d c8 a1 bc eb 69 a2 3d 1a fd 6d 3e f1 d6 18 3e
       -0.019748712 0.079303585 0.23241082 0.14925744
0001e0 93 90 51 bd a7 73 15 be 63 48 4c bd bf 0e 55 3d
       -0.051163267 -0.14594899 -0.04987372 0.052016016
0001f0 04 bf 52 3e 72 c6 aa 3c 5a cf 2a be 98 fe 2a bc
       0.20580679 0.02084658 -0.16680661 -0.010436676
000200 c0 f8 3f bd 7a c2 36 bd 79 77 39 be f7 de f7 3d
       -0.046868086 -0.04461906 -0.18111981 0.12103074
000210 23 c2 a3 3d d1 41 55 be 0f 45 93 3a 21 e1 09 be
       0.07996013 -0.20825888 0.0011235791 -0.13464786
000220 74 34 d5 bd ed 50 2e 3e 46 6c 34 3e 68 6d 25 3e
       -0.10410395 0.17023058 0.17619428 0.16155016
000230 a9 f1 e5 bc 65 12 4f 3e 26 db 4b 3e 32 e0 df 3d
       -0.028069334 0.2022186 0.19907817 0.10931434
000240 6f a0 06 3e 24 3e c2 bc 58 f8 3a 3e f8 9c a5 bc
       0.13147138 -0.023711272 0.18258798 -0.02021645
000250 da 0e 2c be 02 4d ee 3d c3 f1 09 be 35 de bc 3d
       -0.1680254 0.11635782 -0.13471131 0.0922207
000260 88 c6 0b be ce 6f 78 3d 57 d2 84 3d 62 a4 fa 3d
       -0.13649952 0.0606535 0.06485432 0.12238385
000270 e6 6b f2 bd 89 d0 5e 3e 96 8c 52 3e 27 27 d4 3d
       -0.11836986 0.21759237 0.20561442 0.1035903
000280 56 7a 22 3e 46 ac a0 bc 3f c3 8d 3e 12 bb 8a 3e
       0.1586698 -0.019613396 0.27688023 0.27095848
000290 67 35 17 3e c4 35 60 bd 79 09 93 bd eb 8c 18 3e
       0.14766465 -0.054738775 -0.07179541 0.14897506
0002a0 f2 43 2a 3e ce 73 3c 3d f4 76 e6 bb 7e 97 12 3c
       0.16627482 0.046008877 -0.0070332233 0.008947251
0002b0 21 0d 1e bd db 67 ed bd 52 ad ce bd 03 c5 53 3e
       -0.03858674 -0.115920745 -0.10091652 0.20680623
0002c0 94 a0 3e be ca df 04 be f1 94 47 be b5 47 1c 3e
       -0.18615943 -0.12975994 -0.1949041 0.15261729
0002d0 78 3c 87 bd 68 4b 11 3e 04 aa 15 bd 13 77 83 be
       -0.066033304 0.14188921 -0.036539093 -0.25676784
0002e0 bd 06 9d bd 97 7c 3e 3e 1c b0 ab 3d a6 c5 78 be
       -0.07667301 0.18602215 0.083831996 -0.24294147
0002f0 a3 26 28 3c 6b ee 26 be 02 11 53 3e 22 56 ae bd
       0.010263118 -0.16301887 0.20611957 -0.08512522
000300 48 dd 09 be ca 5c a7 bd e1 9f 28 3e b3 92 15 be
       -0.13463318 -0.08171995 0.16467239 -0.14606743
000310 76 ae 7e bd 58 f8 7d bb 2e 71 f5 bd 52 c8 ac 3d
       -0.062178098 -0.003875276 -0.11984478 0.084366456
