code/models/decoder_16.pth (torch, 245666 bytes, 7 tensors)

fc1.weight f4 [3200, 16]
0	0xbdd2c978	-0.10292333
1	0x3e8e40a0	0.2778368
2	0xbdefb9f7	-0.11705392
3	0xbdaee105	-0.08539013
4	0x3e58d9a4	0.21176773
5	0xbe471075	-0.19439872
6	0xbc2c8824	-0.010530505
7	0x3e5ade83	0.21373944
8	0x3defe6d3	0.11713948
9	0xbd4cd8e6	-0.050011538
10	0x3e8591a8	0.2608769
11	0x3d73cf16	0.059523664
12	0x3d5c0fd8	0.053726047
13	0x3d983097	0.07431143
14	0xbe7196c4	-0.23592669
15	0x3c9eeaa1	0.01939899
16	0x3d10d5eb	0.035360258
17	0x3e05be1f	0.13060807
18	0x3d2120c9	0.039337907
19	0xbc54b37d	-0.0129822465
20	0xbd7e574a	-0.062094964
21	0x3dd3778a	0.10325535
22	0x3d23bc81	0.039974693
23	0xbe2a2042	-0.16613868
24	0xbe47a4bd	-0.19496436
25	0x3e45245c	0.19252151
26	0xbcd67922	-0.026180808
27	0x3e6fd2c2	0.23420241
28	0xbe05cbd5	-0.13066037
29	0x3ddc9415	0.10770432
30	0x3e64013c	0.22266096
31	0xbddcede9	-0.10787565
32	0xbe51c1c2	-0.20484069
33	0xbe3b5195	-0.1829284
34	0xbb8077e0	-0.00392054
35	0x3e05d6a8	0.13070166
36	0xbe55ec74	-0.20890981
37	0x3e72314a	0.23651615
38	0x3d2377a9	0.03990904
39	0xbbe3f627	-0.006956834
40	0x3e29ee58	0.16594827
41	0xbe4446e9	-0.19167675
42	0x3c9fd8ed	0.019512618
43	0x3e3a2f86	0.18182191
44	0xbe1bb11f	-0.15204285
45	0x3e420adf	0.1894946
46	0xbe7826f0	-0.24233603
47	0xbe718c3a	-0.23588648
48	0x3d6c8794	0.057746485
49	0xbe6fa17a	-0.23401442
50	0xbdab8305	-0.08374599
51	0xbe5a6861	-0.2132888
52	0x3d9c4236	0.07629816
53	0x3e219c1c	0.15782207
54	0x3e4cfc4c	0.20018119
55	0x3dea7be1	0.11449409
56	0xbdfc38f5	-0.12315551
57	0xbe4dab89	-0.20084967
58	0x3cdd6fd8	0.02703087
59	0xbca5ffc7	-0.020263566
60	0xbdd95aa5	-0.10612992
61	0xbc7aa4bd	-0.015298066
62	0xbe7a83c6	-0.2446433
63	0xbdd29b51	-0.102835305
64	0xbcd6e26f	-0.026231019
65	0xbe037fba	-0.12841693
66	0x3d7c5dfb	0.061613064
67	0x3e370bef	0.17875646
68	0xbc0c3e85	-0.008559828
69	0x3e23ebda	0.16007939
70	0x3d136afc	0.0359907
71	0xbe358874	-0.17727834
72	0x3d4b3d44	0.049618974
73	0xbb3401e0	-0.0027466938
74	0xbdb8d237	-0.0902447
75	0xbc184823	-0.0092945425
76	0x3e663130	0.22479701
77	0x3d7b0fdf	0.061294433
78	0x3e8173ab	0.2528356
79	0xbce1d660	-0.027568042
80	0x3da24136	0.07922594
81	0x3e5ef681	0.21773721
82	0xbe58535d	-0.2112555
83	0xbe699890	-0.22812104
84	0xbe75f75d	-0.24020143
85	0x3e53990e	0.20663854
86	0x3e24e2a0	0.16102076
87	0x3d94d5d9	0.07267351
88	0xbd3eef74	-0.04661508
89	0x3dcbe94a	0.09956606
90	0x3d99ba6f	0.075062625
91	0xbdbe2660	-0.09284663
92	0xbe038ec7	-0.12847434
93	0x3e8a3b1e	0.26998228
94	0xbe567ba6	-0.20945606
95	0x3d3998cb	0.04531173
96	0x3e183cab	0.14866893
97	0xbc817cb2	-0.01580653
98	0xbe14feda	-0.14550343
99	0xbe19d8c8	-0.15024102
100	0x3d07fb35	0.033198554
101	0xbe15c2c3	-0.14625077
102	0xbdafcc0d	-0.085838415
103	0xbcf86fc4	-0.030326732
104	0x3aa63d42	0.0012683051
105	0x3dbb8a3f	0.09157228
106	0x3dd33f0b	0.10314759
107	0x3e7083e4	0.23487812
108	0xbde63c07	-0.11241918
109	0xbdc1f1d3	-0.094699524
110	0x3e21b1e5	0.15790518
111	0xbe4fc66c	-0.20290536
112	0xbe2ce25a	-0.16883221
113	0x3e13538d	0.14387341
114	0xbddd9703	-0.10819819
115	0xbe0d3847	-0.13791
116	0xbe5d09fc	-0.2158584
117	0xbdad9bc0	-0.084769726
118	0xbd737894	-0.059441164
119	0x3df5b357	0.11997097
120	0xbe6b0ed3	-0.22954874
121	0xbc9c2ad0	-0.019063383
122	0x3dd9d059	0.10635442
123	0xbd93fa68	-0.072254956
124	0x3cb15f19	0.021651791
125	0xbe528e21	-0.2056203
126	0xbd084e54	-0.033277825
127	0x3dfd3dd6	0.1236531
128	0xbd0d25b7	-0.034459796
129	0xbe8694c4	-0.26285374
130	0xbdd9777f	-0.10618495
131	0x3e7c6fa1	0.24651958
132	0xbd82e9ee	-0.06392275
133	0xbd6b441f	-0.057438012
134	0x3de3d65e	0.11124872
135	0xbda2e720	-0.0795424
136	0xbcc1e60d	-0.023669267
137	0xbd8969c9	-0.0670963
138	0xbceb780e	-0.02874377
139	0x3e1cfc4e	0.15330622
140	0xbdf0a336	-0.1174988
141	0xbdcb8512	-0.099374905
142	0xbe71312e	-0.23553917
143	0xbde3ee17	-0.111293964
144	0x3e12e98f	0.14346908
145	0xbe874b9c	-0.26424873
146	0x391185d5	0.00013878134
147	0xbe01d81b	-0.12680094
148	0x3e3c0158	0.18359888
149	0xbd73ba51	-0.059503857
150	0x3ae18ee3	0.0017208721
151	0x3e001cef	0.12511037
152	0x3d18bfe3	0.037292372
153	0xbdc23bbd	-0.094840504
154	0x3e3f4d10	0.18681741
155	0x3c9de3de	0.019273695
156	0x3e63f4a4	0.22261292
157	0x3c0f9a2b	0.008764784
158	0xbd4f5a47	-0.050623205
159	0xbe555745	-0.20834072
160	0x3e4d4540	0.20045948
161	0x3e393079	0.18084897
162	0xbe078ec5	-0.13238056
163	0x3e074020	0.13208055
164	0xbda8d7ce	-0.082442865
165	0x3d3c59d8	0.04598412
166	0xbe1b827e	-0.15186498
167	0xbd2b8827	-0.041877892
168	0xbd67bcd8	-0.05657658
169	0xbe0810ac	-0.1328761
170	0x3e1f5c21	0.15562488
171	0x3e20f96e	0.1572015
172	0xbcee0f86	-0.029060137
173	0x3d91090c	0.07081804
174	0xbd8fb82d	-0.070175506
175	0xbd751510	-0.05983454
176	0xbe07f313	-0.13276319
177	0xbd88a756	-0.06672542
178	0x3e6ae5c0	0.22939205
179	0xbdbfaee4	-0.093595296
180	0xbdefe1da	-0.11713
181	0x3db33f73	0.08752336
182	0xbe55ef7a	-0.20892134
183	0xbd8ae179	-0.06781287
184	0xbdbabece	-0.09118424
185	0xbd0ee64e	-0.034887604
186	0xbe76a428	-0.24086058
187	0x3e69f876	0.22848687
188	0x3e2cd92f	0.16879724
189	0xbda48b74	-0.08034411
190	0x3d5eff69	0.054442797
191	0x3d602ad5	0.054728348
192	0xbe094734	-0.13406068
193	0xbe7e53ae	-0.24836609
194	0xbdd89a42	-0.10576297
195	0x3d69c90c	0.0570765
196	0xbe7cef16	-0.24700579
197	0x3b986b53	0.004651466
198	0xbd9b0be8	-0.0757063
199	0x3d414acf	0.047190484
200	0x3d590c7e	0.05299043
201	0x3d947295	0.07248417
202	0xbbcd7da0	-0.006271079
203	0xbe70c853	-0.23513918
204	0xbe8745d2	-0.26420456
205	0x3e7e6ccd	0.24846192
206	0xbda0fb8a	-0.07860477
207	0xbe865b05	-0.26241317
208	0xbdcac774	-0.09901324
209	0x3e13d266	0.1443573
210	0x3be0ac54	0.0068564806
211	0xbe3d235a	-0.18470517
212	0x3d87eff8	0.06637567
213	0x3e3e1eb9	0.18566407
214	0xbe24dbc9	-0.16099466
215	0xbd57b059	-0.052658413
216	0x3d7a18be	0.061058752
217	0x3e7527a3	0.23940901
218	0x3e5e000b	0.21679704
219	0xbd3a099b	-0.045419317
220	0xbe63f8c8	-0.22262871
221	0x3cef2d72	0.029196475
222	0x3c5b33cb	0.013379048
223	0xbde5329c	-0.111912936
224	0xbd02a30f	-0.031893786
225	0xbb29b469	-0.0025894886
226	0xbd7302e8	-0.059328943
227	0x3e8a0c50	0.2696252
228	0x3d9524c4	0.07282403
229	0x3d6323a1	0.0554539
230	0x3dc2ef0d	0.095182516
231	0xbe413aa6	-0.18870029
232	0x3bde5061	0.0067844843
233	0x3ddf587f	0.10905551
234	0x3e61cd12	0.22050884
235	0xbe2d3f56	-0.16918692
236	0xbc38b567	-0.011273718
237	0x3e48a3a7	0.19593678
238	0x3e52ce4b	0.20586507
239	0x3da70538	0.08155292
240	0xbd61fa4e	-0.05517035
241	0xbe14e82b	-0.1454169
242	0xbc50d539	-0.012746149
243	0x3e19c2e6	0.15015754
244	0x3e436f8a	0.19085518
245	0x3d42e6ed	0.04758351
246	0xbe674c78	-0.22587764
247	0x3e864835	0.26226965
248	0xbcf9e9d6	-0.03050701
249	0x3da49730	0.08036649
250	0xbda421ee	-0.08014284
251	0xbd08947b	-0.033344727
252	0xbd03ae2b	-0.03214852
253	0xbe0432b6	-0.1290997
254	0x3e81262c	0.25224435
255	0x3e19e683	0.1502934

fc1.bias f4 [3200]
0	0xbe4c4e2e	-0.19951698
1	0xbe5acdca	-0.21367565
2	0xbe4d2117	-0.20032154
3	0x3eb3587a	0.3502844
4	0x3e95c17f	0.29249188
5	0x3e451cd3	0.19249277
6	0xbcedb975	-0.029019097
7	0x3cc00521	0.023439946
8	0x3e803d52	0.25046784
9	0x3dabc349	0.08386857
10	0xbdc8c79f	-0.098037
11	0x3de3826d	0.11108861
12	0x3d7bda8f	0.06148773
13	0xbe239619	-0.15975226
14	0x3e40312c	0.18768758
15	0xbbf73c70	-0.0075450465
16	0x3ea8298b	0.32844195
17	0x3d941c07	0.07231908
18	0x3e16c7eb	0.147247
19	0x3db1d0ae	0.086823806
20	0x3dc45657	0.095867805
21	0x3dd522db	0.10407039
22	0xbc464880	-0.012102246
23	0xbddff8f7	-0.10936158
24	0x3e43fba2	0.19138959
25	0xbbfe504f	-0.0077610384
26	0xbcf95904	-0.030437954
27	0x3dea9f10	0.1145612
28	0x3e0161a6	0.12634906
29	0xbe165f31	-0.1468475
30	0xbe5aef03	-0.21380238
31	0x3d701adf	0.058619376
32	0xbe3dba77	-0.18528162
33	0x3e38b74a	0.18038669
34	0x3d8d0bc5	0.068870105
35	0xbdce35b3	-0.10068836
36	0xbe7132d5	-0.23554547
37	0xbe8ef675	-0.27922407
38	0xbdce3235	-0.1006817
39	0x3e1cdbe8	0.15318263
40	0xbe16aae1	-0.14713623
41	0xbd8699a4	-0.065722734
42	0xbd313fb8	-0.043273658
43	0x3e5b1e48	0.2139827
44	0x3dbf50db	0.09341594
45	0xbdb6fa21	-0.08934427
46	0x3cf3f9ba	0.029782165
47	0xbd22b640	-0.03972459
48	0xbde74769	-0.11292917
49	0xbe57f9c3	-0.2109137
50	0xbda7834f	-0.08179342
51	0x3e470bfd	0.19438167
52	0xbd03d819	-0.03218851
53	0x3e5170ff	0.20453261
54	0xbca8fe6c	-0.02062913
55	0x3e6026bb	0.21889775
56	0x3e78a990	0.24283433
57	0xbd959cfd	-0.07305334
58	0xbd27b953	-0.040948223
59	0xbdaaf7fb	-0.0834808
60	0xbdb4ef2c	-0.08834681
61	0x3cdb48da	0.026768137
62	0xbdb0a903	-0.086259864
63	0xbd38d9f7	-0.045129742
64	0xbdedcb99	-0.11611099
65	0x3dd3403f	0.10314988
66	0x3e1d3faa	0.15356317
67	0xbd3501d8	-0.04419121
68	0x3ebea460	0.37234783
69	0xbd4a03a6	-0.049319886
70	0xbc555b9d	-0.013022331
71	0x3dc9beb9	0.098508306
72	0xbe05bdcf	-0.13060687
73	0xbe954492	-0.29153877
74	0x3cc4bbb9	0.024015294
75	0x3baf206c	0.005344441
76	0x3e15fa96	0.14646372
77	0xbd2a94c3	-0.041645776
78	0xbde132d4	-0.10996023
79	0xbd86bae6	-0.06578617
80	0xbda25fc6	-0.079284236
81	0x3d857fea	0.06518538
82	0xbe863dcc	-0.26219022
83	0xbe9c07cd	-0.30474702
84	0xbe5e633e	-0.21717545
85	0xbe668cc0	-0.2251463
86	0x3e341434	0.17585832
87	0xbe97342f	-0.29532
88	0x3e3fa598	0.18715513
89	0x3dc73f5c	0.09728882
90	0x3e5761aa	0.2103335
91	0x3e48de08	0.19615948
92	0x3bf3398a	0.0074226307
93	0xbe4dd6f6	-0.20101532
94	0x3e44fa8b	0.192362
95	0x3e164c24	0.14677483
96	0xb9c7eeae	-0.00038134068
97	0xbe762b3f	-0.24039935
98	0xbe606696	-0.21914133
99	0xbe6f9274	-0.23395711
100	0xbaa156bc	-0.0012309174
101	0xbcd2ac47	-0.025716914
102	0x3d79d4ed	0.060994077
103	0xbaf1e1a5	-0.0018454088
104	0x3d816b6c	0.06319317
105	0xbe7026a8	-0.23452246
106	0x3e320f78	0.17388713
107	0x3c2a3cc2	0.010390462
108	0xbe4898aa	-0.19589487
109	0xbe1a0900	-0.15042496
110	0xb99190d4	-0.0002776446
111	0x3e8f1231	0.27943566
112	0x3e04f223	0.12982993
113	0x3e7790c6	0.2417632
114	0xbe825a70	-0.25459623
115	0x3e24af1a	0.16082421
116	0xbd87de54	-0.066342026
117	0x3e93dc13	0.2887884
118	0x3e674090	0.22583222
119	0xbe800a2e	-0.25007766
120	0x3d1b02be	0.037844412
121	0x3c4ac65a	0.012376392
122	0x3d8f1a41	0.069874294
123	0x3e12099f	0.14261483
124	0xbdfcfb95	-0.12352673
125	0x3e1b94e4	0.15193516
126	0x3e67ae2e	0.22625038
127	0xbd1f9a16	-0.038965307
128	0xbd305823	-0.043052804
129	0xbd40effc	-0.047103867
130	0x3e8d935d	0.27651492
131	0xbdb20d88	-0.08693987
132	0xbd7e078c	-0.062018916
133	0xbd6f7f96	-0.058471285
134	0xbdd07d29	-0.101801224
135	0x3e424754	0.18972522
136	0x3db01c8e	0.085991964
137	0x3dfb4e6e	0.12270819
138	0x3d9b2133	0.075746916
139	0x3e893743	0.26799974
140	0xbe3da332	-0.18519285
141	0x3a46e676	0.0007587442
142	0x3db00c66	0.08596115
143	0xbe8c4822	-0.27398783
144	0xbe1c5a1f	-0.15268753
145	0x3dbd2828	0.09236175
146	0xbbeed97a	-0.007289109
147	0xbe8519d7	-0.25996277
148	0x3caad563	0.020853704
149	0xbdc71690	-0.097211
150	0xbe3f3d60	-0.18675756
151	0xbd97b3fb	-0.074073754
152	0xbd579c8e	-0.052639537
153	0xbe26cef8	-0.1628989
154	0xbd879936	-0.066210195
155	0x3d006933	0.031350326
156	0xbd14b57d	-0.036305893
157	0xbe35f263	-0.17768244
158	0x3dd06aa5	0.10176591
159	0x3e1f1986	0.1553708
160	0x3cea8c36	0.02863131
161	0x3e685026	0.22686824
162	0x3e7d1f4c	0.2471897
163	0x3e897ec4	0.26854527
164	0x3e0c522d	0.13703223
165	0x3dbafb0e	0.09129916
166	0x3ac2f82e	0.0014874989
167	0xbe0807e1	-0.13284256
168	0x3e86b662	0.26311022
169	0xbdccff02	-0.100095764
170	0xbe1f4c4a	-0.15556446
171	0xbd630f66	-0.055434607
172	0x3e762e92	0.24041203
173	0x3cf73ae7	0.030179454
174	0x3e81e3e9	0.25369194
175	0xbdcf533a	-0.10123296
176	0x3e292c69	0.16520847
177	0xbdea7f62	-0.114500776
178	0x3df7d530	0.12101209
179	0x3dd03404	0.10166171
180	0xbe49d57d	-0.19710346
181	0xbdce4c78	-0.10073179
182	0x3d856506	0.06513409
183	0x3e81d293	0.25355968
184	0x3e701059	0.23443736
185	0x3e9329d5	0.28742853
186	0x3e17fc0f	0.14842246
187	0x3dbeaa1b	0.09309789
188	0x3d496548	0.049168855
189	0xbdd3ebc4	-0.10347703
190	0xbe76d3d4	-0.24104244
191	0x3b2b753a	0.0026162402
192	0xbd1043ff	-0.035221096
193	0xbde9e639	-0.114208646
194	0xbe571b20	-0.21006441
195	0x3db5b2ed	0.08872018
196	0x3e5cd863	0.2156692
197	0x3e87388a	0.26410323
198	0xbdec3eac	-0.11535391
199	0xbe351654	-0.17684299
200	0x3e9d0e7c	0.30675113
201	0xbe09e7c9	-0.13467325
202	0xbd1a3fb3	-0.037658405
203	0xbe14139a	-0.14460602
204	0x3a927970	0.0011175107
205	0x3e3004cb	0.17189328
206	0xbda8f6e4	-0.08250216
207	0xbe4ecc98	-0.20195234
208	0xbdb06e57	-0.08614796
209	0xbd448342	-0.04797674
210	0xbc923d2e	-0.017851438
211	0x3e1231f4	0.14276868
212	0xbcab6872	-0.020923827
213	0xbd28a9d9	-0.041177604
214	0xbe246096	-0.1605247
215	0xbd0db351	-0.034594838
216	0x3e6f93a4	0.23396164
217	0xbd19e21e	-0.037569158
218	0xbd57a9c9	-0.052652154
219	0x3d96ebf9	0.07369227
220	0x3ced747b	0.028986206
221	0x3c2a4892	0.010393279
222	0x3e490736	0.19631657
223	0x3e03d719	0.12875022
224	0x3e25930b	0.16169374
225	0x3e0b2c86	0.13591203
226	0x3e5c09ae	0.21488068
227	0x3d869933	0.06572189
228	0x3db5c2d0	0.08875048
229	0x3e84902c	0.25891244
230	0xbe9549d8	-0.291579
231	0x3d30519b	0.043046575
232	0x3d9623b8	0.073310316
233	0x3dcf7b29	0.10130913
234	0xbe65e2ab	-0.22449748
235	0xbe85c890	-0.2612958
236	0xbde5e1d8	-0.11224717
237	0x3ca19470	0.0197241
238	0xbed0f221	-0.4080973
239	0x3d8571cc	0.06515846
240	0x3d0092e8	0.0313901
241	0xbdc0da26	-0.094166085
242	0x3e000fd9	0.12506045
243	0xbe3c51e6	-0.18390617
244	0xbc487d86	-0.012236958
245	0x3dd78123	0.10522678
246	0xbd40ed0c	-0.047101066
247	0xbd3e0bb8	-0.046397895
248	0xbea90aa8	-0.33015943
249	0x3c16b545	0.009198491
250	0xbcda41c5	-0.02664269
251	0xbd8361b8	-0.06415123
252	0xbe3e5f01	-0.18590929
253	0xbe3c5675	-0.18392356
254	0xbe114a08	-0.14188397
255	0x3dc485ae	0.0959581

conv_transpose1.weight f4 [32, 16, 3, 3]
0	0xbd58ee96	-0.05296191
1	0x3bb90af1	0.0056470563
2	0xbb9d002e	-0.004791281
3	0xba7b5b60	-0.0009588506
4	0xbcb07094	-0.021538056
5	0xbd1adc62	-0.03780783
6	0xbb7a5984	-0.0038200328
7	0xbd9ded7e	-0.07711314
8	0xbc5cac6b	-0.013468842
9	0x3db0c588	0.08631426
10	0x3d9cc842	0.07655384
11	0x3de70a37	0.11281245
12	0x3d86ab3f	0.06575631
13	0xbd3711ce	-0.044694714
14	0x3c0a340c	0.0084352605
15	0xbd88fe34	-0.066891104
16	0xbd443f97	-0.047912207
17	0x3c842365	0.016130159
18	0x3c2fac4e	0.010722233
19	0x3db10980	0.0864439
20	0xbda13220	-0.07870889
21	0xbc160838	-0.009157233
22	0x3d264654	0.040594414
23	0xbd2bb683	-0.041922104
24	0xbca8db1d	-0.020612294
25	0xbd94bdb0	-0.072627425
26	0x3d6ca3c0	0.05777335
27	0x3bb4debc	0.005519716
28	0xbbf21dd6	-0.0073888106
29	0x3d9b8ce1	0.0759523
30	0x3c1ddac7	0.00963468
31	0x3d8bf132	0.06833114
32	0x3d726696	0.059179865
33	0x3ba1fc40	0.0049434006
34	0xbce8b1a3	-0.028405016
35	0x3d8f9055	0.07009951
36	0x3dba8765	0.09107856
37	0xbc0cf0df	-0.00860235
38	0x3d1966d6	0.037451588
39	0x3dbd869e	0.09254192
40	0x3d91ec75	0.07125179
41	0x3d767857	0.06017336
42	0x3de93ee1	0.11388946
43	0x3d74b9b6	0.05974742
44	0x3d07fb79	0.033198807
45	0x3d2787cd	0.040900994
46	0xbc15be7a	-0.009139651
47	0xbbd2460b	-0.006417041
48	0x3db8a5d6	0.09016006
49	0x3c1dcb19	0.009630942
50	0xbd06fb75	-0.03295465
51	0x3bfbae1e	0.0076806685
52	0xbcbe8797	-0.023258014
53	0x3d1829d7	0.037149277
54	0xbbf13d59	-0.0073620495
55	0x3a5aa2ea	0.0008340316
56	0x3d033afe	0.03203868
57	0xbd3f8baf	-0.046764072
58	0x3d7f7136	0.062363826
59	0xbc21c54f	-0.009873702
60	0x3bbb1ccd	0.0057102204
61	0xbd1fb068	-0.038986593
62	0x3bb5c89a	0.005547595
63	0x3d85ce21	0.065334566
64	0xbd01eb5d	-0.0317186
65	0xbd64c8b5	-0.05585547
66	0x3d8766d3	0.06611409
67	0xbdb51b09	-0.08843047
68	0xbdb9b614	-0.09067932
69	0x3d61c8c7	0.055123117
70	0xbc91204b	-0.017715594
71	0xbd67dc9b	-0.05660687
72	0xbc5a089a	-0.013307715
73	0xbb80b4bd	-0.0039277957
74	0x3d532e68	0.05155793
75	0xbd5c6f9a	-0.05381737
76	0xbd90edcc	-0.07076606
77	0xbd3b2a9e	-0.04569494
78	0xbcc3398b	-0.02383115
79	0x3d07cc98	0.0331541
80	0x3b969011	0.004594811
81	0xbbcef3d1	-0.0063156863
82	0x3d9ff33a	0.07810064
83	0xbda9add5	-0.08285109
84	0x3d29188c	0.041283175
85	0x3d73dc22	0.059536107
86	0xbd0240ee	-0.031800203
87	0xbca96f35	-0.02068291
88	0xbd9dd758	-0.07707089
89	0x3b4e442f	0.0031473746
90	0xbdb26624	-0.08710888
91	0x3d695c49	0.056972776
92	0xbdb16444	-0.08661702
93	0x3c0c598a	0.00856627
94	0xbd97721a	-0.0739481
95	0xbc1ad07c	-0.009449121
96	0x3d949003	0.072540306
97	0x3d94e1ec	0.07269654
98	0xbbae8631	-0.0053260555
99	0x3daa3852	0.083115235
100	0x3d8dcb5f	0.069235556
101	0x3c528fde	0.012851683
102	0x3d7b9277	0.061418977
103	0x3d8bb342	0.068213
104	0xbd1444ea	-0.036198534
105	0xbd4ed32a	-0.05049435
106	0x3c013142	0.007885279
107	0x3dc25641	0.09489108
108	0x3bd64795	0.006539295
109	0xbd127312	-0.03575427
110	0x3d28d3ba	0.041217543
111	0x3d90cd24	0.070703775
112	0x3d471250	0.04860145
113	0x3dbe49b1	0.09291399
114	0x3caf7567	0.021418286
115	0xbc2939ca	-0.010328719
116	0xbc7e9839	-0.015539222
117	0xbbde0882	-0.0067759166
118	0x3bdbf7e5	0.006712901
119	0x3dd54007	0.10412603
120	0x3d433a92	0.04766328
121	0xbc8e42e1	-0.017365875
122	0xbcbc0199	-0.02294998
123	0x3d6b0c26	0.057384633
124	0x3ca94f8b	0.020667812
125	0x39965d1d	0.00028679604
126	0x3ca41d5b	0.020033529
127	0xbcab0c68	-0.02087994
128	0x3d2738dc	0.04082571
129	0xbd24efee	-0.040267877
130	0x3d7f46e5	0.06232347
131	0x3d9b1499	0.07572288
132	0xb9cdb308	-0.00039234036
133	0x3d9c9faf	0.07647645
134	0x3d17e659	0.03708491
135	0x3d1958ea	0.03743831
136	0x3d930e8c	0.07180509
137	0xbd60116c	-0.054704115
138	0xbd0140a1	-0.031555776
139	0x3d3134fe	0.043263428
140	0x3c8642b5	0.01638923
141	0x3c73ea0f	0.014887347
142	0xbc8b3377	-0.016992314
143	0xbaba5a86	-0.0014217652
144	0x3d089ba9	0.033351574
145	0x3d8700b9	0.06591935
146	0xbb62fc5f	-0.0034635288
147	0x3dec7d97	0.11547392
148	0xba5c83ba	-0.0008411963
149	0xbc6591d7	-0.014011822
150	0xbcc64ad5	-0.024205605
151	0xbd164f4a	-0.03669671
152	0x3c65ca3a	0.014025265
153	0x3d627391	0.055285994
154	0x3c9508f7	0.018192751
155	0x3c12be7e	0.00895655
156	0x399bac0b	0.00029692086
157	0x3d3a350f	0.045460757
158	0x3d51d99f	0.05123293
159	0xbc08c17f	-0.008346914
160	0xbd65a70e	-0.05606752
161	0x3d13f934	0.03612633
162	0x3d5ad378	0.05342433
163	0x3d13372c	0.035941288
164	0xbad893e2	-0.0016523565
165	0xbdcd8440	-0.1003499
166	0xbdbed9e9	-0.09318907
167	0xbcf96819	-0.030445145
168	0x3d4d9351	0.05018932
169	0x3dd37eb2	0.103268996
170	0x3bc26c1f	0.005933299
171	0xbcd5e3c4	-0.026109584
172	0xbdbb7258	-0.09152669
173	0xbd9924fa	-0.07477756
174	0x3c435d0e	0.011924041
175	0x3b2a187e	0.002595454
176	0x3cdd84db	0.02704089
177	0xbc27d8c3	-0.010244551
178	0x3dbbacb0	0.09163797
179	0x3d5315d0	0.051534474
180	0xbd231144	-0.039811388
181	0x3d1a8d14	0.0377322
182	0x3d3acd7a	0.045606114
183	0xbc911020	-0.017707884
184	0x3d249f25	0.040190835
185	0xbd412be1	-0.047160987
186	0x3b1cff80	0.0023956
187	0xbac3b7da	-0.0014932111
188	0xbd439bac	-0.047755882
189	0x3db59114	0.08865562
190	0xbcebc738	-0.028781518
191	0xbc86bfd3	-0.01644889
192	0xbd7cbc3d	-0.061702956
193	0x3d18282b	0.037147682
194	0x3d7a2ecd	0.06107979
195	0xbda532ab	-0.08066305
196	0xbd195a50	-0.037439644
197	0xbc9baca3	-0.019003218
198	0x3d31230b	0.04324631
199	0x3d6a9a81	0.057276253
200	0x3d5c66a8	0.053808838
201	0x3d92c736	0.07166903
202	0x3d3999ed	0.04531281
203	0x3d8872b5	0.06662504
204	0x3da7c968	0.08192712
205	0x3d5ac8a1	0.05341399
206	0x3dc80003	0.09765627
207	0xbdb4d9e8	-0.08830625
208	0x3d1fdd3a	0.039029337
209	0xbcb938c4	-0.022610076
210	0x3d10eb9f	0.035380956
211	0x3d516c86	0.051128887
212	0xbbb71c5e	-0.0055880984
213	0xbd547958	-0.051873535
214	0x3da81013	0.08206191
215	0x3c7c10f8	0.015384905
216	0x3d2721b4	0.040803626
217	0xbc2b4567	-0.0104535585
218	0x3d8c1bd5	0.06841246
219	0x3b67e711	0.003538553
220	0x3da8bee0	0.082395315
221	0x3da765df	0.08173727
222	0x3c68d9e6	0.014212107
223	0x3dcecfc7	0.10098224
224	0x3d90b52f	0.07065808
225	0x3d1183af	0.035525974
226	0xbd83985d	-0.06425545
227	0x3dce683b	0.10078474
228	0xbcf52bc1	-0.02992809
229	0x3cc6b1b6	0.024254661
230	0xbd12a4f1	-0.03580183
231	0xbc1dc6c9	-0.009629914
232	0xbcc51ca3	-0.024061507
233	0xbce48bdf	-0.027898727
234	0xbd511e86	-0.0510545
235	0x3db9fea5	0.09081773
236	0x3d436e4e	0.047712617
237	0x3d6d3a15	0.05791672
238	0x3c91bad1	0.017789276
239	0x3c920be0	0.017827928
240	0x3cc38c17	0.023870511
241	0xbcbc14cb	-0.022959134
242	0x3d8c30e0	0.0684526
243	0x3dbcfa5f	0.09227442
244	0xbd574c4a	-0.05256299
245	0x3bf99f63	0.0076178773
246	0x3d640079	0.055664513
247	0xbc8c8c69	-0.017156797
248	0xbbc1fead	-0.0059202523
249	0x3ccb2e9c	0.024802499
250	0x3d8d4e6d	0.06899724
251	0x3c3d180d	0.011541379
252	0xbce34df1	-0.027747126
253	0x3d0c5f60	0.034270644
254	0xbcace1a1	-0.021103682
255	0x3bba4231	0.00568416

conv_transpose1.bias f4 [16]
0	0xbcc26d5c	-0.023733787
1	0x3d1faeb6	0.038984977
2	0xbd3754c8	-0.044758588
3	0x3b8436d3	0.004034856
4	0x3cac31c2	0.02101982
5	0x3e1e8ac1	0.15482618
6	0x3d9ad3a4	0.075598985
7	0x3d176b36	0.03696748
8	0x3e34b187	0.17645846
9	0xbcad810d	-0.0211797
10	0x3bf6d485	0.0075326585
11	0xbc326400	-0.0108881
12	0x3c74001e	0.014892606
13	0xbe0ba88e	-0.13638517
14	0xbc9a5266	-0.018838119
15	0x3d341ba9	0.04397169

conv_transpose2.weight f4 [16, 8, 3, 3]
0	0xbd8be653	-0.0683104
1	0xbd48e92c	-0.049050495
2	0xbcf97379	-0.03045057
3	0x3c57415a	0.01313814
4	0xbc9a8228	-0.018860891
5	0xbc8557c2	-0.016277198
6	0x3dca4304	0.098760635
7	0xbdb00ad9	-0.08595819
8	0xbd50948c	-0.050922915
9	0xbd7295f2	-0.05922503
10	0xbd905b93	-0.070487164
11	0xbc977a16	-0.018490832
12	0xbda01059	-0.07815618
13	0x3da7e7bf	0.08198499
14	0x3c28c5e4	0.010301087
15	0xbdcdc2e8	-0.10046941
16	0x3def800e	0.11694346
17	0xbd3f2581	-0.046666626
18	0x3dc8fe28	0.098141015
19	0x3c0628f1	0.008188472
20	0xbcf1a55b	-0.029497793
21	0x3d8f6c4f	0.0700308
22	0x3d910bbc	0.07082316
23	0x3d3860ac	0.04501407
24	0xbd0c8d6e	-0.034314565
25	0xbd84a2c3	-0.06476357
26	0xbcd026b8	-0.025409088
27	0xbde99ff3	-0.11407461
28	0xbd94f422	-0.07273127
29	0xbd2c0d1a	-0.042004682
30	0xbd0aa6c7	-0.033850458
31	0x3da01019	0.078155704
32	0x3ccf3cd9	0.02529757
33	0x3d04f832	0.03246326
34	0xbcc469cb	-0.023976227
35	0x3dbfaf90	0.09359658
36	0x3d7c3eba	0.06158326
37	0x3ca82828	0.02052696
38	0xbde787aa	-0.11305173
39	0x3dc3b5b6	0.09556143
40	0x3dc3e390	0.095648885
41	0x3dc5d9fe	0.09660719
42	0x3c5077b1	0.012723849
43	0x3c88965d	0.016673261
44	0xbd804252	-0.062626496
45	0xbd47c9fd	-0.048776615
46	0xbd89877e	-0.06715296
47	0x3d87afb1	0.06625307
48	0xbd9a0bb7	-0.07521766
49	0xbd660fb6	-0.056167327
50	0x3c86e7c8	0.016467944
51	0x3ce37e28	0.027770117
52	0xbccdf0c1	-0.025139214
53	0x3de0f8cc	0.10984954
54	0xbc0b5399	-0.008503818
55	0xbdb5d2ee	-0.08878122
56	0x3d496f54	0.049178436
57	0x3cf88dee	0.030341115
58	0x3df72db3	0.12069263
59	0x3dc0663d	0.093945004
60	0x3dfaa836	0.12239115
61	0x3de1d288	0.11026484
62	0x3d43d4a1	0.0478102
63	0xbd9504a9	-0.072762795
64	0xbe0aced3	-0.1355546
65	0xbdefed7d	-0.11715219
66	0x3d86d1fc	0.0658302
67	0xbca5d126	-0.020241331
68	0x3b5f5b34	0.003408146
69	0xbd9fb35b	-0.07797881
70	0x3dc09050	0.094025254
71	0xbcd663fe	-0.026170727
72	0xbd44b7bb	-0.04802678
73	0x3b5bcb5f	0.0033537967
74	0xbde5328e	-0.11191283
75	0x3db665d8	0.08906144
76	0xbde4c32f	-0.11170041
77	0xbd781018	-0.060562223
78	0xbdddb922	-0.10826327
79	0xbca723d6	-0.02040283
80	0xbd119902	-0.03554631
81	0x3deb63a4	0.11493614
82	0xbd10f4ce	-0.035389714
83	0xbca869fc	-0.02055835
84	0x3e02356e	0.12715694
85	0x3d086ee1	0.033308867
86	0xbd60151a	-0.054707624
87	0x3e3c3ec0	0.18383312
88	0x3dd8a064	0.10577467
89	0x3e17d210	0.14826226
90	0xbe1c5c3e	-0.15269563
91	0x3d8ce4f0	0.06879604
92	0xbd1472f7	-0.03624245
93	0xbd53aedd	-0.051680434
94	0x3d317dc5	0.043332834
95	0xbd18501a	-0.037185766
96	0xbe1aaaac	-0.15104169
97	0xbe0670ba	-0.1312894
98	0xbd35bb96	-0.04436835
99	0xbca3a1e9	-0.019974666
100	0xbda1f6ed	-0.079084255
101	0x3df59c42	0.119926944
102	0xbe0e617b	-0.13904373
103	0xbdcb8154	-0.09936777
104	0x3d81b870	0.06334007
105	0xbd497975	-0.049188096
106	0xbd70fb9a	-0.058833696
107	0x3dcebca4	0.10094574
108	0xbda7f7c2	-0.08201553
109	0x3d48a9b4	0.048989967
110	0x3d6a9683	0.057272445
111	0x3d06f94a	0.032952584
112	0x3d9b3da3	0.07580116
113	0xbc8e6c86	-0.017385732
114	0xbd2f1bb8	-0.042751044
115	0xbc160974	-0.009157527
116	0x3d5b7e1e	0.05358707
117	0x3dd8051a	0.10547848
118	0x3cb96c3e	0.022634622
119	0x3de26e94	0.11056247
120	0xbacc4168	-0.0015583457
121	0x3dc55fdc	0.09637424
122	0x3d40cbd3	0.047069382
123	0x3d9beda1	0.076136835
124	0xbd864d84	-0.06557754
125	0x3c677507	0.014127023
126	0xbca3a955	-0.019978205
127	0x3e1893fa	0.14900199
128	0x3d64c635	0.055853087
129	0xbd2c4442	-0.042057283
130	0x3cea7272	0.028619025
131	0xbd5642cd	-0.0523098
132	0x3d4df70b	0.050284427
133	0x3da9c96a	0.0829037
134	0x3da85ab0	0.08220422
135	0xbd110325	-0.03540339
136	0xbc960e92	-0.018317495
137	0x3d17b620	0.037038922
138	0xbe05a8b1	-0.13052632
139	0xbdf7ab35	-0.12093202
140	0xbd0d44b4	-0.03448935
141	0xbc91fed2	-0.017821703
142	0xbde5c605	-0.1121941
143	0xbe0ac1d1	-0.13550498
144	0x3caf399f	0.02138978
145	0x3dd006cf	0.10157549
146	0x3c84c071	0.016205044
147	0x3df909be	0.12160061
148	0xbdaa58b0	-0.08317697
149	0x3d0c9948	0.034325868
150	0xbc9204a9	-0.017824488
151	0xbd503a6b	-0.05083696
152	0xbcc36eec	-0.023856603
153	0xbdf7a5b0	-0.12092149
154	0x3e26fad9	0.16306628
155	0x3dbb44ff	0.09144019
156	0x3dc5aeeb	0.096525036
157	0xbc8f1cac	-0.017469727
158	0xbd3617f2	-0.04445643
159	0x3d95de6c	0.07317814
160	0x3db2850d	0.08716784
161	0x3d4712a7	0.048601773
162	0xbd9dd675	-0.0770692
163	0xbdc468fd	-0.095903374
164	0x3d923aeb	0.07140144
165	0x3dbc5595	0.09196011
166	0x3ac5868c	0.0015070005
167	0x3d585d73	0.052823495
168	0x3dbd372e	0.0923904
169	0xbd9f5d36	-0.077814505
170	0xbdc0fffa	-0.09423824
171	0xbdc871c6	-0.097873256
172	0xbdedd680	-0.11613178
173	0xbdf74866	-0.12074356
174	0x3c63f64f	0.013913705
175	0xbc2912bb	-0.010319407
176	0xbe043842	-0.12912086
177	0x3d7d42e5	0.061831374
178	0xbd8562ef	-0.06513011
179	0xbe03119b	-0.12799685
180	0xbd3089ea	-0.043100275
181	0xbdf24d93	-0.11831202
182	0x3d918a97	0.07106512
183	0x3e03e6b1	0.1288097
184	0xbda6a439	-0.08136792
185	0xbe0dc408	-0.13844311
186	0xbaa59f1b	-0.0012635918
187	0xbd95a067	-0.07305985
188	0x3d74c846	0.059761308
189	0xbc494085	-0.012283449
190	0xbdcf67e5	-0.10127238
191	0xbd3a9fea	-0.045562662
192	0x3d9d978e	0.076949224
193	0x3d624989	0.05524591
194	0x3c4a26cb	0.0123383505
195	0x3db8d11c	0.090242594
196	0xbdac9111	-0.08426107
197	0x3d95cc4f	0.073143594
198	0x3b5a7e32	0.0033339378
199	0x3a0b348f	0.0005310261
200	0x3c9e9884	0.019359834
201	0xbe175ab5	-0.14780696
202	0x3d59844a	0.053104676
203	0xbdb3712f	-0.087618224
204	0x3b9577d2	0.004561403
205	0xbc89996d	-0.016796792
206	0xbe1fdd47	-0.15611754
207	0x3dd5dd36	0.10442583
208	0x3d1c6a3d	0.038187254
209	0xbd2d17e5	-0.042259116
210	0x3dce8065	0.10083083
211	0xbdb3304d	-0.08749447
212	0xbd82e9a3	-0.06392219
213	0x3e0ff232	0.14057234
214	0x3c12c389	0.008957752
215	0x3c70105d	0.014652339
216	0xbcf52ea7	-0.029929472
217	0x3d202bfa	0.03910444
218	0xbda66218	-0.08124179
219	0xbd1d29b5	-0.038369853
220	0xbddc6fe8	-0.10763532
221	0xbdeb522f	-0.11490285
222	0x3d8263a7	0.063666634
223	0x3d99d7c7	0.075118594
224	0xbda5034c	-0.080572695
225	0x3d940ab4	0.07228604
226	0x3b9c46a9	0.0047691655
227	0x3d4c3e80	0.049864292
228	0xbc607956	-0.013700804
229	0xbd982575	-0.07429019
230	0xbc82ceb4	-0.015967704
231	0x3de91aa7	0.11382037
232	0xbdcd526c	-0.10025486
233	0x3d946245	0.07245306
234	0xbde59d2d	-0.112116195
235	0x3c62b2c1	0.013836564
236	0x3d9746dc	0.07386562
237	0xbde2a8e8	-0.110673726
238	0x3c4af9a7	0.012388623
239	0x3d568ff1	0.052383367
240	0xbdebb9a1	-0.11510015
241	0xbd29bfc8	-0.041442662
242	0x3dcba576	0.099436685
243	0xbdbfb692	-0.093609944
244	0xbdf0529f	-0.11734509
245	0xbcc114cd	-0.023569489
246	0xbbb385e0	-0.0054786056
247	0x3cf3b94d	0.029751444
248	0xbd8cbf56	-0.06872432
249	0xbda89b70	-0.08232772
250	0x3d33e3b7	0.043918338
251	0x39daf6fd	0.0004176422
252	0xbdd91e16	-0.106014416
253	0xbbfac9a4	-0.007653432
254	0x3c81d448	0.015848294
255	0xbc166564	-0.009179447

conv_transpose2.bias f4 [8]
0	0x3c07ee4b	0.00829656
1	0x3e1562b1	0.14588429
2	0xbd82eab0	-0.06392419
3	0xbcfd2f4b	-0.03090634
4	0xbb670e0f	-0.0035256182
5	0xbd93f084	-0.07223609
6	0xbdcfea78	-0.10152143
7	0x3e14a7e5	0.14517172

conv_transpose3.weight f4 [8, 1, 5, 5]
0	0xbcc606a1	-0.024173083
1	0x3dd563b6	0.10419409
2	0xbe07b83a	-0.1325387
3	0x3ba9cf5b	0.0051821894
4	0xbd8ffe29	-0.07030899
5	0xbce0489c	-0.027378373
6	0x3e0fcd5a	0.14043179
7	0xbd83803c	-0.06420943
8	0x3dc85bb0	0.09783113
9	0xbdd1b74d	-0.1024004
10	0xbd8c6767	-0.0685566
11	0xbe34d463	-0.17659144
12	0x3d2f6935	0.042824943
13	0x3d52a264	0.0514244
14	0xbe5a9ce5	-0.21348913
15	0xbce67273	-0.028130746
16	0xbdb96f5d	-0.09054444
17	0xbe55d24d	-0.20881005
18	0xbd8dd3b7	-0.06925147
19	0xbe665464	-0.2249313
20	0xbe44d2ee	-0.19221088
21	0x3da39a29	0.07988388
22	0xbd94eeee	-0.07272135
23	0x3dbe0ed0	0.09280169
24	0xbdd507be	-0.10401867
25	0x3e1ccb0a	0.15311828
26	0x3dc62600	0.09675217
27	0xbc8b8497	-0.017030997
28	0x3e138cc9	0.14409174
29	0x3e614fe4	0.22003132
30	0xbdd935f4	-0.10605994
31	0x3cb7be39	0.022429572
32	0x3b865364	0.0040992964
33	0xbd91fe69	-0.07128603
34	0x3e3aa7d2	0.18228081
35	0xbe5074ae	-0.2035701
36	0xbdd3dbb5	-0.1034464
37	0x3dd24dbf	0.10268735
38	0x3d9f3ccb	0.07775267
39	0xbc9f56ea	-0.019450624
40	0xbe256b3b	-0.16154186
41	0xbcaf6d8e	-0.021414544
42	0x3d9471d5	0.07248274
43	0xbe1c745c	-0.15278763
44	0xbdbbbd0a	-0.09166916
45	0xbe3aeb80	-0.18253899
46	0xbe1a6a48	-0.15079606
47	0xbd4a81e5	-0.049440283
48	0x3bcb3446	0.0062013
49	0xbdc51019	-0.09622211
50	0xbdf8d68e	-0.12150298
51	0x3d96741c	0.07346365
52	0x3dace90e	0.08442889
53	0xbe38b0cc	-0.18036193
54	0x3cc74c4a	0.02432837
55	0x3da61406	0.08109288
56	0x3e585852	0.21127442
57	0xbcb1db33	-0.021710968
58	0xbe6945c3	-0.22780518
59	0xbd82584a	-0.06364496
60	0x3e561cbe	0.20909402
61	0x3dc82cc1	0.09774161
62	0xbd36ead2	-0.044657536
63	0xbe4c5e56	-0.19957861
64	0x3dfde1f0	0.1239661
65	0xbd21aa58	-0.039469093
66	0x3de5c19f	0.11218571
67	0x3dd3d39a	0.10343094
68	0xbe2ef028	-0.170838
69	0xbe30a043	-0.17248635
70	0xbe1020ff	-0.14075087
71	0xbda5e20c	-0.08099756
72	0x3e04759b	0.12935488
73	0xbd3a6b4d	-0.045512486
74	0x3cdb8e21	0.02680117
75	0x3e18942f	0.14900278
76	0xbd424cae	-0.04743641
77	0xbd9bc77e	-0.076064095
78	0xbdcdc278	-0.100468576
79	0x3da187a4	0.078871995
80	0xbc6d5b19	-0.014487051
81	0x3e2461f4	0.16052991
82	0x3dd80c37	0.10549205
83	0x3e021c57	0.12706123
84	0xbe34623a	-0.17615595
85	0x3e717b28	0.23582137
86	0xbbfc61d4	-0.0077020917
87	0x3e29917c	0.16559404
88	0x3de78f4c	0.113066286
89	0xbe2d7fed	-0.16943331
90	0x3e6522ab	0.22376506
91	0x3e5358c8	0.20639336
92	0x3e0daed4	0.13836223
93	0xbdafb2a9	-0.085789986
94	0xbd956cca	-0.072961405
95	0x3e190591	0.1494353
96	0xbd144682	-0.036200054
97	0xbd5040f7	-0.050843205
98	0x3cb8ee55	0.022574583
99	0xbde8fdcc	-0.11376533
100	0x3e5ef36d	0.21772547
101	0xbca4535f	-0.020059286
102	0x3e208857	0.1567701
103	0xbe272e95	-0.16326363
104	0xbd772acc	-0.06034355
105	0x3e5322e0	0.20618773
106	0xbdcea72a	-0.10090478
107	0x3d715331	0.058917228
108	0xbe5fd311	-0.21857859
109	0x3d91d4d1	0.0712067
110	0x3d4f6286	0.05063107
111	0x3d9ab4d9	0.07554025
112	0x3e218786	0.15774354
113	0xbd29977d	-0.041404236
114	0xbc0de953	-0.008661586
115	0xbe383095	-0.17987283
116	0x3da81159	0.08206434
117	0xbe58f9bb	-0.21189015
118	0xbdfe1285	-0.12405876
119	0xbe4e6756	-0.20156607
120	0xbe06d062	-0.13165429
121	0xbe45f069	-0.1932999
122	0xbe67da58	-0.22641885
123	0xbe245416	-0.16047701
124	0x3c92d9c5	0.017926106
125	0x3dccc8c8	0.099992335
126	0xbe1358a4	-0.14389282
127	0x3d6c22a3	0.05765022
128	0xbd82a37c	-0.063788384
129	0x3c2e50c2	0.010639371
130	0xbe1c20dd	-0.15246911
131	0x3ddd9a5d	0.10820458
132	0xbe0a0393	-0.13477926
133	0xbe24d58a	-0.16097084
134	0x3da90cf8	0.08254427
135	0xbad63cdc	-0.0016345042
136	0x3d90a138	0.07062
137	0x3d87a1a1	0.06622625
138	0x3cd80d7d	0.02637362
139	0x3dc4b96a	0.096056774
140	0xbc7888bc	-0.015169319
141	0xbd260a4b	-0.04053716
142	0x3e50d485	0.2039357
143	0xbd857117	-0.06515711
144	0x3befdc73	0.0073199808
145	0xbe02f9cd	-0.12790604
146	0x3d0da52a	0.03458134
147	0x3e3750b5	0.17901881
148	0x3b409a29	0.0029388762
149	0x3e323038	0.17401206
150	0x3e7b7791	0.2455733
151	0x3e46a2ee	0.1939809
152	0x3df49d21	0.119440325
153	0x3e5705b8	0.20998275
154	0xbde4a65e	-0.111645445
155	0x3daf84ac	0.08570227
156	0x3cdea501	0.02717829
157	0x3e1295f0	0.14315009
158	0x3db5d0ca	0.08877714
159	0x3e24a413	0.16078214
160	0xbd100e42	-0.035169847
161	0xbe29ca4f	-0.16581081
162	0x3d8ec129	0.06970436
163	0xbdf36af4	-0.11885634
164	0xbd3bc6be	-0.045843832
165	0xbe428c70	-0.18998885
166	0xbda4a769	-0.080397435
167	0x3cb77c83	0.022398239
168	0xbe01926c	-0.12653512
169	0xbdc8f8e0	-0.09813094
170	0xbdab1b36	-0.083547994
171	0xbe597918	-0.212376
172	0xbd28e22f	-0.04123133
173	0x3dce633d	0.10077522
174	0x3e2cafab	0.16863887
175	0x3e38abb0	0.18034244
176	0xbd3ecb5c	-0.046580657
177	0x3d07bb45	0.03313758
178	0xbde62b86	-0.1123877
179	0xbdec54ed	-0.11539636
180	0x3e002834	0.12515336
181	0x3d4dbff9	0.050231908
182	0xbd4ed0ef	-0.050492223
183	0xbce2c695	-0.027682582
184	0x3b857589	0.004072849
185	0xbb932a2c	-0.0044911113
186	0x3e075c6e	0.13218853
187	0xbded882b	-0.115982376
188	0xbe185a31	-0.14878155
189	0xbe2c92e3	-0.16852908
190	0x3e1fd5e4	0.15608937
191	0x3c2042fe	0.009781597
192	0xbe0b1a9f	-0.13584374
193	0xbdf583fe	-0.11988066
194	0xbe4c0167	-0.1992241
195	0xbd0bc4ec	-0.034123346
196	0xbdaacd65	-0.08339957
197	0xbc287972	-0.010282861
198	0x3e2e4f11	0.17022349
199	0xbd2060f3	-0.039154958
