code/models/encoder_16.pth (torch, 438370 bytes, 10 tensors)

conv1.weight f4 [8, 1, 5, 5]
00000000: 34b9 b43d 3a77 31bd 00a5 8cbe 9ce5 8abe
00000010: 96e1 73bd b9b4 e63d bbe1 5dbe c67b ecbc
00000020: e990 c13d 5042 20bd 5f16 923d a8b4 573d
00000030: 4225 6fbe 4da2 ff3c c376 60be 3329 743e
00000040: c554 f3bd 0e0e abbc 06c1 22be 18a6 78be
00000050: 26a8 913e 8a2b 943e 2af2 743d 6d22 e13d
00000060: 5693 50bd 524a f83d d9e3 29be 4772 3b3d
00000070: ed99 a43d d388 563e eb0a e8bd 8960 89be
00000080: 75c0 4fbd 8587 38be 354f 27bd 1f3c 44bd
00000090: de28 85be 3b80 1b3e 0d99 a13d 8987 a03c
000000a0: 786f 38be c4cd 2abe f024 36be 87ff 47be
000000b0: 123b 523d 45e0 44be 54cf 763d 3c93 28be
000000c0: 0987 9dbd 601c 443d 2b5e 923d d482 cdbd
000000d0: 960e 32be 581a f1bd 566f 043e e926 74be
000000e0: f82e 4ebe 6976 dabd 0fd0 00be 740e c43d
000000f0: d2c8 bc3d f400 ed3c 29af 97bd fec8 a03c
00000100: 4b30 503e 4009 9e3d 8a7f 23be d817 d8bd
00000110: 8a5a 46be 511b d63b 7ff8 98bd 0a4e 863d
00000120: fb18 b0bd 9e4b 263e 13a7 0ebd f28c 5e3e
00000130: cb1c 1f3e ce12 4c3e 72c0 b93d ff58 0e3d
00000140: 9810 683e f0df 9b3e 1f25 063e f60a 2f3e
00000150: 5a89 50be 9dc6 54be 6961 2a3d 993e 3f3e
00000160: 26b3 c63c bdd5 4c3d 7d31 c3ba 4539 80be
00000170: 2d89 333e 6777 8e3e 30ae 453e bc95 fdbd
00000180: fbbb 413d b807 f1bd ce8b 243e 4b77 083e
00000190: 251a 09be ce06 78be e5e7 8abe 57e0 8fbd
000001a0: fdf1 3a3e d3f9 58be 8c30 8ebe 3316 44be
000001b0: 3ee9 983d e66b 18be ce8e 8abd 2166 12bc
000001c0: d560 8a3e 8447 f6bb 5ff3 4d3d aa0d b7bd
000001d0: 1b30 8e3e 9920 b43e dcb4 a43e 64db 6b3d
000001e0: be1a 70bc 2426 923e 3bda 7b3e cbe0 cd3c
000001f0: 3bb2 f4bd 34da 0bbe 8289 89be e9d6 51be
00000200: d3cd 0dbe 6192 dcbd 1c39 b5bc fd3c 6abe
00000210: be6f 64be e932 cc3d 59b9 0abe 4f42 35be
00000220: 6acb 09bd 568f 02be 8c40 e03d 157e 18bc
00000230: 6f31 43be a4f3 5b3d 9ed7 46be 5951 153d
00000240: ac8a 833e 08e0 003e 5d01 98bd 507d 75bd
00000250: 483b 023d 26bf 6b3e a2d1 61bc 5555 673d
00000260: c797 69bc 97d8 81be 7b3e 02bc ffad 933d
00000270: 7de5 9abd e73f 703e 54d0 0fbe 7a34 66be
00000280: 025c 7bbe 434a 22be 09cf 123e f830 7f3d
00000290: f24a d8bc bd1d 8c3d 9b1b 443e 7722 693e
000002a0: 7cfd dabc 94db 77be bfd7 fdbd 16db b73d
000002b0: b37f ad3c 50c6 a23c ec52 fcbd 88ae d13d
000002c0: 7864 6dbe 72c4 51be aa0f 333e a5b8 22be
000002d0: 735e f73d fe81 b23d c73a f33d f26c 9f3e
000002e0: d8eb 1e3d e6e3 873c 6a19 a53e b381 cc3e
000002f0: 93ee ff3d 6d5d e1bc 4874 89bd 8538 71bc
00000300: f39a 5c3e fc15 403e acb6 bcbd d158 a93d
00000310: cbef 9c3d ad5e fbbc 49d0 e03b b2aa cabc
0.08824387 -0.043326594 -0.27469635 -0.27128303 -0.059541307 0.11264939 -0.2166814 -0.028867614
0.094514675 -0.03912574 0.07133173 0.05266252 -0.23354056 0.03120532 -0.21920304 0.23843841
-0.11881403 -0.020880725 -0.15893945 -0.2428211 0.284486 0.28939468 0.05980126 0.10992894
-0.05092176 0.121235505 -0.16590823 0.04576328 0.080371715 0.20950632 -0.113302074 -0.26831463
-0.05072065 -0.18020447 -0.040847022 -0.0479089 -0.26007742 0.15185635 0.0789052 0.019595878
-0.18011272 -0.16680056 -0.17787528 -0.1953107 0.051325865 -0.19226177 0.060256317 -0.16462415
-0.076917715 0.047878623 0.07146867 -0.10034719 -0.17388377 -0.11772603 0.12933096 -0.23842968
-0.20135105 -0.10667116 -0.12579368 0.09573069 0.09217991 0.028931119 -0.07406456 0.01962709
0.20330922 0.07716608 -0.15966621 -0.10551423 -0.19370475 0.006534018 -0.07469272 0.065578535
-0.08598515 0.16239783 -0.034827303 0.21733454 0.15538327 0.19929048 0.09069909 0.034752842
0.2266258 0.30444288 0.13100098 0.17094025 -0.20364895 -0.2077889 0.041596804 0.18676223
0.024255347 0.050008524 -0.0014892068 -0.25043693 0.17532797 0.27825472 0.19304729 -0.12382075
0.047298413 -0.1176905 0.16068956 0.13326757 -0.1338888 -0.24221346 -0.27130046 -0.07025211
0.18256374 -0.2118905 -0.27771413 -0.19149093 0.074663624 -0.1488491 -0.06765519 -0.008935482
0.27027002 -0.0075158495 0.050280925 -0.08938153 0.27771077 0.3518112 0.32169235 0.057582274
-0.014654813 0.28544724 0.24594967 0.025131604 -0.11948057 -0.13657457 -0.26862723 -0.20492138
-0.13848047 -0.10770107 -0.022121958 -0.22874828 -0.22308251 0.09970648 -0.13547267 -0.17701076
-0.033641256 -0.12749991 0.10949811 -0.009307404 -0.19061826 0.05369915 -0.19418189 0.036454532
0.25691736 0.12585461 -0.07422135 -0.05993396 0.031794816 0.23022136 -0.0137828905 0.056477863
-0.014257378 -0.25360557 -0.007949467 0.072109215 -0.07563303 0.23461877 -0.14044315 -0.22480956
-0.24546817 -0.15848641 0.1433679 0.06230256 -0.026402924 0.068416096 0.19151156 0.22767054
-0.026732199 -0.24204856 -0.12394666 0.08977334 0.021179056 0.019869953 -0.123205036 0.10238367
-0.23182857 -0.20485094 0.17486444 -0.15890749 0.12078562 0.087162 0.11876445 0.31137806
0.038799137 0.016588163 0.32245952 0.39942703 0.12496676 -0.02751037 -0.06711632 -0.014722948
0.21543483 0.18758386 -0.092145294 0.082688935 0.076629244 -0.030684793 0.006860767 -0.024739597

conv1.bias f4 [8]
00000000: 6571 28be 5963 cd3d 0f0c 6c3e ba1f 4b3d
00000010: bada aab9 ca30 943d ef4b 363e e766 353c
-0.16449507 0.10028715 0.23051475 0.049590804 -0.0003258789 0.07235868 0.17802404 0.011071897

conv2.weight f4 [16, 8, 3, 3]
00000000: 5e0b 42bd ae0c 3aba de67 b5bc 720b c9bd
00000010: bda1 f73b eb6d 0a3d aec9 06be 1293 17be
00000020: 8ecd 23be 5343 0d3e bf74 2b3e 4be6 0a3e
00000030: c105 cb3d db84 073e 1cdf b7bc d284 783d
00000040: 4823 783d 02b3 a0bd 2c90 8b3d eb88 debc
00000050: 51f4 603d 26ac ea3d cf67 803d 08cd 05bd
00000060: 2f7f 5fbb 086b e53d 7caa 43bd f58d 4e3d
00000070: 67d2 0ebd b58a a5bd 1b7e bfbd f8fd 243e
00000080: f129 f43d 8d0e ce3d d4f6 e53d 4eb5 213d
00000090: c2db 27bd 559c 8d3d 44f6 873d 6c4b 3ebd
000000a0: 138e a23d 5cc3 f53d b0fe cf3d 428f 5a3d
000000b0: 30c4 823c c036 023e 9acd 833d 1a51 973d
000000c0: 5882 113e d3c2 6a3d 7de0 e73d b0fb 033e
000000d0: f457 553e b809 383d e3bf 053e ee80 033e
000000e0: 7431 ff3d 4ccb a73d aa66 183e 5809 e53d
000000f0: 190c 013e efb2 f33d e94c 893c 665b 1a3e
00000100: 5ad0 2b3e fe2c 093d 8c7d f83c 01da 183e
00000110: 544f f93d 088a 323d 5f8a 963d 8695 053e
00000120: 3c80 87bd 48ef 5a3d ca48 fd3c a86a 7dbb
00000130: 4e17 96bd c1c5 97bd fdce f6bc 398b 96bd
00000140: b128 9abc 10e4 87bd b94b 923d f05f 293e
00000150: fe2e 9eba 1752 cebc 2ed0 e3bd 1cd1 a4bd
00000160: 4081 073e 1f26 85ba fedf 0f3e 5e73 163c
00000170: 8e5e 2d3d aac0 253e 71f4 a9bd d894 e03d
00000180: 8166 a53c 795f 653d b573 95bc 448c d6bc
00000190: b230 9d3d 6664 093d 8c4d b33d faf1 a53d
000001a0: 5127 2d3e f537 413d 4d5c 9a3d 0031 b43d
000001b0: 3612 cdbc ea39 0b3d 3f00 3d3e cb80 93bd
000001c0: 021b 183e ecf6 a33d 2090 e53b 7942 30be
000001d0: 0679 14be ef33 c03c dab8 763d dc3c 4bbb
000001e0: ad02 793d 5948 85bd 0554 8abd 3fb4 e5bd
000001f0: c902 fcbd 2977 1fbe 70be 7d3d cddb 493e
00000200: 95b3 1e3e 6f9a 9e3d f97b 2c3e 8f17 6cbd
00000210: 5bbc 46bd 42ec 073c 362c 4d3e ae23 fd3b
00000220: 891d 18bd 8baf 113e d43c e83d 586a 703e
00000230: 8941 233e 778a 153d 4e77 2f3e 19c9 e43c
00000240: bd6e de3d 6450 f4bc 5c99 0ebe 150d 313c
00000250: 2479 f43d 753e 673e 047c 6fbe 9664 a13d
00000260: b349 5a3e 901d 9dbc dbfa 0bbe 4857 803e
00000270: 952a efbc e986 5ebe 5da9 843d 0924 25be
00000280: 8f91 3bbe 06ac 663e 93f1 cdbc aaba 783d
00000290: bf75 0a3e 4f64 7fbd 2df3 a53d 813b a03c
000002a0: 89c2 d33d 1e18 8e3d f412 153e c41e babd
000002b0: 9bdc c93d 05b5 43bd 2772 b93d fb44 ec3d
000002c0: f383 16bd df74 473e df27 a2bc a277 973b
000002d0: 156d 00bc 0716 07be 2a99 b3bd 2b49 133c
000002e0: 991e 7fbe d4f0 9fbd 1875 a5bc 4820 44be
000002f0: d7e4 193d cec7 48be 60ca 1ebe c5b5 21be
00000300: a194 7abe 80c4 f9bd f0a5 34be 6e7b 84be
00000310: d52a 85bd e84c c73d 4046 2b3e 6a43 85be
00000320: 69d0 02be fdcf 113e 9082 43be b9ab 66bc
00000330: d8de fd3d b575 323e 25d5 653e 984f 253e
00000340: 437f 183e b2c3 2b3c 5d2f a43d c8e6 babc
00000350: 2113 79bd 2cc1 abbd 64ef 70bd 9455 b43c
00000360: d9fc b8bd 138f e8bd 40ad 563d 37d8 773d
00000370: c26e ccbd dd78 2c3d 907a 353d 85b5 a9bd
00000380: 9cfb 04be d1d7 913c ef3b 2e3e c6e4 4f3e
00000390: 8770 0c3e e10c 04bd 1627 d13d b36d 493e
000003a0: f065 053e 8acd 0a3d d54f 51bc 711a 19bd
000003b0: 982e 13be 536f 1cbd 5f46 c13d 00dc c33d
000003c0: 304a 873d 2de2 1f3e 584d cb3d deb5 08bd
000003d0: 1abc 1b3e 0e02 b4bb 1bee 9c3c bdad b13d
000003e0: 4039 edbc a367 c1bd 1319 353d 31b3 ac3c
000003f0: aaab 88be f667 b8bd c2ce 8abd 0652 5bbe
-0.04737412 -0.00070972263 -0.022144254 -0.09816636 0.0075571225 0.033796232 -0.13162872 -0.14802197
-0.15996382 0.13795213 0.16743754 0.13564412 0.09913207 0.13234274 -0.022445254 0.060673542
0.06058052 -0.07846643 0.06814608 -0.027164897 0.0549205 0.11458616 0.062698 -0.032666236
-0.0034102907 0.11202055 -0.04777001 0.05042835 -0.034868624 -0.08083097 -0.093502246 0.16112506
0.11922062 0.10061369 0.11228719 0.039479546 -0.04098106 0.069145836 0.06638768 -0.046458647
0.07937255 0.120001525 0.10156 0.053359278 0.01596269 0.12716198 0.064357 0.07388516
0.14209878 0.057314705 0.113221146 0.1288898 0.20834333 0.044931144 0.1306148 0.12842152
0.12460604 0.08193073 0.14882913 0.11183423 0.12602271 0.11899363 0.016760306 0.15073928
0.16778699 0.033490174 0.030333303 0.14926912 0.12173334 0.043588668 0.07350611 0.1304532
-0.06616256 0.053450853 0.030918498 -0.0038668308 -0.07328664 -0.074107654 -0.030127997 -0.07350773
-0.018818231 -0.06635296 0.07143349 0.16540504 -0.0012068448 -0.025185628 -0.111236915 -0.08047697
0.13232899 -0.0010158456 0.1405029 0.009182779 0.042326503 0.16186777 -0.082985766 0.1096589
0.02019048 0.055999253 -0.01824365 -0.02618993 0.076753035 0.033543013 0.08755025 0.08102794
0.1690953 0.047172505 0.07537136 0.087984085 -0.025033098 0.033990778 0.18457125 -0.072023
0.14854053 0.08006081 0.0070057064 -0.17212857 -0.14499292 0.023462264 0.060234882 -0.0031011617
0.060793567 -0.0650794 -0.06754307 -0.1121602 -0.12305219 -0.155728 0.061949193 0.19712754
0.15498193 0.077442996 0.16844167 -0.057639655 -0.048519474 0.008296074 0.20036396 0.0077252006
-0.037137542 0.1422712 0.11339727 0.23478067 0.15942968 0.036509003 0.17135355 0.027927922
0.108609654 -0.02982349 -0.1392569 0.010806342 0.11937168 0.22582419 -0.23387152 0.07880513
0.21317177 -0.019179136 -0.13669913 0.2506659 -0.02919511 -0.21731152 0.06477616 -0.16127028
-0.18317245 0.22526559 -0.025139606 0.06072489 0.13521479 -0.06235152 0.08103023 0.019559624
0.10339839 0.06938194 0.14558011 -0.09087899 0.0985653 -0.047780056 0.09054976 0.115365945
-0.03674693 0.19478177 -0.019794403 0.0046224156 -0.007838507 -0.13191997 -0.08769448 0.008989613
-0.24914016 -0.07809606 -0.020197436 -0.1915294 0.037571754 -0.1960747 -0.15506887 -0.15791996
-0.2447076 -0.121956825 -0.17641425 -0.2587542 -0.0650231 0.097314656 0.16726017 -0.26027995
-0.12774815 0.14239497 -0.19092774 -0.014079028 0.1239602 0.17427714 0.2244459 0.16143644
0.14892296 0.010483669 0.08016846 -0.022815123 -0.06080926 -0.08386454 -0.05882205 0.022013463
-0.09032602 -0.11355414 0.052411318 0.060508933 -0.09982063 0.04210745 0.044306338 -0.08286575
-0.12986606 0.017803105 0.1701505 0.20302114 0.13714801 -0.032238845 0.10212533 0.19670753
0.13027167 0.033887424 -0.012775381 -0.037378732 -0.14373243 -0.038192105 0.0943725 0.09563446
0.06605947 0.15613623 0.099268615 -0.033376567 0.15208474 -0.005493409 0.019156506 0.08675716
-0.028957963 -0.09443595 0.044213366 0.021081539 -0.2669347 -0.09004204 -0.06777717 -0.21418008

conv2.bias f4 [16]
00000000: ed95 013e df36 3cbc 6638 c13d 344b 103d
00000010: 5945 c73b 71f9 3f3d fc9e 4e3d 00a1 59bc
00000020: a822 1f3e 9b73 dbbc abc2 8abc 2637 b43d
00000030: 2e4b f5bc 786b 0e3b 1a98 1abd 20e3 ba3c
0.12654848 -0.011487692 0.09434585 0.03522797 0.006081265 0.046868745 0.050444588 -0.013283014
0.15540564 -0.026788523 -0.016938528 0.08799581 -0.029943075 0.0021731537 -0.03774271 0.02281338

conv3.weight f4 [32, 16, 3, 3]
00000000: dd5e b73a 1f8a a1bc 4a85 283c 2eda 6f3d
00000010: 15b8 873d 97d1 1c3c 2b3d 01bd 7969 013e
00000020: 2474 253c 8384 a2bb a7b3 8a3d 8ca1 863c
00000030: 9948 ef3d 4650 d63d d471 1b3e f050 26bd
00000040: 90de 163d b082 50ba e3c0 c8bd ea0c f6bd
00000050: 989b d8bd c155 adbd 9388 883c a5f6 6fbd
00000060: 1a6a fc3c cd2e 0b3d 4b2f ac3d 0fda 003e
00000070: 9aea b33c aa65 5bbd beb5 f83d 82ee ad3d
00000080: 2ced bc3c 0caa 16bd 2ded 703d 8359 283d
00000090: a20f b43d cf12 fe3d e1bf 283c f95f 8f3d
000000a0: 1e00 e23d 29e3 7f3d a585 82bc 682e d5bc
000000b0: 2a7a 8d3c b6ed a83d 5e48 df3d 4cca c4bd
000000c0: 2408 483d 9ceb afbd 05d4 b5bd 28a6 193e
000000d0: b25f 8c3b def9 d93b 4637 533d 7864 f13d
000000e0: 52d0 8a3d aa97 c03d eaae 483c b938 e33d
000000f0: 9390 c73c af33 df3d 8e2f 093d 9893 ecbd
00000100: e699 17be cd2d 6c3a 765b 0a3c fb2d cbbd
00000110: 9bef 923d eebc c7bd e998 96bd 78eb ad3b
00000120: 6758 03bd ec65 723d 350c 563d 740f 983d
00000130: 764b 6b3c d23f 6a3d 94d4 593d be8d bc3c
00000140: a1e8 013e d860 0bbd 161e bf3c 0b50 3cbc
00000150: f97d f6bc 1f79 ea3c e918 d13d b0bc b73d
00000160: 436c 21bc 7cca 733d f59e 843d 8842 753b
00000170: 320e 4c3d d43a dc3c d93d ceba 8556 05bd
00000180: ab7a 873d aafa 17bd aeb6 afbb f7bd c53d
00000190: f7b1 803c d795 86bc 4121 533d 444d d8bc
000001a0: 6673 8bbb c527 973d 21dc 003e bb1b 22bc
000001b0: b4c6 b13d 49c0 0bbc 9017 163d 1c7b 573d
000001c0: e6e0 87bd 740b 5b3d 7357 5dbd 0f39 b7bd
000001d0: bab3 abbc e753 2f3d 3d2f 023c 5da5 ddbd
000001e0: 893e d13d d493 903d f378 71bd f965 883d
000001f0: 0e70 2e3c 39eb 5e3d 1a9c 00bd a093 803c
00000200: d2c1 b0bb 42f2 d73d a519 ac3d 0243 823d
00000210: 1a72 8fbb 4c70 a1bc 1300 a13c 8cdf a23b
00000220: 4c5f a6bd 2cf8 03be 0e94 9cbd 4179 dcbd
00000230: 8c52 71bd d650 7bbc 78a1 e0bd 2fd9 82bd
00000240: b8ad 18be d6a0 e3bd 893d 83bc c9df 42bd
00000250: b45e c8bc fa2c 83bb ce37 bbbc 4feb 8b3d
00000260: b24a 91bd 8d45 b2bb 4d11 98bd 8157 10be
00000270: b9d0 97bd 94ec f0bd 4dbe d23c 6ede 793d
00000280: 5d97 04be ed4f 2b3c 6f5e 843d 0e4b 183d
00000290: 6396 e8bd 5519 213d 1884 903c 5332 f8bd
000002a0: 3820 1c3c 970c a73c 92d7 1a3d cd7b 0e3e
000002b0: 2394 853b dd12 853c a725 9ebc bcff 8f3c
000002c0: bd9f 9ebd d079 11be 57d2 26be 7d3c a1bd
000002d0: 0f1b dbbd 1bde 903c 5cbb 8f3d 45ed 263d
000002e0: 4121 b23d 32d0 1b3d 578e 993d cf07 263d
000002f0: 5e15 18bd 5b2c 0b3f 5f73 053f 46df 993e
00000300: 792c c43e 544a a03e 36a8 9e3e fa91 ff3d
00000310: 04dc 033e fe1f 153e 14ee 0e3e e9e4 6d3e
00000320: eb18 ae3e 64ba 983d 4894 063e cd53 473e
00000330: 236a c9bd 48a9 943c 3e55 3c3e 7d5e 85bc
00000340: 2c55 453d 9cfc f03c 46d8 16bd 0089 4fbd
00000350: cd95 9c3c 278e 023d 99d3 53bd ee09 1f3d
00000360: 1343 c23c a90a 153d 0df6 2c3d ed8b 933d
00000370: 624e 77bd 15aa 51bd cac4 373d 9d68 0f3e
00000380: 8cc7 f13d 4276 4bbe ec17 16be 0049 c3bd
00000390: 213e f3bd 7cd0 6dbd 7948 8dbc 5016 803d
000003a0: f1a3 1dbd fabb 48bc 0144 2a3e a6e7 a03d
000003b0: 7ed8 313b 7a14 a53d e051 653e 4c38 313e
000003c0: 4b1a 433e cd35 7c3e c987 993d 054f 3c3e
000003d0: 2178 4f3e d1b2 fb3d 9e85 483e 6faa 9f3e
000003e0: ad76 ef3d 23ee a43c 58e1 203e 30d8 9a3d
000003f0: b60b 9a3c 42df 54bd cc4f c8bd 8e41 00be
0.0013990063 -0.019719182 0.010285685 0.05855768 0.06626908 0.0095714545 -0.031552475 0.12637891
0.010098491 -0.0049596443 0.06772547 0.016434453 0.11683769 0.1046453 0.1518014 -0.04060453
0.036833346 -0.0007954044 -0.09802415 -0.12014182 -0.10576552 -0.08463622 0.016666686 -0.058584828
0.030812312 0.03398018 0.08407458 0.12583183 0.021962453 -0.05356375 0.121440396 0.084927574
0.023062311 -0.036783263 0.05881994 0.04110099 0.08792044 0.12405931 0.010299654 0.07000727
0.110351786 0.062472496 -0.015932867 -0.026023105 0.017270166 0.08248465 0.10902475 -0.096088976
0.04883589 -0.08589861 -0.0887833 0.1500479 0.0042838687 0.006652101 0.051566385 0.11786741
0.06778015 0.094039276 0.012248734 0.11094803 0.02436093 0.1089853 0.033492617 -0.11551589
-0.14804801 0.00090095104 0.008444658 -0.099208795 0.07174607 -0.09752832 -0.07353384 0.005307611
-0.03206673 0.05917923 0.052257735 0.074248224 0.014361253 0.05718977 0.053181246 0.023016807
0.12686397 -0.034027904 0.023329776 -0.011493693 -0.030089365 0.028622208 0.10209829 0.08971536
-0.009852472 0.059519276 0.06475631 0.003742369 0.049818225 0.02688352 -0.0015734985 -0.032553215
0.06615194 -0.037104286 -0.0053623533 0.096553735 0.01570986 -0.016428871 0.051545385 -0.02640403
-0.0042557 0.07380632 0.12583973 -0.009894307 0.08680478 -0.008529731 0.036643565 0.05260764
-0.06634693 0.05347772 -0.054038476 -0.0894643 -0.020959724 0.042804625 0.007945833 -0.10822556
0.10217006 0.07059446 -0.058953237 0.06660075 0.010646833 0.054423545 -0.03139887 0.015695393
-0.005394199 0.10544254 0.08403329 0.06360437 -0.0043776156 -0.019706868 0.019653356 0.0049704965
-0.08123645 -0.12887639 -0.07645427 -0.10765315 -0.058916613 -0.015339097 -0.10968298 -0.06389081
-0.14910018 -0.111146614 -0.016020553 -0.0475767 -0.02445922 -0.0040031644 -0.022853758 0.06831991
-0.07094325 -0.00544042 -0.07425175 -0.1409588 -0.074128576 -0.11763874 0.025725508 0.06100314
-0.12948366 0.0104560675 0.06463324 0.037180953 -0.11356809 0.0393308 0.017641112 -0.121189736
0.009529166 0.020391745 0.03780324 0.13914414 0.004076497 0.016244346 -0.019305063 0.017577998
-0.077453114 -0.14206624 -0.16291176 -0.07872865 -0.106985204 0.017684033 0.07018158 0.04075362
0.08697749 0.038040347 0.07497852 0.04053479 -0.037129752 0.54364556 0.5212917 0.30053157
0.3831518 0.31306708 0.3098771 0.12479015 0.12876898 0.14562985 0.13958007 0.23231854
0.34003386 0.07457426 0.13142502 0.19465561 -0.09834697 0.018147126 0.18391892 -0.016280407
0.04817693 0.029417329 -0.03682735 -0.050667763 0.0191144 0.03187385 -0.051715467 0.03882783
0.023713624 0.03638712 0.04222684 0.07204423 -0.060377486 -0.051187593 0.044865407 0.1400475
0.11805639 -0.1986933 -0.14657563 -0.09535408 -0.118770845 -0.058060154 -0.017246472 0.06254256
-0.038486425 -0.012251848 0.16627504 0.078566834 0.0027137096 0.08060546 0.22394514 0.17306632
0.19052999 0.24629898 0.07496602 0.18389519 0.2026067 0.12289966 0.19582221 0.31184718
0.116925575 0.020133084 0.15710962 0.07560766 0.018804412 -0.051970728 -0.09780845 -0.12525007

conv3.bias f4 [32]
00000000: c1ae 143d 1fac 9c3c 8203 95bc 7799 663d
00000010: 1ea3 72bd 997a 583b e5be b1bd 1f2f a3bd
00000020: 4ba0 31bd 8d7c b93d d16f ca3c a6b3 b43d
00000030: f7c3 c7bd 7307 adbd cabb 7c3c 042c 843d
00000040: 19ab 22bd 8346 9d3d 43c7 4e3d 1342 12bd
00000050: d0b5 af3c bc2a 243c 00a5 72bd 805c 11bd
00000060: ddde 9fbd 8dfb b5bd b572 babc 1405 80bd
00000070: 9d3e 633d e280 bd3d 0ef1 a23d 43db 8fbd
0.03629947 0.019125042 -0.01819015 0.0562987 -0.059237592 0.0033032058 -0.08678988 -0.07967972
-0.043365758 0.09056959 0.024711521 0.08823328 -0.09754174 -0.084486865 0.015425632 0.06453708
-0.039713953 0.07679465 0.050483 -0.035707545 0.021449 0.010019954 -0.059239388 -0.035488605
-0.0780618 -0.0888587 -0.022759775 -0.062509686 0.055479635 0.09253098 0.07956134 -0.07024243

fc1.weight f4 [16, 3200]
00000000: 5206 00bc 6e6f d13b d43b 0c3d 9894 943d
00000010: 376b 113d fc03 e03c fef4 2b3c 7183 a4bc
00000020: fc0c 8bbb 4738 0f3b 4c09 583d f138 033d
00000030: 6189 a73c 8f16 f23c 16bb 603d 101b 543c
00000040: 01a7 0d3d 9793 1ebc d7e4 753c d4ad 163d
00000050: 5d14 633d 363c 043d cc98 8f3c 0b81 52bc
00000060: 089c cc3c 8ad5 143d ff87 e23c 87e2 143b
00000070: 5e7f 9939 ef76 983b 52c1 d73c 6f3f 023d
00000080: 6007 d9ba 3dcb 2abd 6ab6 4cbc 013a 803c
00000090: 937f e23c 2d59 083c 8145 34ba 5a88 f43c
000000a0: 92ca a53c d2dd 013c e60d 113a f2cd 6cbc
000000b0: 0577 143c 4bff 103d 3efd a43c 0d07 b3bb
000000c0: 9dd5 993c 826b 3c3b 9c1a 9e3d 73b6 003d
000000d0: b012 f33c 45eb 3d3d 5a34 de3c b133 e93c
000000e0: dfe9 7c3c 52e1 8f3c e343 973c 6c00 c33c
000000f0: f3ac 313d 204c cf3c 339d 483d 6423 c73c
00000100: 43ad ee3c d4d7 f13c 6dfa c63c 5d7a 9e3c
00000110: 8e8f 00bb daeb 963c 5d6e 4dbc f589 a53b
00000120: 8029 ea3c 1ac0 e63c 66a5 003d 8dc9 103d
00000130: d458 053d b7ed 7a3c c57e 0c3d 3724 1f3c
00000140: ec45 e0bc 79f6 00bd a8f8 9abc be35 1d3b
00000150: 496d 853b 566d e8bc 5fab d93a ba08 273c
00000160: 4e3f 263d 0a05 873c ab29 11bd 5fa0 033c
00000170: c9af a43a 13fd a93b c5b0 5f3c 5373 fb3b
00000180: 0e8a 2e3d 7da3 da3c daf7 fb3c a97e 103d
00000190: 81bf 1e3d e9ff 913c cf25 9d3b 2518 f63b
000001a0: aaa9 1dbd 7579 77bd 7b0d b0bc 7b9d da3c
000001b0: 879a c83c 3992 afba d3af 303d 50ea 4f3d
000001c0: 5083 b73c 0283 ef3c 6cbd 58bc bb10 88bd
000001d0: 5640 65bd 021e 233c 0487 343d 7910 a53c
000001e0: f5ee 853d b9c7 783d 165f 7c3d 5636 313d
000001f0: c0bc e43c 37bb 113c a7a3 13bd 7b13 b1bc
00000200: 5eef 863c 34d4 103d 309b e9ba b6c8 8c3c
00000210: bf54 d53c ac18 013d 360b 963d 1b6f c73d
00000220: f63a 943c be94 453d 80cb 2a3d 341d 223d
00000230: 0b12 7dbd 125d a5bc 1383 a0bc a435 7aba
00000240: 451b 783d 35d6 f63c 1a67 ab3c 8fc7 663c
00000250: 12de 353c 2041 133c e5e0 01bd 6afb 2fbc
00000260: 52f5 0c3d 0ec8 fb3b cee4 28bc d548 f2bc
00000270: 18d6 78bc 806d 6d3c ad2b 20bc 1c2e e63b
00000280: 0024 1bbd 9304 a4bc 65d8 64bd f5f7 cdbc
00000290: b424 bc3b aa48 a5bb 86b8 adbc bace bbbb
000002a0: c56e c4bc 4dcd 603c 1433 053d 2fbf 183d
000002b0: 6fba 01bd c75c b8bc 1cd3 3c3c fe51 133c
000002c0: 9f2e d0bc f9f0 263c c8eb 983c d8d2 a63c
000002d0: ff8a e93c 047c a03d da97 933d ba7e 8d3c
000002e0: 60b6 143d bcc4 a93c 3bb6 753c a4e8 313d
000002f0: 952b 583d 3553 dc3c cf70 093d 31ba 583d
00000300: 0f65 8b3d 2d6c 893d 70d4 603d 1969 393d
00000310: 5d18 2b3d 65b0 583d ebed 063d 07e6 2bbb
00000320: a997 17bd b9b2 86bd e211 78bd 2ba9 81bc
00000330: 12a1 ca3c 80ac 8e3d 46ca 933d ec8b 033d
00000340: 8c13 83bc 149a 0ebd 062f cabc bda0 823a
00000350: e512 00bd f869 69bc 55a0 9f3a c166 223d
00000360: f68d 533d c517 1f3d 782d 0ebd 7139 c2bc
00000370: 383f 67bc 4755 78ba 2d30 b2bb f21f 43bd
00000380: a321 81bd 2f0a f1bc 6d85 fe3c 2523 943c
00000390: 9298 d239 3d1b b9bc 1df8 c63c 9284 1f3d
000003a0: a16f 133d 53d7 88bd cad3 9abd b902 03bd
000003b0: 2ce9 683c 7e45 963c 328f 6dbc 922e 14bd
000003c0: c2db d43c 81af 3f3d a315 213d d925 443c
000003d0: 6658 f2bc ea5a 56bd 45b5 2c3c 21f1 313c
000003e0: c612 d4bb 1ba5 6ebc 0ef7 253d eafe dc3c
000003f0: 64cd 123d 1e13 433d 1a83 903d 726e 573d
-0.007814007 0.0063914573 0.034236744 0.072549045 0.03550264 0.02734565 0.010495422 -0.020082207
-0.004243491 0.0021853612 0.05274324 0.032036725 0.02045125 0.029551772 0.05486592 0.012945905
0.034583095 -0.009678743 0.015008173 0.03678687 0.05543934 0.032283984 0.017528914 -0.012848149
0.024976745 0.03633646 0.027652739 0.0022718029 0.0002927733 0.00465285 0.0263373 0.031798776
-0.0016557984 -0.04169773 -0.012494663 0.015652658 0.027648723 0.008322042 -0.0006876812 0.029850174
0.020238195 0.007926421 0.0005533382 -0.014453398 0.00906158 0.035399716 0.020140287 -0.005463487
0.018778617 0.0028750603 0.07719919 0.031423997 0.029671997 0.04636695 0.027124573 0.028467031
0.015436619 0.017563496 0.018464988 0.023803912 0.043377828 0.025304854 0.04897804 0.024308868
0.029135352 0.02952186 0.024289334 0.019345457 -0.0019616815 0.01842301 -0.01253852 0.005051846
0.028584242 0.028167773 0.031407736 0.035348464 0.032555416 0.015315465 0.034300584 0.009713224
-0.027377091 -0.031485055 -0.018917397 0.0023988332 0.0040718657 -0.028372448 0.0016606859 0.010194952
0.040587716 0.016481895 -0.03544013 0.008033841 0.0012564595 0.0051876395 0.013652985 0.00767366
0.042612128 0.026689285 0.030757833 0.035277043 0.03875685 0.017822223 0.004795767 0.0075102025
-0.038491882 -0.060418565 -0.021490803 0.02668642 0.024487747 -0.0013395018 0.04313643 0.050760567
0.022401482 0.029237274 -0.013228755 -0.06643816 -0.05596956 0.009955885 0.044074073 0.020149456
0.06539718 0.060737345 0.06161412 0.04326471 0.027922034 0.008894733 -0.036044743 -0.021615734
0.016471561 0.035358623 -0.0017822739 0.01718555 0.026041387 0.03151767 0.07326357 0.097379886
0.018094521 0.048237555 0.04169798 0.03957863 -0.061784785 -0.020185981 -0.019593751 -0.0009544736
0.06057288 0.030131439 0.020923186 0.014085664 0.011100309 0.008987695 -0.031708617 -0.010741094
0.034413643 0.0076837605 -0.010308458 -0.029575745 -0.015187763 0.014491439 -0.009776038 0.0070245396
-0.03787613 -0.020021712 -0.055870432 -0.02514265 0.00574168 -0.0050440626 -0.021206152 -0.005731431
-0.0239786 0.0137208225 0.032519415 0.037291702 -0.031671938 -0.022505177 0.011524942 0.008991716
-0.025412856 0.010189288 0.018667117 0.02036421 0.028508661 0.07836154 0.07206698 0.017272342
0.03630674 0.020723693 0.01499706 0.043434754 0.052775938 0.026895145 0.03355485 0.05291194
0.06806385 0.06710086 0.054890096 0.045266245 0.04177128 0.052902598 0.03294174 -0.0026229636
-0.03700987 -0.065770574 -0.06056393 -0.015827736 0.024735007 0.069664955 0.07216315 0.03211586
-0.016000532 -0.03481491 -0.024680626 0.0009966117 -0.03126802 -0.014246456 0.001217852 0.039648775
0.051649056 0.038841028 -0.03471133 -0.02370903 -0.014114194 -0.00094731565 -0.005437872 -0.047637887
-0.06305244 -0.029423801 0.031069482 0.018083164 0.00040167995 -0.022595996 0.024288232 0.03894479
0.03599513 -0.06681695 -0.07559927 -0.03198502 0.014215749 0.018343683 -0.014499472 -0.036177225
0.025983695 0.046798233 0.039327275 0.011971914 -0.029583167 -0.052332796 0.010541265 0.010860712
-0.0064719645 -0.014565731 0.040518813 0.026977021 0.035840407 0.047625653 0.07056256 0.052595563

fc1.bias f4 [16]
00000000: 573d 533c bad7 903c bfec e73c d1d8 db3c
00000010: b05a 92bc 65f5 24bb b05c babc 9c6a 933c
00000020: 8a08 b7bc 5c47 bd3a f588 d23c 51ab ef3c
00000030: 284f de3b 3120 5dbc d320 deba 1580 e43b
0.0128930425 0.017680991 0.028311132 0.026836785 -0.017865509 -0.002517068 -0.022749275 0.017995171
-0.022342939 0.0014440822 0.025700072 0.029256495 0.0067843385 -0.013496445 -0.0016947038 0.0069732764

fc2.weight f4 [16, 3200]
00000000: f841 c8bc 1cad edbc 632f 7f3b 4745 cfbb
00000010: 9e9b 3b3b 7e38 ffbc 0782 483a b6c0 733a
00000020: aba0 80bc 655f 2cbc 3823 b1bc bef6 12bd
00000030: a349 06bd 289d 09bc e98f 6dbc 1c3f febc
00000040: b87a 0fbd 26d2 16bd 61a3 09bd 7189 e03b
00000050: a675 c6bc 7101 aebc 25d0 61bc 3a60 e2bb
00000060: 14f6 2dbc 7297 eabc c6b9 8fbc f7cf 89bb
00000070: bac5 a4bc 8b1c d9bb 29bc 16bd adae fcba
00000080: 235a fdbc 3dd9 0fbc fc93 b3bc 7efa a7bc
00000090: 8a11 95bc cb9d d1bc e43f 65bc 57f6 cb3b
000000a0: 4cad 10bc 6b8a 02bd 5a46 fbbc 0d7c 92bb
000000b0: 0088 f9bc 29e2 dabc f5d1 323b c4e5 77bc
000000c0: 3009 76bb f04f 82bc f9bd ecbc 4861 1dbc
000000d0: a7ad 21bc d511 e8bc 92b7 b43a 8d33 efbb
000000e0: a855 f7bb 8568 75bc 6022 c7bc 8553 d6bc
000000f0: 9a6c 9fbb 9861 d5bc 68ad 16bd 4e69 8dbc
00000100: 29b3 f1bc caf9 71bc 892f d2ba b035 d2bc
00000110: aac5 9cbc adf2 97bc 6ee0 11bd 27b8 06bd
00000120: 648d 94bc cef0 78bc 0414 02bd 9dcf 74bc
00000130: 500a a9bc 3532 98bc 5766 0ebd 287f c23b
00000140: c5f2 ffbc 438b 16bd 4830 0fbd 5729 86bc
00000150: 0e55 9739 366b 72bb 9910 c3bc d785 40bc
00000160: b15b 2ebc 3382 a9bc 04c5 5ebd c617 a6bc
00000170: 6557 93bb 23db e8bc b867 0bbc 7afd 11bd
00000180: 2a4e c0bb 31a7 49bc d191 0abd 8a37 9cbb
00000190: 646c 6abb 081e df3b 348b b4bc fda5 fdbb
000001a0: 71a2 2dbc b040 79bc 886d 14ba 0ad6 e7ba
000001b0: fda0 9dbb 25e1 bf3b 978f d2bb 586f 2bbb
000001c0: 013b 1cbb 73eb a53a 7e90 3dbc 9176 26bb
000001d0: 3e05 cfba aaab 5bbc 87c8 a4bc 9795 72bc
000001e0: fda4 92bc 91c3 60bc b3a8 0b3c 15b6 f33a
000001f0: d0f3 093b ae2c f1bc 7469 943b da5b 353a
00000200: a484 0fbc 1a53 b4bb 0889 b2bc 5932 85bb
00000210: f778 50bb 5e91 d7bb 8422 6dbc 0bd1 acbc
00000220: 55f2 d7bc cad0 ee3b 6b28 82bc 4208 3abc
00000230: 8780 33bc e7ae a9ba 700e e1bb 3cef 1ebc
00000240: 03a7 69bb d419 663b 1dc3 2dbc 3c78 083c
00000250: 626e 443b 147e 373b bfe4 03bc 7e25 8dbc
00000260: 180d a5bc f6f2 ed3a 39d1 e0bc 0854 e9bc
00000270: ced8 05bc 6ee5 83bc be09 34bc bb2f dd3b
00000280: 3d53 73bc 150d 03bd 767a a9bc b731 99bc
00000290: 4323 d9bc 7cc0 9dbc 8211 abbc b42e a039
000002a0: e9ae 733c a3cc 7f3c 387e 0bbd b5e4 14bc
000002b0: 7826 73bc a529 cdbc 3813 aabc e95d 10bd
000002c0: 2688 c5bc e698 13bc 9b9b b2bc 4939 103b
000002d0: d9c1 7ebc 7aed a5bb c648 90bc 42fd b2bc
000002e0: 9a33 85bc f9f3 e9bb 468c c93a e7c4 e0bb
000002f0: de19 27bc 67c9 a0bc fc4d 93bc d7f6 883b
00000300: f5b9 38bc 5258 8abc e1a6 d6bc 7f30 06bc
00000310: 5eac 48bc 238c 92bc d8e9 85bb d1b3 263c
00000320: b333 b3bc df43 ddbc 4823 40bc 7ecf e1bb
00000330: 7a09 15bc a5a3 bc3a 6847 debc f2cd 9fbc
00000340: 63df 2abc a075 2fbc 0ffd 8fbc 5477 98bc
00000350: 99d6 233c e66c 04bc 43c4 023c 1062 8fbc
00000360: e254 2abc 8a86 f53b 1c5f 4c3c aee6 ff3b
00000370: 5d64 6cbc 8860 a8ba d29e c8bb 52fb 23bc
00000380: 5658 2f3c 7af3 7cbc 7068 afbb f08d 78bc
00000390: 0f5c 7c3b 1236 303a c735 62bc 8f8b 9bb9
000003a0: adbe 1dbc 6f5d 253c 443c 58ba c1e3 20bc
000003b0: 6058 963b 1660 963c e947 8aba 7c2f 7f3c
000003c0: 107a b23b d986 98ba 597e 38bb 88fd 83bc
000003d0: 13b9 943a eab5 203c 1b7a 84bb d61b 18ba
000003e0: dc13 efba d759 673c 8857 3d39 9739 49bb
000003f0: 8a50 8f3c 97cb a5bc 22c3 4cbc 8b11 4fbc
-0.024445519 -0.029013209 0.0038938157 -0.006325397 0.002862669 -0.031154867 0.000764877 0.00092984305
-0.015701612 -0.010520791 -0.021623239 -0.035879843 -0.03278507 -0.008399285 -0.014499643 -0.031035952
-0.035029143 -0.036821507 -0.033603076 0.006852322 -0.024226021 -0.021240922 -0.013782536 -0.0069084438
-0.010617752 -0.028636668 -0.017544638 -0.0042056995 -0.020113815 -0.006625717 -0.036800537 -0.0019278132
-0.03092677 -0.008779821 -0.02192115 -0.020505186 -0.01819684 -0.025587937 -0.0139922835 0.0062244344
-0.00883038 -0.031870287 -0.030673195 -0.0044703544 -0.030460358 -0.02671917 0.0027285789 -0.015130464
-0.0037542097 -0.015907258 -0.02889918 -0.009605713 -0.009868062 -0.028328815 0.0013787618 -0.0072998465
-0.007548053 -0.014978533 -0.024308383 -0.026162872 -0.0048652412 -0.026047513 -0.036786467 -0.017262127
-0.029504376 -0.014769027 -0.0016035895 -0.025660366 -0.019137222 -0.018548334 -0.035614423 -0.032890465
-0.018133827 -0.015194131 -0.03175737 -0.014942077 -0.0206348 -0.018578628 -0.034765568 0.0059355684
-0.031243691 -0.036753904 -0.034958154 -0.016377134 0.00028864335 -0.0036990172 -0.023811625 -0.01175066
-0.010641978 -0.020691967 -0.054387107 -0.020275008 -0.004496502 -0.028424805 -0.008508615 -0.035642125
-0.005868693 -0.012307928 -0.033830468 -0.004767363 -0.0035770172 0.006809 -0.022039033 -0.0077407346
-0.010597811 -0.015213177 -0.00056620734 -0.001768769 -0.004810451 0.0058556967 -0.0064258086 -0.0026158895
-0.002383888 0.001265867 -0.011570094 -0.002540026 -0.0015794409 -0.013407627 -0.02011515 -0.014806173
-0.017900938 -0.013718502 0.008524108 0.0018593693 0.0021049865 -0.02944025 0.0045291726 0.0006918289
-0.008759651 -0.0055030705 -0.021793857 -0.00406484 -0.0031810382 -0.0065786084 -0.014473561 -0.021095773
-0.02636067 0.007288073 -0.015888413 -0.011354508 -0.010955936 -0.0012945802 -0.006868176 -0.009700593
-0.0035652525 0.003511061 -0.010605601 0.008329447 0.002997302 0.0027998732 -0.008050143 -0.017229792
-0.020147845 0.0018154073 -0.027443515 -0.028482452 -0.008169366 -0.016100612 -0.010988651 0.0067500747
-0.0148513885 -0.031994898 -0.020688277 -0.018700464 -0.026506072 -0.019256823 -0.020882372 0.00030552375
0.014873245 0.015612754 -0.03405592 -0.009087731 -0.014840715 -0.025044272 -0.020761117 -0.03524581
-0.024112772 -0.009008622 -0.021802714 0.00220068 -0.015549147 -0.00506371 -0.017612826 -0.021849278
-0.016259957 -0.0071396795 0.0015376888 -0.00685941 -0.010199038 -0.019627286 -0.017981522 0.004179816
-0.011274804 -0.016887818 -0.026202621 -0.008190273 -0.012248127 -0.017889088 -0.0040867142 0.0101747075
-0.021875238 -0.027009903 -0.011727162 -0.00689119 -0.009096498 0.0014392032 -0.027133659 -0.019507382
-0.010429236 -0.010709196 -0.017576722 -0.018611588 0.009999895 -0.008082604 0.007981363 -0.017502815
-0.010396214 0.007492845 0.012473848 0.0078094816 -0.014428225 -0.0012846151 -0.0061224485 -0.01000865
0.010702213 -0.015438909 -0.005353026 -0.015170559 0.003850702 0.00067219243 -0.013806767 -0.00029667883
-0.00962798 0.010093077 -0.00082487264 -0.009819926 0.004588172 0.018356364 -0.0010549995 0.015575286
0.00544668 -0.0011636867 -0.002815148 -0.016112104 0.001134666 0.009808997 -0.0040428764 -0.0005802488
-0.0018240171 0.014120541 0.00018057053 -0.0030704492 0.017494459 -0.02023868 -0.012497695 -0.01263846

fc2.bias f4 [16]
00000000: e52a 8a3c 05eb 5abc 6cf7 243b 7d32 923c
00000010: 241f 23bb e4fa b83a 8eb4 1abc 27fb 6f3c
00000020: 4f12 f7b9 cbfe f5b9 c763 02bc fd22 123c
00000030: 7345 5abc a4a3 953c 1218 fe3b a71d 71bc
0.016866157 -0.013361697 0.002517189 0.01784634 -0.0024890387 0.0014112857 -0.009442462 0.014647282
-0.00047125152 -0.00046919877 -0.007958359 0.008919475 -0.013322222 0.018266506 0.0077543342 -0.014716542
