code/models/encoder_32.pth (torch, 848098 bytes, 10 tensors)

conv1.weight f4 [8, 1, 5, 5]
0	0xbe013fc2	-0.12621978
1	0xbe82501f	-0.25451753
2	0xbe1f0e42	-0.15532783
3	0xbc64128b	-0.013920437
4	0x3e3a2a36	0.18180165
5	0xbebbf9e1	-0.3671408
6	0xbe82baff	-0.25533292
7	0xbed20865	-0.4102203
8	0xbe30a302	-0.17249683
9	0x3e0a3d97	0.13500057
10	0xbe88c085	-0.2670938
11	0xbecb063e	-0.396532
12	0xbede924a	-0.43470985
13	0xbe8cac4f	-0.2747521
14	0x3e0cb814	0.13742095
15	0x3c0e4a31	0.008684681
16	0xbea75062	-0.32678515
17	0xbe87a864	-0.2649566
18	0x3d4b87ba	0.049689986
19	0x3a390970	0.0007058596
20	0x3de15518	0.110025585
21	0x3e581787	0.21102725
22	0x3e194d74	0.14970952
23	0x3cf0765b	0.029353311
24	0x3db99c81	0.09063054
25	0xbea0b098	-0.3138473
26	0xbe67c19d	-0.22632451
27	0xbe4d74c1	-0.2006407
28	0x3dcb554b	0.09928378
29	0xbd2dcf5e	-0.04243409
30	0xbec218cf	-0.37909552
31	0xbe5a9437	-0.21345602
32	0xbe8bf5da	-0.27336007
33	0x3dbe633b	0.092962705
34	0x3e084daf	0.13310884
35	0xbd9b0a03	-0.07570269
36	0xbea747ca	-0.32671958
37	0xbe1e7743	-0.15475182
38	0x3d75d837	0.06002065
39	0x3e021991	0.12705065
40	0xbde1eb07	-0.11031156
41	0x3c2ca46a	0.010537246
42	0xbb86922b	-0.00410678
43	0x3e9d3244	0.30702412
44	0xbe0aafda	-0.13543645
45	0xbd9cb690	-0.076520085
46	0xbd3cebc1	-0.04612327
47	0x3d8578ee	0.06517206
48	0x3dc79be6	0.09746532
49	0xbeb0a54f	-0.3450112
50	0x3de70b93	0.112815045
51	0x3dad4568	0.08460504
52	0xbdb53e03	-0.088497184
53	0x3e1918db	0.14950888
54	0x3d1f6a0d	0.038919497
55	0x3e0a43c1	0.13502409
56	0xbe7c7408	-0.24653637
57	0xbe97e1d2	-0.29664475
58	0xbe17cdc0	-0.14824581
59	0x3e785668	0.24251711
60	0x3e7404da	0.23829976
61	0x3e683ae5	0.22678716
62	0xbe290f15	-0.1650966
63	0xbd818d25	-0.06325749
64	0xbd399b69	-0.045314226
65	0x3ea0b79a	0.31390077
66	0x3d007d98	0.031369776
67	0xbe0a5684	-0.13509566
68	0xbe2b731e	-0.16743132
69	0x3e50c853	0.20388918
70	0x3d5e1e7f	0.054228302
71	0xbc4cb1fa	-0.012493605
72	0x3d91b413	0.071144246
73	0x3e26b6f7	0.16280733
74	0xbddd6fd0	-0.10812342
75	0x3e2ec09e	0.17065665
76	0xbdc29fd9	-0.09503145
77	0xbe382b4a	-0.17985263
78	0x3dd03510	0.10166371
79	0xbe639ca2	-0.2222772
80	0xbc806b26	-0.015676092
81	0x3e915645	0.2838613
82	0x3d63f259	0.055651043
83	0x3d616ef7	0.055037465
84	0x3e0b96f7	0.13631807
85	0x3ad90f66	0.0016560375
86	0x3d172ffa	0.03691099
87	0x3e6ed1eb	0.23322265
88	0x3d386155	0.045014698
89	0xbe116ff6	-0.14202866
90	0xbd6656a2	-0.056234963
91	0x3d4a084c	0.04932432
92	0xbe519370	-0.20466399
93	0x3d63dda8	0.05563131
94	0xbe2a48cc	-0.16629332
95	0x3d39f6ec	0.0454015
96	0xbe566c40	-0.20939732
97	0xbc81cabb	-0.01584374
98	0xbde542b2	-0.11194362
99	0x3e37fae8	0.17966807
100	0xbddab5ca	-0.10679205
101	0xbe7653ee	-0.24055454
102	0x3e8444e9	0.25833824
103	0xbcb83f69	-0.022491174
104	0x3d41d3e7	0.047321226
105	0xbe012bc1	-0.12614347
106	0x3e2e99c5	0.17050846
107	0x3d2fa28c	0.042879626
108	0x3e9f6401	0.31130984
109	0xbd56ede3	-0.05247296
110	0xbe48ad25	-0.195973
111	0x3dcfce2c	0.10146746
112	0x3eb6a290	0.356709
113	0x3d517981	0.051141266
114	0xbe814101	-0.25244907
115	0x3df16e74	0.117886454
116	0x3df6359e	0.120219454
117	0xbb01a80d	-0.0019784004
118	0xbe22c50a	-0.15895477
119	0x3d17a815	0.03702553
120	0xbe3a7288	-0.18207753
121	0xbdf41510	-0.1191808
122	0x3cbbd6d1	0.02292958
123	0xbda186e4	-0.078870565
124	0xbd8249d2	-0.06361736
125	0x3d504c04	0.050853744
126	0x3b91b6b5	0.004446829
127	0x3e272a92	0.16324833
128	0x3d4244d0	0.047428906
129	0xbe0fecf2	-0.14055231
130	0x3de264dc	0.11054394
131	0x3e5b8c92	0.21440342
132	0x3e5adebc	0.21374029
133	0x3e4e9d88	0.20177281
134	0x3d9e5881	0.077317245
135	0xbcb623d2	-0.022233877
136	0x3e897826	0.26849478
137	0x3e113e3c	0.14183897
138	0xbda9cf26	-0.082914636
139	0x3e349911	0.17636515
140	0xbe69da52	-0.22837189
141	0xbb55db75	-0.0032632027
142	0x3e3e4d74	0.18584234
143	0x3e53e7c6	0.20693883
144	0x3e44c8ad	0.19217177
145	0x3e0ef41a	0.13960305
146	0x3d91e958	0.07124585
147	0xbd8ae0c1	-0.0678115
148	0x3db51e1e	0.08843635
149	0xbd96fdd5	-0.07372633
150	0xbe1dc609	-0.15407576
151	0xbdab299f	-0.08357548
152	0xbdaea5cc	-0.08527717
153	0xbd85df36	-0.06536715
154	0x3d259391	0.040423933
155	0xbd879584	-0.06620315
156	0x3e81a9c8	0.25324845
157	0x3e727383	0.23676877
158	0x3e00aa2d	0.12564917
159	0xbdaf11e9	-0.08548338
160	0xbc479b50	-0.0121830255
161	0x3e2a441c	0.16627544
162	0x3eaa1362	0.33217913
163	0x3e1a9a59	0.15097941
164	0x3e5fd385	0.21858032
165	0x3d715f96	0.05892905
166	0x3d0296ab	0.03188197
167	0x3e396572	0.18105105
168	0x3dd21786	0.10258393
169	0x3e6a619f	0.22888802
170	0x3d799d11	0.060940806
171	0x3d821766	0.06352119
172	0xbe9d8c4a	-0.30771095
173	0xbe484f8e	-0.19561598
174	0x3de9d2dc	0.11417171
175	0x3e7e553a	0.24837199
176	0x3e8b6f0b	0.27233157
177	0x3e872a2c	0.26399362
178	0x3e7560c6	0.23962697
179	0x3d86c960	0.06581378
180	0x3e0759ad	0.13217802
181	0xbcde1208	-0.027108207
182	0xbe9004bb	-0.2812861
183	0xbe2bb0b2	-0.16766623
184	0x3e5ae148	0.21375
185	0x3e491adb	0.19639151
186	0xbea5f6a6	-0.3241474
187	0xbe803a2a	-0.25044376
188	0xbdd22a04	-0.1026192
189	0xbc44ad8d	-0.012004268
190	0x3c1a08b4	0.009401489
191	0xbdbab2ed	-0.09116159
192	0xbd7337a1	-0.059379224
193	0xbe8b95e2	-0.2726279
194	0xbdab1209	-0.08353049
195	0x3e4360da	0.19079915
196	0xbd890cd2	-0.066918984
197	0xbd80724b	-0.062718
198	0xbe0c616a	-0.13709036
199	0x3dfc560b	0.12321099

conv1.bias f4 [8]
0	0x3dee4902	0.11635019
1	0x3d44bd8b	0.048032325
2	0x3ea7ce06	0.3277437
3	0x3e906b16	0.282067
4	0x3e2f63ad	0.17127867
5	0x3e05c14f	0.13062023
6	0x3a1ef6d7	0.00060640037
7	0xbe1779a1	-0.14792491

conv2.weight f4 [16, 8, 3, 3]
0	0x3e7ff1b8	0.24994552
1	0xbd6ee54f	-0.058324154
2	0xbe3f2f41	-0.1867037
3	0x3ecb9b1c	0.39766777
4	0x3e94cf11	0.2906423
5	0x3d3ec756	0.04657682
6	0xbdb211d1	-0.086948045
7	0xbd8f739d	-0.07004473
8	0x3b27f2d0	0.0025626905
9	0xbdae1025	-0.08499173
10	0x3d5249ac	0.05133979
11	0xbe026b58	-0.12736261
12	0x3e7a893c	0.24466413
13	0x3ec32d50	0.38120508
14	0xbe266e4e	-0.16253015
15	0xbcc93d4f	-0.024565367
16	0x3d3f7e8b	0.04675154
17	0xbd557bc6	-0.052119993
18	0x3ddcf6ff	0.10789298
19	0xbe5470f5	-0.20746215
20	0xbe68e72b	-0.22744434
21	0x3dfb542a	0.122719124
22	0x3c5043c9	0.012711474
23	0xbe0abc85	-0.13548477
24	0x3dcd4c32	0.10024299
25	0xbd8686a1	-0.06568647
26	0xbd765b81	-0.06014586
27	0xbe031b2a	-0.12803331
28	0x3d8f1811	0.06987012
29	0xbd81a414	-0.063301235
30	0xbe0d9e64	-0.13829952
31	0x3c99d4a6	0.018778156
32	0x3bdf1f55	0.006809155
33	0xbdb30c51	-0.087425835
34	0x3c8521ca	0.016251463
35	0xbc620e50	-0.013797358
36	0xbc2042f1	-0.009781585
37	0x3da43124	0.08017185
38	0x3c960863	0.018314546
39	0xbddd7ab1	-0.10814417
40	0x3d821148	0.063509524
41	0xbc7cc77f	-0.015428423
42	0x3c979b68	0.01850672
43	0x3e1897ed	0.14901705
44	0x3d5e1cff	0.05422687
45	0x3d5c280c	0.05374913
46	0xbc8e0d16	-0.017340224
47	0x3e0b3df6	0.13597855
48	0xbe0b91c7	-0.13629828
49	0x3daea7a2	0.08528067
50	0xbdcdb0c0	-0.10043478
51	0xbcef6cf1	-0.029226752
52	0xbdd3d0ac	-0.103425354
53	0x3dd7882c	0.105240196
54	0xbd1897ec	-0.03725426
55	0xbe14b406	-0.14521798
56	0x3e3c62ed	0.18397112
57	0xbdb28019	-0.08715839
58	0xbe013cd8	-0.12620866
59	0x3e068c03	0.13139348
60	0x3e14716f	0.14496396
61	0x3e07fb75	0.13279517
62	0x3dcb6a44	0.09932378
63	0x3eb881c1	0.36036494
64	0xbcfdfda0	-0.031004727
65	0xbcabae4c	-0.020957135
66	0x3e49ebf5	0.19718917
67	0x3da2a217	0.079410724
68	0xbdd0f4c9	-0.10202939
69	0xbe08cf81	-0.13360406
70	0xbe111fdb	-0.14172308
71	0xbdb1749c	-0.086648196
72	0x3e10e87f	0.1415119
73	0x3d2064d2	0.03915865
74	0xbd861ef3	-0.06548872
75	0x3dea974f	0.11454641
76	0x3cbaeaa1	0.022816958
77	0x3dfc3eca	0.123166636
78	0x3d015464	0.03157462
79	0xbdc821e3	-0.097720884
80	0x3dde8da2	0.10866858
81	0x3d2c898a	0.042123355
82	0xbd2f2ba8	-0.042766243
83	0x3e022f02	0.12713245
84	0x3df63262	0.120213285
85	0xba7bd577	-0.0009606699
86	0x3d6c802c	0.05773942
87	0x3e3e073d	0.18557449
88	0x3cc5939b	0.024118235
89	0xbda6b044	-0.08139089
90	0xbdd816e3	-0.1055124
91	0x3e3d94d8	0.1851381
92	0x3e386dfa	0.18010703
93	0xbd55514b	-0.05207948
94	0x3dda497a	0.10658546
95	0x3e2b1fec	0.16711396
96	0xbda96055	-0.08270327
97	0x3dd2db9f	0.10295796
98	0x3e1464d5	0.1449159
99	0x3e296c02	0.16545108
100	0x3e185e77	0.14879785
101	0x3deb2322	0.114813104
102	0x3d8665c1	0.06562377
103	0x3d7d218a	0.061799563
104	0x3ced51e9	0.028969722
105	0x3d8680e1	0.065675505
106	0x3c574874	0.013139833
107	0x3e232320	0.15931368
108	0xbcc1684b	-0.023609301
109	0xbccb5810	-0.024822265
110	0xbdc45f0f	-0.095884435
111	0x3c7449bf	0.014910161
112	0xbc0b56b4	-0.008504558
113	0xbd4af089	-0.0495458
114	0x3d656587	0.056005027
115	0xbd9acf72	-0.07559098
116	0xbd81ddc1	-0.06341124
117	0xbcc1a478	-0.023637995
118	0x3df1100a	0.11770637
119	0xbd4dd2fa	-0.05025003
120	0x3d53e6e2	0.05173386
121	0x3e01e669	0.12685551
122	0xbd5ce953	-0.053933453
123	0x3d871e12	0.06597532
124	0xbb9dcf86	-0.0048159985
125	0x3d585e86	0.05282452
126	0x3d495393	0.04915197
127	0xbd8428be	-0.064530835
128	0xbdb8e7ea	-0.09028609
129	0xbd95a7e8	-0.07307416
130	0xbd1d86ce	-0.038458638
131	0x3d275afe	0.04085826
132	0x3da71a64	0.081593305
133	0x3c13ad95	0.009013553
134	0xbda5f6c4	-0.081037074
135	0xbe27c926	-0.16385326
136	0x3d11fa5e	0.03563916
137	0x3c7cc37b	0.015427466
138	0xbd67a86f	-0.056557115
139	0xbdd1ee40	-0.10250521
140	0x3da4f448	0.080544055
141	0xbe0a60a7	-0.13513432
142	0x3d817861	0.063217886
143	0xbd69e6c0	-0.057104826
144	0xbd226651	-0.039648358
145	0x3ce66ef2	0.028129075
146	0x3930574e	0.00016817191
147	0xbe01da7d	-0.12681003
148	0xbe972b47	-0.29525205
149	0xba51a914	-0.0007997912
150	0x3d69b3e6	0.05705633
151	0xbd57f9f2	-0.0527286
152	0xbcc4e96b	-0.024037084
153	0x3e8e6d08	0.2781756
154	0xbd6e2cb2	-0.058148094
155	0x3d107efb	0.035277348
156	0x3d18aecd	0.037276078
157	0xbe56b464	-0.20967251
158	0x3d00b9cf	0.0314272
159	0x3cba82b1	0.022767397
160	0xbe5950dc	-0.21222252
161	0xbdb6aa71	-0.08919228
162	0xbd930ab9	-0.071797796
163	0xbb38bb70	-0.0028187893
164	0x3e9a5d02	0.30149084
165	0xbe234814	-0.15945464
166	0xbdf9481e	-0.121719584
167	0x3e595e7a	0.21227446
168	0xbd227ce1	-0.039669875
169	0xbd558ceb	-0.052136343
170	0x3e7cecc7	0.24699698
171	0x3e40102b	0.18756168
172	0x3e2addf1	0.16686226
173	0xbc57599c	-0.013143923
174	0x3e9b9e33	0.30394134
175	0x3e7972dc	0.24360222
176	0x3dc79cee	0.09746729
177	0x3dbfbd97	0.09362333
178	0xbca22b70	-0.019796103
179	0x3e1d15df	0.15340374
180	0x3e2d069e	0.16897056
181	0x3e4c581e	0.19955489
182	0xbe24ef82	-0.1610699
183	0x3e64d4bd	0.22346778
184	0x3e4abc8e	0.1979849
185	0xbe58e7b0	-0.21182132
186	0x3c5e2d1f	0.013560562
187	0xbcc817d2	-0.02442542
188	0xbd499f1c	-0.049224004
189	0xbb0f5852	-0.0021872711
190	0x3c67300f	0.014110579
191	0xbdd1a4b6	-0.10236494
192	0x3d7d24f1	0.06180281
193	0x3e4033c1	0.18769743
194	0x3bdb4c98	0.0066924803
195	0xbd22f6a0	-0.03978598
196	0x3dbc7040	0.092010975
197	0xbd600162	-0.05468882
198	0xbdd680f6	-0.10473816
199	0x3e507654	0.20357639
200	0x3dd3447c	0.10315797
201	0x3cb720f5	0.022354582
202	0x3e8167c5	0.25274482
203	0xbdf6abde	-0.120445
204	0xbdf2583d	-0.11833236
205	0x3cc2aa10	0.023762733
206	0xbe47e171	-0.19519593
207	0xbe5f6bda	-0.21818486
208	0xbe2218a6	-0.15829715
209	0x3db2d2ef	0.08731639
210	0xbea89010	-0.3292241
211	0xbe100408	-0.14064038
212	0x3e4da3cb	0.20082013
213	0xbbc27a6a	-0.005935003
214	0x3d56b978	0.05242297
215	0x3e650c49	0.22367968
216	0x3d8d8903	0.069108985
217	0x3aa277f5	0.0012395369
218	0x3da3e086	0.08001809
219	0x3d85369e	0.06504558
220	0xbe161adc	-0.14658684
221	0x3dc08f10	0.09402287
222	0x3e1d3e48	0.1535579
223	0xbdc9c34f	-0.09851705
224	0xbca43b47	-0.020047797
225	0xbd3282c1	-0.043581728
226	0x3e1ad1d9	0.15119113
227	0x3dd1a8fe	0.10237311
228	0x3dd3666d	0.103222705
229	0x3df9757e	0.12180613
230	0x3e37d64a	0.17952839
231	0x3daac68e	0.083386526
232	0x3d4390e2	0.047745593
233	0x3d4fb237	0.05070707
234	0x3cc13495	0.023584643
235	0x3e1b8914	0.1518901
236	0x3e1d2f2f	0.1535003
237	0x3cdffc8d	0.027342105
238	0x3caa9486	0.020822775
239	0x3e0dfd48	0.1386615
240	0xb76cce45	-1.4114722e-05
241	0x3e095a1a	0.13413277
242	0x3df6843b	0.1203694
243	0x3d1f5c0e	0.03890615
244	0x3d82072a	0.06349023
245	0x3da00f18	0.07815379
246	0x3df339f2	0.118762866
247	0x3e002a9b	0.12516253
248	0xbd96ebdf	-0.073692076
249	0x3ced9e3f	0.029006122
250	0x3d6cb466	0.05778923
251	0x3dc97d2e	0.09838329
252	0xbdc8d33e	-0.09805916
253	0xbc1c04b4	-0.009522606
254	0x3d8e5db3	0.069514655
255	0x3d87a71c	0.066236705

conv2.bias f4 [16]
0	0xbde0cc43	-0.1097646
1	0x3e244eff	0.1604576
2	0x3e21667c	0.15761751
3	0x3e047c0f	0.1293795
4	0x3b9349a7	0.004494864
5	0x3c6f149a	0.014592314
6	0x3e3745dd	0.17897744
7	0x3d93e09f	0.072205774
8	0x3dda10eb	0.10647758
9	0x3d843df5	0.0645713
10	0x3d629992	0.055322237
11	0x3e17990a	0.14804474
12	0xbcf0eff2	-0.02941129
13	0x3d13b149	0.036057744
14	0x3e149058	0.14508188
15	0x3d077009	0.03306583

conv3.weight f4 [32, 16, 3, 3]
0	0xbdc3bb57	-0.095572166
1	0x3c2c6c76	0.010523906
2	0x3df8dda8	0.121516526
3	0xbda940ed	-0.08264337
4	0x3e333b13	0.17503004
5	0x3ead0fee	0.33801216
6	0xbe498254	-0.19678622
7	0xbd471832	-0.04860706
8	0x3dc79fac	0.09747252
9	0x3dd5c019	0.1043703
10	0xbd894710	-0.06703007
11	0xbcc8c1a9	-0.024506407
12	0x3dc31d7c	0.09527108
13	0x3c462d81	0.01209581
14	0xbd951e88	-0.07281214
15	0xba9892a2	-0.001164038
16	0x3d47946a	0.048725523
17	0xbcf49786	-0.029857408
18	0x3dc87775	0.097884096
19	0xbbb1ab29	-0.005422015
20	0xbe2d11b1	-0.1690128
21	0x3e11d198	0.1424011
22	0xbe5b83ef	-0.21437047
23	0xbe2d0193	-0.16895132
24	0x3d912f92	0.070891514
25	0xbe11d65a	-0.14241925
26	0x3d5cf719	0.05394659
27	0x3dee2662	0.11628415
28	0xbd497eac	-0.04919307
29	0x3d492156	0.049104057
30	0xbd072dfe	-0.033002846
31	0xbd886125	-0.06659154
32	0xbd6f99c4	-0.05849625
33	0xbb14cea1	-0.0022706168
34	0x3d1e20c2	0.03860546
35	0xbbd7184d	-0.006564176
36	0x3dd52533	0.10407486
37	0xbdbce813	-0.09223952
38	0xba32987b	-0.00068128825
39	0xbd640edc	-0.055678234
40	0xbdfc5c2e	-0.123222694
41	0xbcf6fa81	-0.030148746
42	0xbdb58624	-0.08863476
43	0xbd27d158	-0.04097113
44	0x3df2cb9d	0.118552424
45	0xbd5b292c	-0.05350606
46	0x3e10352e	0.14082786
47	0x3d29a74b	0.04141931
48	0xbe1b7570	-0.15181518
49	0x3e990b58	0.29891467
50	0x3dc0dca9	0.094170876
51	0xbe36dcc7	-0.17857657
52	0x3d4f147c	0.050556645
53	0xbd41b87d	-0.047295082
54	0x3e36b6c6	0.1784316
55	0xbda196cc	-0.0789009
56	0xbddfaa52	-0.10921158
57	0x3e2867fe	0.1644592
58	0xbd49481a	-0.049141027
59	0xbdc0db44	-0.094168216
60	0x3e03496f	0.12820981
61	0xbcf8a0f3	-0.030350184
62	0xbd1eda3b	-0.03878234
63	0x3cc8f61d	0.024531418
64	0xbc996046	-0.018722665
65	0x3e05b652	0.13057831
66	0x3d9a168d	0.075238325
67	0xbdc8c7f3	-0.09803762
68	0x3db0abc6	0.08626513
69	0xbc971807	-0.018444074
70	0xbd2cdf3a	-0.042205073
71	0xbd80e84f	-0.06294309
72	0xbe0188cd	-0.12649842
73	0xbc73f373	-0.014889586
74	0x3d3ed284	0.046587482
75	0xbd869c99	-0.065728374
76	0x3e60f221	0.21967365
77	0x3de89dae	0.113582
78	0xbd07edbe	-0.033185713
79	0x3e7e70cf	0.2484772
80	0x3e18ffc0	0.14941311
81	0xbcedb919	-0.029018926
82	0x3e8d1803	0.27557382
83	0x3df893ef	0.12137591
84	0x3deda4e7	0.11603718
85	0x3e98a46c	0.29812944
86	0x3e4937ea	0.19650236
87	0x3da72373	0.08161058
88	0x3e802cd4	0.250342
89	0x3dd725fc	0.10505292
90	0xbe01bbb7	-0.12669264
91	0x3e5b1824	0.21395928
92	0x3e07e7cc	0.13272017
93	0x3e270182	0.16309169
94	0x3ebcb375	0.36855665
95	0x3e1383cf	0.1440575
96	0x3dc6c133	0.097048186
97	0x3e9f8bad	0.31161252
98	0x3d26cac0	0.0407207
99	0xbd664971	-0.056222383
100	0xbdd2dea0	-0.102963686
101	0x3d9ed6d0	0.07755816
102	0xbb7272d6	-0.0036994717
103	0xbd94329a	-0.07236214
104	0xbd8fdc1e	-0.07024406
105	0x3dc57388	0.096411765
106	0xbd49cdac	-0.04926841
107	0xbd00001a	-0.031250097
108	0xbe1fcb99	-0.1560501
109	0x3e2efd82	0.17088893
110	0x3d0cbcbe	0.034359686
111	0xbd3bff66	-0.045897864
112	0x3e6bf850	0.23043942
113	0x3e634cd7	0.22197281
114	0xbdaab006	-0.08334355
115	0x3e0400c8	0.12890923
116	0x3d6022b6	0.054720603
117	0x3d2dd575	0.042439897
118	0xbd53b7f1	-0.051689092
119	0xbd16f2a4	-0.036852494
120	0x3d9b50b5	0.07583753
121	0xbe2b1799	-0.1670822
122	0x3c2bb9e7	0.010481334
123	0x3da1a600	0.0789299
124	0xbd8f17c4	-0.06986955
125	0x3de3e223	0.111271165
126	0x3c8ee51e	0.017443236
127	0xbe14a735	-0.1451691
128	0x3cb05946	0.021526944
129	0x3d9bb4a0	0.07602811
130	0xbe6ca756	-0.23110709
131	0xbc7d8429	-0.015473404
132	0xbcab7f3d	-0.020934695
133	0xbd533363	-0.051562678
134	0xbd0c07ac	-0.034187004
135	0x3dc020b4	0.093812376
136	0x3e9c7603	0.30558786
137	0x3db290b7	0.087190084
138	0x3e23a98e	0.15982649
139	0x3e9dbcbc	0.30808055
140	0x3e165a01	0.14682771
141	0x3e0a87bc	0.13528341
142	0x3daa2333	0.08307495
143	0x3d50230b	0.05081467
144	0x3d10c64b	0.035345357
145	0xbd3c2ff6	-0.045944177
146	0xbd3fe43b	-0.046848517
147	0xbd9f3815	-0.07774369
148	0xbe014985	-0.12625702
149	0xbd316e81	-0.043318275
150	0x3dc1c715	0.094618
151	0xbde2d78b	-0.11076268
152	0xbd38a663	-0.045080554
153	0xbd2993e9	-0.041400824
154	0xbb81fe51	-0.0039670845
155	0x3bdb12c7	0.006685588
156	0x3dd4f5c7	0.10398441
157	0x3dd529d7	0.10408371
158	0xbc0a9707	-0.008458859
159	0xbd1d441a	-0.038395025
160	0x3ba738eb	0.0051032207
161	0x3dcea172	0.10089387
162	0xbda7eec3	-0.08199837
163	0x3e1ba0fd	0.15198131
164	0x3d86e4ee	0.065866336
165	0xbd9fbc07	-0.07799535
166	0x3e201edc	0.15636772
167	0x3db8a222	0.090152994
168	0x3c81e608	0.015856758
169	0xbd5813e8	-0.05275336
170	0xbdc6878f	-0.096938245
171	0xbd509c7a	-0.050930478
172	0xbcfc3157	-0.030785246
173	0x3dbc4d06	0.091943786
174	0x3cc068ec	0.02348753
175	0x3d2d288d	0.042275
176	0x3d4e900f	0.050430354
177	0xbd2d3a7d	-0.042292107
178	0xba6746d5	-0.00088225055
179	0x3d9a04c7	0.075204425
180	0xbd7170c8	-0.058945447
181	0xbca1d9fc	-0.019757263
182	0xbd644556	-0.055730186
183	0x3da3470c	0.079725355
184	0x3ce6176a	0.028087337
185	0x3d2aaa26	0.041666172
186	0x3c5efd6a	0.013610223
187	0x3cfe83d8	0.031068727
188	0xbcb1f8ad	-0.021725023
189	0x3d281593	0.0410362
190	0xbdcdb375	-0.10043994
191	0x3d836d8e	0.0641738
192	0x3cf4457d	0.02981829
193	0xbdb07ce0	-0.08617568
194	0xbdd61a5e	-0.10454248
195	0x3d6423f9	0.05569837
196	0x3c8a1b97	0.016858859
197	0xbd325927	-0.043542054
198	0xbc697900	-0.01425004
199	0x3a86349b	0.0010239066
200	0x3d8a636a	0.06757243
201	0xbb231a7d	-0.0024887614
202	0x3cbb81ec	0.0228891
203	0x3dc2a4d2	0.09504093
204	0x3d890dad	0.066920616
205	0xbd0ade55	-0.03390344
206	0x3c9aa1b7	0.01887594
207	0xbb916152	-0.0044366503
208	0x3de4c3ae	0.111701354
209	0xbca82166	-0.020523738
210	0x3d8929db	0.066974364
211	0x3d26df1e	0.040740125
212	0x3cc05730	0.023479074
213	0xbd954dc6	-0.07290225
214	0x3d193db2	0.037412353
215	0x3d9e7e3f	0.07738923
216	0x3d846567	0.064646535
217	0xbd73a8c0	-0.059487104
218	0x3dcb413a	0.0992455
219	0x3c6d128e	0.014469756
220	0xbd81316b	-0.06308254
221	0xbc8c24bf	-0.017107366
222	0x3cbc83f8	0.023012146
223	0xbd4b796c	-0.049676344
224	0xbd2acb21	-0.041697625
225	0xb9095b17	-0.00013099272
226	0xbdfb841d	-0.12281058
227	0x3a85c161	0.0010204726
228	0x3d4707ff	0.04859161
229	0xbdef1d05	-0.11675457
230	0xbd399e6c	-0.0453171
231	0xbd068e2d	-0.032850433
232	0xbc1253c1	-0.008931101
233	0x3c8250cd	0.01590767
234	0xbc06d774	-0.008230079
235	0x3d1a79a9	0.03771368
236	0x3e2d2bdd	0.16911264
237	0x3d679028	0.056533962
238	0xbdf37f21	-0.11889482
239	0x3d8e9570	0.06962097
240	0x3d84d2b3	0.064855
241	0x3d9288e7	0.07155018
242	0x3920bfe2	0.00015330271
243	0x3d807233	0.06271782
244	0x3c0207d7	0.0079364395
245	0x3cc0ac9d	0.023519808
246	0x3dd48ece	0.103788
247	0x3e129ec2	0.14318374
248	0x3baec8f3	0.0053340136
249	0xbda3ad9e	-0.07992099
250	0x3d0a7ce2	0.033810504
251	0x3d8a1b2c	0.06743464
252	0x3d117f96	0.035522066
253	0x3b8f2f73	0.00436967
254	0x3d7e553e	0.062093012
255	0xbd466a75	-0.04844137

conv3.bias f4 [32]
0	0xbd421c56	-0.047390305
1	0x3bfeb106	0.0077725677
2	0xbd86be39	-0.06579251
3	0xbdcae610	-0.09907162
4	0xbdd19382	-0.10233213
5	0x3d8fd209	0.07022483
6	0x3c776f7f	0.015102266
7	0x3d8886a7	0.06666308
8	0xbd82a03d	-0.06378219
9	0x3ccb4345	0.02481235
10	0x3d7a1a69	0.061060343
11	0xbd33f5c7	-0.043935563
12	0x3e173772	0.14767244
13	0x3bb1f80b	0.0054311804
14	0x3d98b851	0.074570306
15	0x3d921113	0.07132163
16	0xba03ca75	-0.0005027422
17	0x3d1a58d6	0.037682377
18	0x3e0815ff	0.13289641
19	0x3dcabde0	0.09899497
20	0x3dd80118	0.105470836
21	0x3ce1c573	0.027559971
22	0x3da1371e	0.07871841
23	0x3dc7bf6d	0.097533084
24	0xbd9350a6	-0.07193117
25	0x3daea446	0.085274264
26	0xbd522c3b	-0.051311713
27	0x3d8e57f9	0.06950373
28	0x3e0d8bbd	0.13822837
29	0x3ddadcaf	0.10686623
30	0xbceb1ac3	-0.028699284
31	0x3ca2ce0f	0.019873647

fc1.weight f4 [32, 3200]
0	0xbb457084	-0.003012688
1	0x3d0bfc44	0.034176126
2	0x3d58260b	0.052770656
3	0x3c35340e	0.011059774
4	0xbd25f2c0	-0.040514708
5	0xbcb41d3d	-0.021986598
6	0xbc27732a	-0.010220328
7	0x3d27a5d9	0.04092965
8	0xbcb6e33a	-0.022325147
9	0xbbcbcf84	-0.006219806
10	0x3b32369c	0.0027193194
11	0x3d6e6e51	0.058210675
12	0x3cede85b	0.02904146
13	0x3d173af9	0.036921475
14	0x3c5be43c	0.0134211145
15	0x3a8986da	0.0010492459
16	0x3cdfee6f	0.027335374
17	0x3d2cea4d	0.042215634
18	0xbc4d5f81	-0.012534977
19	0xbb60fe41	-0.0034331235
20	0xbc45dc85	-0.012076502
21	0x3bb5a558	0.005543392
22	0x3cb50097	0.022095008
23	0x3d2215b1	0.039571468
24	0x3cd67370	0.026178092
25	0xbb3ee15c	-0.0029126024
26	0x3cf109cb	0.029423615
27	0x3d3626f5	0.044470746
28	0xbc70b497	-0.0146914935
29	0x3b2c0f28	0.002625415
30	0xbcaaecec	-0.020864926
31	0xbc9e2461	-0.019304456
32	0x3cfbebec	0.030752145
33	0x3d250b06	0.040293716
34	0x3ca1e2cf	0.019761471
35	0x3c9ce3e7	0.019151641
36	0xbc56fa1f	-0.013121157
37	0x3ca49407	0.020090116
38	0xbb5f824e	-0.0034104767
39	0x3c770788	0.015077479
40	0xbcbcd326	-0.023049902
41	0xba85b3a6	-0.0010200634
42	0x3d5a53c5	0.053302545
43	0x3c898c24	0.016790457
44	0xbc8584f9	-0.016298758
45	0xbce5a22e	-0.028031435
46	0xbc7723d9	-0.01508423
47	0x3cef8995	0.029240409
48	0x3c20cfaf	0.009815141
49	0x3d4c1f54	0.049834564
50	0xbca3c1a7	-0.019989802
51	0xbc866a37	-0.016408069
52	0x3c6b1e1c	0.01435044
53	0x397afb8d	0.00023935568
54	0xbcd7dbb2	-0.026349876
55	0x3be885e8	0.007096041
56	0xbcbf868f	-0.023379592
57	0x3aa429df	0.0012524686
58	0x3c37688a	0.011194358
59	0x3cb5075f	0.022098241
60	0xbcd10f67	-0.02552004
61	0x3bc53385	0.0060181045
62	0xbc895e1d	-0.01676851
63	0xbc8c6b7a	-0.017141093
64	0xbce3876d	-0.027774537
65	0x3bfed8e6	0.007777321
66	0xbbd50857	-0.0065012383
67	0xbc1bb698	-0.009503983
68	0xbb981b08	-0.0046418943
69	0xbd051ebd	-0.032500017
70	0x3c5f0f79	0.013614529
71	0x3c9fbe2a	0.019499857
72	0xbc8e10f8	-0.017342076
73	0xbd245004	-0.04011537
74	0xbc4b50a4	-0.012409363
75	0xbbf19b75	-0.0073732683
76	0xbaca7ba4	-0.0015448225
77	0xbd1f0e78	-0.038832158
78	0xbd34cc09	-0.044139896
79	0xbd6aa9f3	-0.057290982
80	0x3d6eece0	0.05833137
81	0x3d0098b2	0.03139562
82	0xbc9d48ce	-0.019199755
83	0xbd14f7da	-0.036369182
84	0x3c941eda	0.018081117
85	0x3c19e0f2	0.00939201
86	0x3c8a828f	0.016907958
87	0xbc8bcee8	-0.017066434
88	0xbd26d9b3	-0.040734958
89	0xbdaf1052	-0.08548035
90	0x3d1f13fa	0.03883741
91	0x3bd8bd3c	0.0066143554
92	0xbd179724	-0.037009373
93	0xbd38d39b	-0.045123678
94	0xbcaa546b	-0.020792207
95	0xbd3d682c	-0.046241924
96	0x3c251a9c	0.010077145
97	0xbcb2d11a	-0.021828223
98	0xbd432d87	-0.04765084
99	0xbdbc80db	-0.09204265
100	0x3af26d85	0.0018495774
101	0xbc99da37	-0.01878081
102	0xbcfb159d	-0.030649954
103	0xbca9157d	-0.02064013
104	0xba9167ac	-0.0011093519
105	0x3caafc05	0.020872125
106	0x3b3d82cf	0.002891708
107	0xbc4e28b5	-0.0125829475
108	0xbc44c7a3	-0.012010488
109	0xbd033beb	-0.032039564
110	0xbc01cbdf	-0.007922142
111	0xbd29b8f7	-0.04143616
112	0xbd2f1753	-0.042746853
113	0xbd030acf	-0.03199273
114	0xbcee66ef	-0.029101817
115	0xbb0ffca3	-0.0021970652
116	0xbcc0da11	-0.023541482
117	0xbc868baf	-0.016424028
118	0xbcafbe28	-0.021452978
119	0xbd3cee27	-0.046125557
120	0xbb268219	-0.0025407134
121	0x3b4d8f9e	0.003136612
122	0xbc784c19	-0.015154862
123	0xbd1f0a93	-0.038828444
124	0xbd268e4a	-0.04066304
125	0xbbdff78e	-0.0068349307
126	0xbc568dc7	-0.013095326
127	0xbd1287b8	-0.035773963
128	0xbcd4e402	-0.025987629
129	0xbd42756c	-0.047475263
130	0xba57b9a7	-0.00082292635
131	0xbc0a5d11	-0.00844504
132	0x3b9433ed	0.0045227916
133	0xbd13f1b0	-0.036119163
134	0xbc61d817	-0.01378443
135	0xbb1d138a	-0.0023967945
136	0xbd2c4059	-0.042053554
137	0xbd02aa24	-0.03190054
138	0xbcb1976b	-0.021678647
139	0xbd29bf13	-0.04144199
140	0xbc66c62a	-0.014085332
141	0x3cce9252	0.025216255
142	0xbc763012	-0.015026109
143	0xbd3256ac	-0.043539688
144	0xbcf455cc	-0.029826067
145	0xbc496027	-0.012290991
146	0xbce7070b	-0.0282016
147	0xbc01fa8c	-0.00793327
148	0xbcd25ec3	-0.025679952
149	0xbd455d09	-0.04818443
150	0xba43c174	-0.00074674864
151	0x3b82d6fb	0.003992913
152	0xbbcc096e	-0.00622671
153	0xbc41dec7	-0.011832899
154	0x3b2a64ce	0.0026000026
155	0x3c05176c	0.00812326
156	0x3c7abb35	0.015303423
157	0xbce24bb7	-0.027623994
158	0xbd1e7a2f	-0.038690742
159	0xbcf88cf9	-0.030340659
160	0x3cb755d6	0.022379797
161	0xbbe5abe1	-0.007009015
162	0x3c07e0dc	0.008293357
163	0x3cbb2a54	0.022847332
164	0x3cdb144e	0.02674308
165	0x3c39e769	0.011346676
166	0x3c9024bf	0.017595647
167	0x3c91de63	0.017806238
168	0x3ca11ee5	0.019668052
169	0x3c5e88ef	0.013582452
170	0x3c8e897b	0.01739954
171	0xbb1f1c39	-0.0024278297
172	0xbc3aec10	-0.011408821
173	0x3c9c9732	0.019115064
174	0x3d2ac97b	0.041696053
175	0x3c386cab	0.011256377
176	0x3d0b788a	0.034050502
177	0x3ce81279	0.028329121
178	0x3cd4481b	0.025913289
179	0x3d2f675c	0.04282318
180	0xbd03d98c	-0.03218989
181	0xbb9c4981	-0.0047695045
182	0xbbbed0c8	-0.0058232285
183	0x3c84286a	0.016132552
184	0x3c9e0ed1	0.019294174
185	0x3cc13a26	0.023587298
186	0xbb04af90	-0.0020246245
187	0x3cdb63bc	0.026780955
188	0x3d103e97	0.03521594
189	0x3d51734c	0.051135346
190	0xbd30f165	-0.04319896
191	0xbd0d5b3a	-0.03451083
192	0x3a697c9e	0.0008906814
193	0x3c14c89c	0.009081032
194	0xbabf2925	-0.0014584406
195	0x3c47a5b9	0.012185507
196	0x3cb2a366	0.02180643
197	0x3ce4c20f	0.027924566
198	0x3c88d472	0.016702864
199	0x3d4a393a	0.04937098
200	0xbb42f2ed	-0.0029746846
201	0x3c78c8d4	0.0151846
202	0x3d2718df	0.040795203
203	0x3cbc073f	0.022952674
204	0xbce8a27d	-0.028397793
205	0xbc08e50e	-0.008355392
206	0x3c8aa64b	0.016924998
207	0x3c810bf0	0.015752763
208	0x3c0fe200	0.00878191
209	0xbcfcb5a1	-0.030848326
210	0x3cb8b21c	0.022545867
211	0x3bdaed22	0.0066811005
212	0x3ca092a2	0.01960117
213	0x3d732827	0.059364464
214	0x3d3a95de	0.04555308
215	0x3d26e138	0.04074213
216	0x3d81069c	0.06300089
217	0x3d74ba2d	0.059747864
218	0x3c44cf02	0.012012245
219	0x3d1a9319	0.03773794
220	0xbd224da7	-0.039624836
221	0x3bba9b2e	0.0056947684
222	0x3cbfb03a	0.023399461
223	0x3d34589c	0.044029817
224	0x3c847aa0	0.016171753
225	0x393d529b	0.00018055218
226	0xba4cf2c9	-0.000781816
227	0x3d409d13	0.047024798
228	0x3c5a2d22	0.013316425
229	0x3c2ff62e	0.010739846
230	0xbce3e804	-0.027820595
231	0xbcb2c761	-0.021823587
232	0x3c81802c	0.015808187
233	0x3ccbb5ce	0.024866965
234	0xbb8ccf14	-0.0042971466
235	0x3c1da59e	0.009622006
236	0x3abb0d33	0.0014270901
237	0x3c4a7e10	0.012359157
238	0x3ce093d5	0.027414242
239	0xbc527e77	-0.012847534
240	0x3cc58eeb	0.024116
241	0x3c2fa95e	0.010721533
242	0x3d540474	0.05176206
243	0x3ce49851	0.027904661
244	0x3c89aa68	0.016804889
245	0x3cf90a87	0.030400528
246	0xbbab5777	-0.0052289325
247	0x3c73a6fc	0.014871355
248	0x3c88cb02	0.016698364
249	0x3cdccf3f	0.026954291
250	0xbc964e80	-0.018347979
251	0xbb08741b	-0.0020821157
252	0x3cba070a	0.022708435
253	0xba2eff10	-0.00066755805
254	0xb97f460f	-0.00024344794
255	0x3bd7ea3f	0.0065892036

fc1.bias f4 [32]
0	0x3a6fabab	0.0009142707
1	0x3d23b924	0.039971486
2	0x3c84a8af	0.016193716
3	0xbba666fc	-0.0050781947
4	0xbcfd4468	-0.030916408
5	0xbcc4625e	-0.023972686
6	0x3d41e109	0.04733375
7	0x3be6f483	0.007048191
8	0xbd27e5c0	-0.04099059
9	0x3cda21da	0.02662747
10	0xbc80818a	-0.015686769
11	0x3c9e27a6	0.019306015
12	0x3d1d7979	0.038445923
13	0x3c3980fa	0.011322254
14	0xbd1207aa	-0.03565184
15	0x3ce5b2d0	0.028039366
16	0xbce26ee0	-0.02764076
17	0x3ca392a7	0.01996739
18	0x3d20ff97	0.03930625
19	0x3cfe9146	0.031075131
20	0xbca153eb	-0.019693336
21	0xbcbd522a	-0.023110468
22	0xbd2faaa6	-0.042887352
23	0x3cad64f1	0.021166297
24	0x3b17641f	0.0023100448
25	0x3c2968e8	0.010339953
26	0xbb27aa66	-0.0025583743
27	0xbc90b32f	-0.017663566
28	0x3ca11438	0.019662961
29	0xbc02f727	-0.007993496
30	0x3ba2ccfb	0.004968283
31	0xbcb67e65	-0.022277066

fc2.weight f4 [32, 3200]
0	0x3ae551a7	0.0017495648
1	0xbc0c753f	-0.0085728755
2	0xbb8083bb	-0.0039219535
3	0x3c27a94d	0.010233236
4	0xbb55f8fd	-0.003264963
5	0xbb2e2057	-0.002656957
6	0x3bd85a2e	0.006602547
7	0xbbb1b330	-0.005422972
8	0x3abc443e	0.00143636
9	0xbb838634	-0.004013801
10	0x3b888109	0.004165773
11	0xba8218b3	-0.0009925574
12	0x3bf49abc	0.007464735
13	0xbc16e7a9	-0.0092105055
14	0x3cabb795	0.020961562
15	0x3baa5290	0.0051978305
16	0xbb828447	-0.003983054
17	0xbc02338d	-0.007946861
18	0x3c61c0d2	0.013778882
19	0xbc34c697	-0.011033676
20	0x3c8b2094	0.016983308
21	0xbb68a93c	-0.0035501262
22	0xbc338366	-0.010956621
23	0x3c42854f	0.011872604
24	0xbc2c8f1f	-0.01053217
25	0xbbf99ad9	-0.007617336
26	0x3c617e5a	0.013763035
27	0x3ca65560	0.020304382
28	0xbb1ea56b	-0.0024207484
29	0xbb515912	-0.003194396
30	0x3c312f8d	0.01081456
31	0x3c2f920c	0.010715973
32	0x3c3a6bd7	0.01137825
33	0x3c3098e5	0.01077864
34	0x3c60286f	0.013681515
35	0x3c2affb1	0.010436938
36	0xbbe0b0be	-0.006857007
37	0x3be3eed4	0.0069559608
38	0xbac7d8a0	-0.0015247054
39	0x3c83b781	0.016078712
40	0x3a8ab09f	0.0010581202
41	0x3b86d5e1	0.004114852
42	0xbc38daeb	-0.011282663
43	0x3cb3ea04	0.021962173
44	0xbc0df2b0	-0.008663818
45	0xbbbbfe6a	-0.0057371156
46	0x3afc8cb5	0.0019268008
47	0x3c05c49e	0.008164553
48	0x3c7347cf	0.0148486635
49	0x3bb4c740	0.0055169165
50	0x3c33d798	0.0109766945
51	0xbc3060c5	-0.010765259
52	0x3c68757d	0.014188168
53	0xbc60a85b	-0.013712014
54	0x3c899e9d	0.016799266
55	0x3ba581b0	0.0050508603
56	0x3beffedc	0.007324083
57	0x3c371403	0.011174205
58	0x3caf7015	0.02141575
59	0x3c993ef2	0.018706772
60	0xb9a1dadc	-0.00030871376
61	0x3c8976c4	0.016780265
62	0x3c4c93ef	0.012486442
63	0x3c82a2c1	0.015946748
64	0xbc24152d	-0.010014814
65	0x3c349f23	0.011024269
66	0x3c8be03c	0.017074697
67	0x3c44bdbc	0.012008127
68	0x3c21fb9c	0.0098866485
69	0xbbade7b4	-0.005307162
70	0xbc3afd97	-0.011413
71	0xbc613551	-0.013745622
72	0xbb282fde	-0.0025663297
73	0xbb90c06e	-0.0044174707
74	0xbc464b33	-0.01210289
75	0x3c05e9cd	0.008173418
76	0x3a07335b	0.0005157494
77	0x3ca2e3d3	0.019884026
78	0x3cb9c2ff	0.02267599
79	0xbb68284d	-0.0035424412
80	0x3cac20e0	0.02101177
81	0x3a110003	0.0005531313
82	0xbbce99dc	-0.0063049626
83	0x3bb0f89d	0.0054007308
84	0x3c718045	0.0147400545
85	0x3caff815	0.0214806
86	0x3c90a869	0.01765843
87	0x3cef03ff	0.02917671
88	0x3c94aba1	0.018148245
89	0x3c97d6dc	0.01853507
90	0x3bd05418	0.006357681
91	0x3c376505	0.0111935185
92	0x3c482cef	0.012217744
93	0xbc57b579	-0.013165825
94	0x3c58ec19	0.013239884
95	0xbbfde158	-0.0077478103
96	0x3cf3400e	0.02969363
97	0x3c8609bd	0.016362065
98	0x3ad07fcc	0.0015907227
99	0xbc3eecd5	-0.011653145
100	0xbc4501de	-0.012024371
101	0xbb2dd8a3	-0.002652683
102	0xbc279bdd	-0.010230032
103	0xbcb1947a	-0.021677244
104	0xbae85193	-0.0017724506
105	0xbc67f95d	-0.014158574
106	0x3c33e50c	0.010979902
107	0xbb3a8a91	-0.002846394
108	0x399d4859	0.00029999277
109	0xbc3195ed	-0.010838968
110	0xbadb0607	-0.001671017
111	0xbbc9cafc	-0.006158231
112	0xbc351050	-0.0110512525
113	0xbc9086e3	-0.017642444
114	0xbcb6c1e8	-0.022309259
115	0x3bff6dae	0.0077950573
116	0xbc46439d	-0.012101081
117	0xbc4afd1c	-0.012389448
118	0x3c18e5a9	0.009332099
119	0xbc4e5cd7	-0.012595377
120	0xbc134d79	-0.008990639
121	0xbbc11c8a	-0.0058932947
122	0xbc489a7c	-0.012243863
123	0x3b1ec840	0.0024228245
124	0xbccec21e	-0.025239047
125	0x3b8ea032	0.004352593
126	0xbc036646	-0.008019989
127	0x3b9419a6	0.004519659
128	0xbc4e6fb9	-0.012599879
129	0x3bd77a41	0.006575853
130	0xbc8c7049	-0.017143385
131	0xbcb03121	-0.021507801
132	0xbc7d46bf	-0.015458762
133	0xbcd30e71	-0.025763722
134	0xbc77159e	-0.0150808375
135	0xbcd2d2ff	-0.025735376
136	0x3b8d1b0f	0.004306204
137	0xb8a03f78	-7.6412165e-05
138	0xbc44a014	-0.012001056
139	0xbc727612	-0.014798658
140	0xbca2fc36	-0.019895654
141	0xb8b7673c	-8.745349e-05
142	0xbba36c39	-0.0049872664
143	0xbbfcf892	-0.0077200616
144	0xbccd74a7	-0.025080038
145	0xbcb8e57a	-0.02257036
146	0x3c1562ae	0.009117765
147	0xbc2a6a34	-0.010401297
148	0xbb891725	-0.0041836672
149	0x3c0c579a	0.008565808
150	0xbc9ee28e	-0.019395139
151	0xbc160d2a	-0.009158412
152	0x3bc22a97	0.0059254873
153	0xbbe7cf70	-0.007074289
154	0xbc55ef94	-0.013057608
155	0xbcbe7f30	-0.023254007
156	0xba98b16d	-0.0011649557
157	0xbc5f9e33	-0.0136485575
158	0xbc8a546d	-0.01688596
159	0x3b2a57c4	0.0025992254
160	0xbc6a64b7	-0.014306239
161	0x3b0fed91	0.002196167
162	0x3c4c236d	0.012459618
163	0xbc993bdb	-0.0187053
164	0xbc611c30	-0.013739631
165	0x3bafd659	0.0053661284
166	0xbc88dac8	-0.016705886
167	0xba8c2da6	-0.0010694757
168	0xbbdae2d1	-0.0066798707
169	0xbc4f4ea5	-0.012653028
170	0x3b4da38c	0.0031378
171	0xbc932737	-0.017963035
172	0xbc21425b	-0.0098424805
173	0xbb5ede20	-0.0034006909
174	0xbcb6eefc	-0.022330754
175	0xb8e22224	-0.00010782879
176	0x3ab34836	0.0013678137
177	0xbcda4dc0	-0.026648402
178	0xbc080f3a	-0.008304412
179	0xbccac4d8	-0.024752066
180	0xbb2d66a7	-0.002645889
181	0xbccd3f0c	-0.025054477
182	0x3a043fa2	0.00050448824
183	0x3bf64d3e	0.007516532
184	0xbc686b7d	-0.014185783
185	0xbb48fdc8	-0.0030668844
186	0xbccc5dcd	-0.024947071
187	0xbc4ead4a	-0.0126145575
188	0xbce295c8	-0.027659312
189	0xbcb457e4	-0.022014566
190	0xbb3448a9	-0.002750913
191	0x3b0849ed	0.0020796016
192	0x3af14207	0.0018406519
193	0xbcb6f016	-0.022331279
194	0xbcb05f85	-0.021529922
195	0xbbb93c24	-0.0056529213
196	0x3b895217	0.004190694
197	0xbbac70b6	-0.0052624596
198	0x3b5f5feb	0.0034084271
199	0x3c41e2a2	0.011833819
200	0xba43172c	-0.00074421125
201	0xbc6e41a9	-0.014542022
202	0xbb5e43f1	-0.0033915008
203	0x3bafe679	0.0053680507
204	0x3bc7946a	0.0060906904
205	0xbbbdd605	-0.0057933354
206	0xbbe9083b	-0.007111577
207	0x3c30ce90	0.010791436
208	0xbc17a6f6	-0.009256115
209	0xbc869c45	-0.016431937
210	0x3c04d511	0.00810744
211	0xbc60d97e	-0.013723729
212	0x3b74e3e5	0.003736728
213	0x3aed1bd4	0.0018089958
214	0x3b9c8f70	0.0047778413
215	0x39f16c7c	0.0004604793
216	0xbc159ddf	-0.009131878
217	0xbc23a9ae	-0.009989185
218	0xbc0c4b8f	-0.008562936
219	0xbb96b148	-0.0045987703
220	0x3c448272	0.011993991
221	0x3cb3fea5	0.02197201
222	0x3ca85cfb	0.020552149
223	0x3b19bd68	0.0023458842
224	0x3c7bb3cd	0.015362692
225	0x3cceca08	0.02524282
226	0x3cce02bd	0.02514779
227	0xbb798a02	-0.0038076644
228	0x3aac0f95	0.0013127202
229	0x3c3dbdcf	0.011580898
230	0x3b417cb8	0.00295238
231	0x3ca8e10a	0.02061512
232	0x3a3b7ce4	0.0007152094
233	0x3be6db74	0.007045204
234	0x3c5a007c	0.01330578
235	0xbc4259b8	-0.011862211
236	0x3c223623	0.0099006025
237	0xb96c6cd5	-0.00022547257
238	0x3aa5dab7	0.0012653683
239	0xb9805886	-0.00024480018
240	0xbbe37b3d	-0.0069421814
241	0xbbad5960	-0.0052901953
242	0x3c94a052	0.018142853
243	0x3cb025dc	0.021502428
244	0x3c84323a	0.016137231
245	0xbbd42353	-0.0064739375
246	0x3aba2c3e	0.0014203859
247	0xbb6e35d8	-0.0036348011
248	0x3c82a49c	0.015947632
249	0xbc22cddc	-0.009936776
250	0xbc0e0e4a	-0.008670399
251	0x3c01fcc5	0.0079338
252	0xbb4d273d	-0.0031303905
253	0x3ca1570f	0.019694833
254	0xbbd8f889	-0.0066214246
255	0xba7ab43e	-0.00095636013

fc2.bias f4 [32]
0	0xbc1441cc	-0.00904889
1	0xbc81547e	-0.01578736
2	0xbc280257	-0.010254464
3	0x3c19968c	0.009374272
4	0xbc4f3e1b	-0.012649084
5	0xbb6d8826	-0.003624448
6	0xbca0ce86	-0.019629728
7	0xbb7cb9bf	-0.0038562862
8	0x3aff17fe	0.0019462106
9	0xbc8ef304	-0.017449863
10	0x3c693db3	0.014235902
11	0x3b54bc3b	0.0032460827
12	0xbc1afc59	-0.009459578
13	0x394c0d3b	0.00019459885
14	0x3c3b8bf9	0.011446946
15	0x3a8282a6	0.0009957149
16	0xbc95da71	-0.018292638
17	0xbc851d02	-0.016249184
18	0xbc4e4429	-0.012589493
19	0x3addb7a7	0.0016915695
20	0x3b05ba0c	0.0020405082
21	0x3c0bb1d2	0.008526282
22	0xbc9f0a0f	-0.019413976
23	0x3a9f763f	0.0012165977
24	0x3a88c0b4	0.0010433407
25	0x3c6cc73e	0.0144518
26	0x3beddc4a	0.0072589265
27	0xbb069410	-0.002053503
28	0x3c13dcc5	0.0090248035
29	0x3c521d70	0.012824401
30	0xbc88476f	-0.016635625
31	0xbc9277f6	-0.017879467
