code/models/encoder_8.pth (torch, 233425 bytes, 10 tensors)

conv1.weight f4 [8, 1, 5, 5]
0	0xbe7db312	-0.24775341
1	0xbddc9b67	-0.10771828
2	0xbdc37562	-0.09543873
3	0x3e4e6d61	0.20158912
4	0x3e85ad53	0.26108798
5	0xbe56c635	-0.20974047
6	0xbe7fd7cf	-0.24984668
7	0x3d5cb2f6	0.053881608
8	0x3d40d250	0.04707557
9	0x3e673bd0	0.2258141
10	0xbd115e84	-0.035490528
11	0x3d9a39c3	0.075305484
12	0xbb56f8f7	-0.0032802203
13	0xbb80442d	-0.003914377
14	0x3c3b8936	0.011446288
15	0x3e61344e	0.21992609
16	0xbc9be658	-0.019030735
17	0x3dcb8768	0.09937936
18	0xbe0a8f58	-0.13531244
19	0x3e1a95e6	0.15096244
20	0x3df97579	0.12180609
21	0x3d943b01	0.072378166
22	0xbc65947e	-0.014012454
23	0x3cf40a6e	0.02979013
24	0xbe22d2a2	-0.15900663
25	0x3dddb8aa	0.108262375
26	0xbddfb9a8	-0.10924083
27	0xbe291462	-0.16511682
28	0xbe81db1a	-0.25362474
29	0xbe46be56	-0.19408545
30	0xbd87492a	-0.06605752
31	0x3db29356	0.08719508
32	0xbe8ea6a7	-0.2786152
33	0xbe9c8db8	-0.30576873
34	0xbe706979	-0.23477735
35	0x3df49825	0.11943082
36	0x3c9fc1c7	0.01950158
37	0x3da5a108	0.08087355
38	0xbe9f2d6d	-0.31089345
39	0xbe323a12	-0.17404965
40	0xbc39cd64	-0.011340473
41	0x3aacee9e	0.0013193672
42	0xbdfbec28	-0.123009026
43	0xbda8ebae	-0.08248077
44	0xbd4ba7ec	-0.04972069
45	0x3e0b237a	0.13587752
46	0xbda14f76	-0.07876484
47	0x3d7b0cdc	0.06129156
48	0xbb923807	-0.0044622454
49	0xbe41d2ff	-0.18928145
50	0x3e08d84c	0.1336376
51	0x3e5c64e6	0.21522865
52	0x3cf07ec6	0.029357325
53	0xbcfc842c	-0.030824743
54	0xbe4884ec	-0.19581956
55	0x3d9b350a	0.07578476
56	0x3e545fe9	0.20739712
57	0x3e024be1	0.12724258
58	0xbdb8ff72	-0.09033097
59	0xbd375039	-0.04475424
60	0x3e3ca59f	0.18422554
61	0x3e506259	0.20350017
62	0x3e346b94	0.17619163
63	0x3d6b5282	0.057451732
64	0xbd218705	-0.039435405
65	0x3e27ad8c	0.16374797
66	0x3e4837e3	0.19552569
67	0x3d260219	0.040529344
68	0x3daf0600	0.08546066
69	0xbe42ea97	-0.19034801
70	0xbe64e2fc	-0.22352213
71	0x3e3cf483	0.18452649
72	0xbdae8d6b	-0.08523067
73	0x3d1a4376	0.037661992
74	0x3dc23a1d	0.094837405
75	0x3e461b14	0.19346267
76	0xbca952c9	-0.020669358
77	0x3e85c071	0.26123384
78	0xbda5fb5a	-0.08104582
79	0xbdfd3207	-0.123630576
80	0xbe4f7ebc	-0.20263189
81	0xbe569bee	-0.2095792
82	0x3d80f106	0.062959716
83	0xbcbe95ea	-0.023264844
84	0xbe73b4aa	-0.23799387
85	0xbe08c13a	-0.1335496
86	0xbe932ad2	-0.28743607
87	0x3e8da598	0.276654
88	0x3caf6c81	0.021414043
89	0xbe1c0723	-0.15237097
90	0xbdb7cfe2	-0.089751974
91	0xbe383a2b	-0.1799094
92	0x3e49e91c	0.1971783
93	0xbe061edf	-0.13097714
94	0x3cf58bae	0.029973831
95	0x3e0fa5b3	0.14028053
96	0x3daac049	0.08337457
97	0xbc40730d	-0.01174618
98	0xbde189d5	-0.110126175
99	0x3d574c7b	0.05256317
100	0xbe7796e7	-0.24178658
101	0x3dab14f1	0.08353604
102	0x3e30407b	0.17212097
103	0x3e7f75df	0.24947308
104	0xbc8652b4	-0.016396858
105	0x3d90e864	0.07075575
106	0x3e7a52d6	0.24445662
107	0x3e624975	0.22098334
108	0xbcf66bf3	-0.030080771
109	0x3e5b1489	0.21394552
110	0xbd6724af	-0.05643147
111	0x3e978a5c	0.29597747
112	0x3e7e3d36	0.24828038
113	0x3e6e07de	0.23245189
114	0xbe4d7c29	-0.20066895
115	0x3d242fa8	0.04008451
116	0x3d044887	0.03229573
117	0xbc911375	-0.017709473
118	0xbcdfa2e0	-0.027299345
119	0xbe671a9c	-0.22568744
120	0x3dae71f8	0.085178316
121	0x3d9e3c80	0.07726383
122	0xbe626fe3	-0.22112994
123	0xbe863505	-0.26212326
124	0xbe126d70	-0.1429956
125	0x3dea0133	0.1142601
126	0xbe2d72d8	-0.1693834
127	0xbe50b5ca	-0.20381847
128	0x3cf213b7	0.029550416
129	0xbe3e4e8b	-0.1858465
130	0x3d946e1a	0.07247563
131	0xbe390b3c	-0.18070692
132	0xbd5cb6d5	-0.0538853
133	0x3ccf5a7e	0.025311705
134	0xbd7f0ffb	-0.0622711
135	0x3e7ae682	0.24501994
136	0x3e0b75dd	0.1361918
137	0x3d0ae287	0.03390744
138	0xbe494fe1	-0.19659378
139	0x3df602bd	0.12012241
140	0x3d193861	0.037407283
141	0x3e23a088	0.15979207
142	0x3e2149bc	0.15750784
143	0x3d078164	0.03308238
144	0xbd5af268	-0.053453833
145	0x3e45fd9c	0.19335026
146	0xbdb11414	-0.08646408
147	0xbd751d7a	-0.059842564
148	0x3dd880f7	0.10571473
149	0x3e4b5f51	0.19860579
150	0xbe02feda	-0.1279253
151	0xbd14a727	-0.03629222
152	0xbde37911	-0.11107076
153	0x3e150d82	0.14555934
154	0xbc8504ca	-0.016237635
155	0xbe421f7b	-0.18957321
156	0xbdff219c	-0.12457582
157	0xbe8381b3	-0.2568489
158	0xbe4cb02d	-0.1998908
159	0x3ddaf584	0.1069136
160	0x3e868718	0.26274943
161	0xba65ae19	-0.00087615993
162	0xbe7023d1	-0.23451163
163	0xbccc2a89	-0.024922626
164	0x3d3276d7	0.043570366
165	0xbe34bb29	-0.17649521
166	0x3da72b21	0.08162523
167	0x3d33e3d4	0.043918446
168	0x3ddc0d58	0.107447326
169	0x3d55c1fc	0.05218695
170	0xbe124292	-0.14283207
171	0xbe1452a1	-0.14484645
172	0x3d32a541	0.04361463
173	0xbddfc685	-0.109265365
174	0xbd04581b	-0.032310586
175	0xbe4080cc	-0.18799132
176	0xbce47922	-0.027889792
177	0xbe2a8f72	-0.16656283
178	0xbd9a04ab	-0.075204216
179	0xbe2bc796	-0.16775355
180	0xbc644d38	-0.013934426
181	0x3cd27316	0.025689643
182	0xbe0e938d	-0.13923474
183	0xbd901cf0	-0.070367694
184	0xbcfa5660	-0.030558765
185	0x3ceda67d	0.029010052
186	0xbe054b35	-0.1301697
187	0xbbb8ccc1	-0.005639643
188	0x3d096e71	0.03355259
189	0xbdef91c3	-0.11697724
190	0x3b274aae	0.002552669
191	0x3cfd04c6	0.030886065
192	0xbd850e82	-0.06496908
193	0x3ddc8bda	0.10768862
194	0xbdd8ed94	-0.105921894
195	0x3d27758b	0.040883582
196	0x3d7c9022	0.061660893
197	0xbda3b23a	-0.079929784
198	0x3d74f0f7	0.059800114
199	0x3e36d028	0.17852843

conv1.bias f4 [8]
0	0x3e2f09df	0.1709361
1	0x3c879db3	0.016554689
2	0xbe12f774	-0.14352208
3	0xbcd543db	-0.026033333
4	0xbdac640b	-0.08417519
5	0x3d99c104	0.07507518
6	0xbc10eb73	-0.008845198
7	0x3e3d654b	0.18495671

conv2.weight f4 [16, 8, 3, 3]
0	0x3be120a5	0.0068703466
1	0xbdb4d34e	-0.08829366
2	0xbbba651c	-0.0056883227
3	0x3dd425b8	0.10358757
4	0xbd0e3362	-0.03471697
5	0x3dcf3dfc	0.101192445
6	0xbb9272d8	-0.004469257
7	0x3d9174a6	0.07102327
8	0x3da9ad79	0.082850404
9	0xbc154659	-0.0091110105
10	0xbe05162d	-0.1299674
11	0xbce2ade7	-0.027670814
12	0x3d2d672d	0.042334724
13	0xbd277d6c	-0.040891096
14	0xbe396211	-0.18103816
15	0x3b9b26b8	0.0047348402
16	0x3d6a8532	0.05725593
17	0xbd1900cc	-0.037354276
18	0xbccf7638	-0.025324926
19	0xbd113bbf	-0.03545737
20	0xbdc6fa46	-0.097157046
21	0x3dad0cf2	0.08449735
22	0xbe070e63	-0.13189082
23	0xbe1e0529	-0.15431656
24	0x3d8931fc	0.06698987
25	0xbe084649	-0.13308062
26	0xbdaa4168	-0.083132565
27	0x3d3962bc	0.045260176
28	0x3db3554c	0.087565035
29	0x3d2d0e1d	0.042249788
30	0xbd1aa42e	-0.03775423
31	0xbdcd555c	-0.10026047
32	0x3db5c914	0.08876243
33	0xbddf64a2	-0.10907866
34	0x3dcc28d2	0.09968723
35	0x3dd89e6d	0.10577092
36	0xbddc7dfc	-0.10766217
37	0xbd7334bc	-0.059376463
38	0x3db4f2bb	0.0883536
39	0xbe0ae952	-0.13565567
40	0xbdc3e303	-0.095647834
41	0xbd61b289	-0.055101905
42	0xbe3070c2	-0.17230514
43	0xbd3fc068	-0.046814352
44	0xbd218834	-0.039436534
45	0x3d33778f	0.04381519
46	0xbe19d627	-0.15023099
47	0xbdc7ea6a	-0.09761508
48	0xbd4f8183	-0.05066062
49	0xbd42635c	-0.047458038
50	0xbdeff66a	-0.11716922
51	0x3c845af9	0.01615666
52	0x3daa9b71	0.08330429
53	0x3a9ef289	0.0012126724
54	0x3dddc25a	0.10828085
55	0x3db6fdd1	0.089351304
56	0x3d1a2645	0.037634153
57	0x3cfdae3d	0.030966872
58	0x3ca2e8f3	0.01988647
59	0xbdbc9d27	-0.09209662
60	0x3b52cccc	0.0032165525
61	0x3c801616	0.015635531
62	0xbdb9eac8	-0.09077984
63	0xbdd46396	-0.10370557
64	0xbe27ad56	-0.16374716
65	0xbabe213a	-0.0014505752
66	0x3dda3ed6	0.10656516
67	0x3d7efdd5	0.06225379
68	0x3da79590	0.08182824
69	0xbd8f6b89	-0.070029326
70	0x3d534dc0	0.05158782
71	0x3d21ce6f	0.03950351
72	0x3de2db5d	0.110769965
73	0xbc9bfe15	-0.019042054
74	0x3cec6c45	0.02886022
75	0x3d653eb4	0.055968
76	0xbd0729b0	-0.03299874
77	0xbd030101	-0.03198338
78	0xbe05f6be	-0.13082406
79	0x3c4c7d8a	0.012481103
80	0x3d926aa9	0.0714925
81	0x3dcc5070	0.0997628
82	0xbc30ccb6	-0.010790994
83	0xbd95b191	-0.07309259
84	0x3e4ad056	0.19806036
85	0x3de4650b	0.11152085
86	0x3d512127	0.051057007
87	0x3d495331	0.049151603
88	0x3cf2e81c	0.029651694
89	0x3c4f94f2	0.012669789
90	0xbc120ffa	-0.008914942
91	0x3dbe21a9	0.09283764
92	0xbe1640a6	-0.14673099
93	0x3da44852	0.080216065
94	0xbd220109	-0.03955177
95	0x3d951a50	0.07280409
96	0x3e41458c	0.18874186
97	0x3d407f3a	0.046996333
98	0xbd8502dd	-0.06494687
99	0xbdd324ff	-0.10309791
100	0xbd8486ee	-0.06471048
101	0x3d7e3b96	0.062068544
102	0xbc9c316c	-0.019066535
103	0xbdb8c012	-0.090210095
104	0x3d61bd9b	0.055112462
105	0x3d187015	0.037216265
106	0xbdb5985a	-0.088669494
107	0xbdaa9347	-0.08328872
108	0x3d94d33c	0.07266852
109	0xbddb3585	-0.107035674
110	0xbce5393a	-0.02798139
111	0xbd8d9865	-0.069138326
112	0xbd06dcd6	-0.03292545
113	0xbe145058	-0.14483774
114	0x3c4fe146	0.012687987
115	0x3d70d56b	0.05879728
116	0x3dd8a52b	0.10578378
117	0x3cd1bf6b	0.02560397
118	0xbd43a0f4	-0.04776092
119	0x3d2c7dea	0.04211227
120	0x3e09c606	0.13454446
121	0x3e02ff28	0.12792647
122	0x3d87cfea	0.06631453
123	0xbd4ec48e	-0.050480418
124	0x3de653a2	0.112464204
125	0x3de1bcea	0.110223606
126	0xbda17db2	-0.078853026
127	0x3d8e3e11	0.06945432
128	0xbdec79df	-0.115466826
129	0xbd8c35c9	-0.06846196
130	0x3d0514c7	0.032490518
131	0xbbeb9220	-0.0071890503
132	0x3db2d159	0.08731336
133	0xbd4b0bf6	-0.049571954
134	0xbde70b8b	-0.112814985
135	0x3e0b46e4	0.13601261
136	0x3dfee643	0.12446263
137	0x3e44ce5f	0.1921935
138	0x3e21fa55	0.1581815
139	0x3d2f0e96	0.04273852
140	0x3ddf8579	0.1091413
141	0x3cb62f16	0.02223925
142	0x3ca2cb87	0.01987244
143	0x3e1d2c5d	0.15348954
144	0xbe07ebc6	-0.13273534
145	0xbd996d4a	-0.07491548
146	0xbdb2eb9d	-0.08736346
147	0xbd1f98ef	-0.03896421
148	0xbe1acac1	-0.15116407
149	0xbdd655a1	-0.10465551
150	0xbdc46244	-0.09589055
151	0x3dc3ca1d	0.095600344
152	0xb8615b42	-5.372917e-05
153	0xbe229029	-0.15875305
154	0x3cf47282	0.029839758
155	0xbe1ffc60	-0.15623617
156	0xbb2723fb	-0.0025503624
157	0xbe288d37	-0.16460119
158	0xbd8bf1ec	-0.06833252
159	0x3cf30fd3	0.029670632
160	0x3d2c464e	0.042059235
161	0xbd887d36	-0.06664507
162	0xbd0346d6	-0.032049976
163	0x3c7bf97f	0.015379309
164	0x3cc931b5	0.024559835
165	0xbd8d306d	-0.06894002
166	0x3d9069d4	0.07051435
167	0x3d792239	0.060823653
168	0xbd8a85a9	-0.06763775
169	0xbd82cd46	-0.06386809
170	0xbdb1d2a3	-0.08682754
171	0x3e024ed5	0.12725385
172	0xbd4eda34	-0.050501063
173	0xbd9742f1	-0.07385815
174	0x3d8e0db5	0.06936208
175	0xbb63c0d6	-0.003475239
176	0xbd9b91b7	-0.07596152
177	0x3d974eac	0.07388052
178	0xbd7058a2	-0.058678277
179	0x3dcd1912	0.100145474
180	0x3c7b189e	0.015325693
181	0xbdabe1cd	-0.083926775
182	0xbca044e2	-0.019564096
183	0xbcd3cf17	-0.025855584
184	0x3d8f7bd2	0.07006039
185	0xbd886cbf	-0.06661367
186	0x3dae4dac	0.085109085
187	0x3d9f9d2a	0.077936485
188	0x3cbfcc86	0.023412954
189	0xbddc7ff0	-0.1076659
190	0xbd9b7ae6	-0.075918004
191	0x3d9d4f85	0.07681183
192	0xbd8f8601	-0.07007981
193	0xbdd5eb09	-0.1044522
194	0xbda15879	-0.07878203
195	0x3d57567c	0.052572712
196	0xbdcd358e	-0.1001998
197	0x3d35f75b	0.04442535
198	0xbdadc7cd	-0.084853746
199	0xbd21aec5	-0.039473314
200	0xbd8443a9	-0.06458218
201	0xbe03031d	-0.12794156
202	0x3cc6192c	0.024181925
203	0xbdc04773	-0.09388628
204	0xbd2866c6	-0.041113637
205	0x3c905b35	0.017621616
206	0xbc8834e8	-0.01662679
207	0x3cccc413	0.02499584
208	0xbe4eae14	-0.20183593
209	0xbda5405b	-0.080689155
210	0xbe27f5bb	-0.16402332
211	0xbe08132f	-0.13288568
212	0xbd6220ee	-0.055207185
213	0xbe1d51ce	-0.15363237
214	0xbe21adfa	-0.15789023
215	0xbe65bb47	-0.22434722
216	0xbccfc5d6	-0.02536289
217	0x3dfef4ef	0.12449061
218	0x3db3e6fa	0.0878429
219	0x3ca682eb	0.020326098
220	0x3cf4d83f	0.02988827
221	0xbcf2c3d0	-0.029634386
222	0x3e6c0985	0.23050506
223	0x3e04ad94	0.1295684
224	0xbd0502e5	-0.032473464
225	0x3d3751d7	0.044755783
226	0x3dd2cc94	0.102929264
227	0x3de8e866	0.113724515
228	0xbda41b22	-0.08012988
229	0xbd57efb1	-0.052718822
230	0x3dda914d	0.10672245
231	0x3d366621	0.04453099
232	0xbdc528fb	-0.09626957
233	0x3dda568a	0.10661037
234	0x3e45daf5	0.19321807
235	0x3e3f2e44	0.18669993
236	0x3e3e6383	0.18592648
237	0x3c50f18e	0.012752904
238	0x3da7c0d8	0.08191079
239	0x3e2fd5b3	0.17171364
240	0x3e002b2b	0.12516467
241	0x3e5882ca	0.21143642
242	0x3d51a370	0.051181257
243	0xbe33bf18	-0.17553365
244	0xbdbfab44	-0.09358838
245	0x3cbe6bb2	0.023244713
246	0xbd8bc4f6	-0.06824677
247	0xbe468b05	-0.19388969
248	0xbd80fbbe	-0.06298016
249	0xbe144103	-0.14477925
250	0xbe352d97	-0.17693172
251	0xbde17069	-0.11007769
252	0x3e6ff5db	0.2343363
253	0x3e3bdff4	0.1834715
254	0xbb9be254	-0.004757205
255	0x3e397e6e	0.18114635

conv2.bias f4 [16]
0	0xbdd3dc9f	-0.103448145
1	0x3d926a22	0.071491495
2	0xbdee5976	-0.11638157
3	0xbdf5ed36	-0.12008135
4	0xbe220521	-0.15822269
5	0x3dffceb3	0.124905966
6	0x3df5e977	0.120074205
7	0x3de360bc	0.11102435
8	0x3ddb646e	0.10712515
9	0x3d2f8f83	0.042861473
10	0xba86b4cd	-0.0010277272
11	0xbd737645	-0.059438962
12	0x3c286124	0.010277066
13	0x3de4fe04	0.11181262
14	0xbd4b7a17	-0.04967698
15	0xbdddbb72	-0.10826768

conv3.weight f4 [32, 16, 3, 3]
0	0x3badd1d0	0.0053045526
1	0xbd90b711	-0.07066167
2	0xbd8740bf	-0.06604146
3	0x3d23ee98	0.040022463
4	0x3c856162	0.016281787
5	0x3d612d28	0.054974705
6	0xbd671213	-0.05641372
7	0xbcf794cc	-0.030222319
8	0xbbb05382	-0.0053810487
9	0xbd60112c	-0.054703876
10	0x3d7a2f4c	0.061080262
11	0x3d160e3b	0.036634665
12	0x3dc8ba5d	0.09801171
13	0x3d2b7cdb	0.04186712
14	0x3d8de2a3	0.06927993
15	0x3dce4984	0.10072616
16	0x3dbd2608	0.092357695
17	0x3da26d06	0.07930951
18	0x3cc509da	0.02405255
19	0x3d47b309	0.048754726
20	0x3aa10420	0.0012284555
21	0xbc2d4940	-0.010576546
22	0xbdb4733c	-0.08811042
23	0xbd06821b	-0.032838922
24	0xbd67cb2c	-0.056590244
25	0x3d807344	0.06271985
26	0xbda7793d	-0.08177421
27	0xbcc6150a	-0.024179954
28	0x3d6cce9b	0.05781422
29	0x3d8a8f21	0.06765581
30	0x3d893a43	0.06700566
31	0x3dd081b1	0.10180987
32	0x3db90bd7	0.090354614
33	0x3d9b877b	0.075942
34	0x3d444a26	0.047922276
35	0xbbcdd225	-0.0062811547
36	0x3df9d630	0.12199056
37	0xbc423641	-0.011853755
38	0x3a39a0ce	0.00070811517
39	0x3d72526b	0.05916063
40	0x3dabf889	0.08397014
41	0xbd7614c1	-0.060078386
42	0x3e42f7bd	0.19039817
43	0x3ccf0d5e	0.025274929
44	0x3d968488	0.07349497
45	0x3c96ac35	0.018392662
46	0x3d654dce	0.055982403
47	0x3d7847e9	0.060615454
48	0xbcdb0d53	-0.026739752
49	0x3c73a66e	0.014871223
50	0xbd86980a	-0.06571968
51	0x3db83705	0.08994869
52	0xbcfd7bdb	-0.030942848
53	0x3cbca22d	0.02302655
54	0x3c02bf4a	0.007980177
55	0xbda3995b	-0.079882346
56	0x3c9a74e8	0.018854573
57	0x3cb391ce	0.021920111
58	0xba269588	-0.00063546794
59	0x3d2671f8	0.040636033
60	0xbb1d4473	-0.0023997098
61	0x3dac8a79	0.08424849
62	0xbc9d59bb	-0.019207826
63	0x3d8b1ac9	0.06792218
64	0xbd93776a	-0.07200511
65	0xbbfb79ec	-0.0076744463
66	0xbd989374	-0.074499995
67	0xbceb4ae8	-0.028722242
68	0xbd88ece9	-0.06685812
69	0x3d7a1f08	0.06106475
70	0xbd62163d	-0.05519699
71	0xbd2b3261	-0.041796092
72	0xbd649bc2	-0.055812605
73	0xbcf0fb1c	-0.029416613
74	0x3d504386	0.050845645
75	0x3b6dec59	0.0036304204
76	0xbc9deab1	-0.019276949
77	0x3da60118	0.08105677
78	0xbb62b9b7	-0.0034595558
79	0x3bae826d	0.0053256066
80	0x3d6dbc27	0.058040764
81	0xbbae8045	-0.0053253495
82	0x3d925c9b	0.07146569
83	0xbcffb583	-0.031214481
84	0x3bad5c0d	0.0052905143
85	0xbd050c6a	-0.032482542
86	0x3d9496bc	0.07255313
87	0x3bda3859	0.006659549
88	0xbd29e134	-0.041474536
89	0xbd5a8082	-0.05334521
90	0xbd7b8735	-0.06140824
91	0xbdf4e555	-0.11957804
92	0xbda0fe1f	-0.0786097
93	0xbe064579	-0.13112439
94	0xbdb56504	-0.08857158
95	0xbd9a62e0	-0.0753839
96	0xbda5ad30	-0.080896735
97	0xbcf391be	-0.029732581
98	0x3c8e41e9	0.017365413
99	0x3ca8d657	0.020610018
100	0x3a15eb16	0.00057189295
101	0x3db8d5f4	0.09025183
102	0x3d5d0fa9	0.053970013
103	0x3da0af11	0.07845891
104	0xbccab9ce	-0.024746802
105	0xbce09274	-0.027413584
106	0xbd02404a	-0.031799592
107	0xbca6d73f	-0.02036631
108	0x3dbf93ba	0.093543485
109	0x3d32227c	0.043489918
110	0xbd1c5f3e	-0.038176768
111	0xbaf805ed	-0.0018922664
112	0x3d98ea96	0.07466619
113	0x3d8aa3e6	0.067695424
114	0x3d2badb4	0.041913703
115	0x3ceb83ef	0.028749434
116	0xbd36b4d1	-0.044606034
117	0x3d584680	0.05280161
118	0x3d5ddc62	0.05416525
119	0x3b82d93b	0.003993181
120	0xbc6ee275	-0.014580359
121	0x3d8c0466	0.068367764
122	0xbd8dbb31	-0.069204696
123	0xb9b63673	-0.00034754313
124	0xbc3469eb	-0.011011581
125	0x3ccfc2a6	0.02536137
126	0x3dc45eb1	0.095883735
127	0x3da3ab77	0.07991689
128	0xbd57de61	-0.05270231
129	0x3ae8b729	0.0017754781
130	0x3beabf82	0.007163943
131	0xbb85983c	-0.0040769856
132	0x3df4bed8	0.11950463
133	0x3e1e9762	0.15487435
134	0x3db90571	0.09034241
135	0xbd52b630	-0.05144328
136	0xbd77f0a4	-0.060532227
137	0x3d0ddc87	0.03463414
138	0xbbbdc20d	-0.005790955
139	0x3d6cf28b	0.057848494
140	0xbda2ed8a	-0.07955463
141	0x3d0af51b	0.033925157
142	0x3cef417d	0.029206032
143	0xbdacccd4	-0.08437505
144	0xbd17ccf8	-0.037060708
145	0x3bb87899	0.0056296107
146	0x3d614635	0.054998595
147	0xbd439f28	-0.047759205
148	0xbc832b29	-0.016011791
149	0x3ccfcd3e	0.025366422
150	0x3d84f71c	0.06492445
151	0x3b82c284	0.003990473
152	0xbd12aefc	-0.03581141
153	0xbce2f74d	-0.027705813
154	0xbd2f9049	-0.04286221
155	0xbbe27cc0	-0.006911844
156	0xbcba6d19	-0.0227571
157	0xbdb3cc62	-0.08779217
158	0xbdc9d800	-0.09855652
159	0xbd969204	-0.07352069
160	0x3d37dec9	0.0448902
161	0xbd1aea67	-0.0378212
162	0x3cf121c2	0.029435042
163	0x3d3980a7	0.045288708
164	0x3d912a60	0.070881605
165	0x3c1e8ceb	0.009677152
166	0x3da482e0	0.08032775
167	0x3e199c46	0.1500102
168	0x3dd90b82	0.10597898
169	0x3da37ea4	0.07983139
170	0x3e48da6f	0.19614576
171	0xbd4e3cb4	-0.05035086
172	0x3d5a0bf0	0.05323404
173	0x3c755f4a	0.014976332
174	0x3dc9088d	0.09816084
175	0x3d8e2343	0.069403194
176	0x3c913a43	0.017727977
177	0xbcb134a3	-0.021631544
178	0xbdd76dcb	-0.10518988
179	0xbd26073e	-0.04053425
180	0x3bdc055a	0.006714505
181	0x3d8514ac	0.064980835
182	0x3dfcc6fd	0.123426415
183	0x3e0ec470	0.13942122
184	0x3ddd15b6	0.10795157
185	0x3e0fd264	0.14045101
186	0xbd709b70	-0.058741987
187	0xbdb55b3d	-0.08855293
188	0xbc7e9de6	-0.015540576
189	0x3be0b0dc	0.006857021
190	0xbda1243b	-0.078682385
191	0x3d895d51	0.06707252
192	0xbd9df282	-0.0771227
193	0xbda6d1a2	-0.08145453
194	0xbd0952a3	-0.033526074
195	0xbc9a236d	-0.01881572
196	0xbb5f6dfc	-0.0034092655
197	0xbe1780b1	-0.14795186
198	0x3d371b5f	0.044703837
199	0xbca31d8e	-0.019911554
200	0xbda09707	-0.07841306
201	0xbd6a63d6	-0.057224117
202	0xbd758c40	-0.059948206
203	0xbd0a8ee3	-0.033827674
204	0xbd242a59	-0.04007945
205	0xbd5e3c97	-0.054257
206	0xbd12b112	-0.0358134
207	0xbd0d52bb	-0.034502726
208	0xbde77a27	-0.113025956
209	0xbc602870	-0.013681516
210	0x3d5160ca	0.051117696
211	0xbd5392e7	-0.05165377
212	0xbe0634f4	-0.13106138
213	0x3c26fe3f	0.010192453
214	0xbb7f561d	-0.003896124
215	0x3dd34565	0.1031597
216	0xbaadc97e	-0.0013258902
217	0x3d2a1e1a	0.041532613
218	0xbcdfe642	-0.027331475
219	0xbda8bda8	-0.08239299
220	0xbdae5647	-0.0851255
221	0x3d22406f	0.03961223
222	0xbdefd69f	-0.117108576
223	0xbd8ca3c7	-0.068671755
224	0x3bfba711	0.007679828
225	0x3d342f70	0.043990552
226	0x3dd92045	0.10601858
227	0xbd4696af	-0.048483547
228	0x3d88d839	0.06681866
229	0x3befffbc	0.007324187
230	0x3c5a8533	0.013337421
231	0xbe1cc676	-0.15310082
232	0xbe51bb59	-0.20481624
233	0xbdabd99d	-0.08391116
234	0xbdb38889	-0.087662764
235	0xbc71a482	-0.014748694
236	0x3e07a4a7	0.13246404
237	0x3de2750c	0.11057481
238	0x3dbc76eb	0.09202369
239	0x3dce7fc4	0.10082963
240	0x3d042006	0.032257102
241	0x3e3d536a	0.18488851
242	0x3e702177	0.23450266
243	0xbcb93e78	-0.022612795
244	0x3e01b053	0.12664919
245	0x3c59ba2e	0.013289018
246	0x3d201483	0.03908206
247	0x3e0632fd	0.13105388
248	0x3e2ede99	0.17077102
249	0xbd0746eb	-0.033026617
250	0xbcaeddbf	-0.021345971
251	0x3e125ed2	0.14293984
252	0xbbfdb9ca	-0.007743095
253	0xbcab396b	-0.020901402
254	0xbd7f0051	-0.06225616
255	0x3d97d6b1	0.07413996

conv3.bias f4 [32]
0	0xbd0f80ec	-0.03503506
1	0xbd8369c9	-0.06416661
2	0x3db83639	0.08994717
3	0x3d88a4c3	0.06672051
4	0x3d3bdde4	0.04586591
5	0x3d9cafff	0.07650756
6	0xbd9cd150	-0.07657111
7	0xbd6b57fa	-0.057456948
8	0xbdc8c748	-0.09803635
9	0x3dabf3e1	0.083961256
10	0xbd34ca20	-0.044138074
11	0x3d2b92e2	0.041888125
12	0x3d4cacea	0.04996959
13	0xbd57408e	-0.0525518
14	0x3dc87fad	0.09789977
15	0xbd98c00b	-0.07458504
16	0x3da76d89	0.08175189
17	0xbd0dc285	-0.034609336
18	0x3dadbaa2	0.08482863
19	0xbddcb7b2	-0.107772246
20	0x3d15c969	0.036569033
21	0xbc996be0	-0.018728197
22	0x3d751ca7	0.059841778
23	0xbb25cf55	-0.0025300581
24	0xbda1255f	-0.07868456
25	0x3d16f715	0.03685673
26	0xbd7b6a8e	-0.061380915
27	0xbd43ba1c	-0.04778491
28	0x3c332a32	0.010935353
29	0xbdb447f4	-0.088027865
30	0xbd9614e1	-0.07328201
31	0xbd9522e7	-0.07282048

fc1.weight f4 [8, 3200]
0	0xbcf99ec1	-0.030471208
1	0xbc8b3e49	-0.016997473
2	0xbd27afd4	-0.040939167
3	0xbcfe4401	-0.031038286
4	0xbb4fac8e	-0.0031688544
5	0xbc5970f6	-0.013271561
6	0xbaf5b888	-0.0018747011
7	0xbc9d363c	-0.0191909
8	0xbd68ed6b	-0.056867044
9	0xbd192ec7	-0.037398126
10	0xbd08bb67	-0.033381846
11	0xbce37371	-0.027765008
12	0xbd0dbdce	-0.03460484
13	0xbd333621	-0.043752793
14	0xbc9c2357	-0.01905982
15	0xbbfaf019	-0.0076580164
16	0xbd11aad2	-0.035563298
17	0xbd05335a	-0.032519676
18	0xbd4eabcf	-0.05045682
19	0xbcc3009e	-0.023804005
20	0xbcacf70f	-0.0211139
21	0xbd8687c7	-0.06568866
22	0xbd94bca4	-0.07262543
23	0xbd3bdb52	-0.045863457
24	0xbd11719f	-0.03550875
25	0xbd198746	-0.037482522
26	0xbd578f1d	-0.052626718
27	0xbd7e85f9	-0.062139485
28	0xbd537a7c	-0.051630482
29	0xbc950318	-0.018189952
30	0xbc43933b	-0.011936958
31	0xbd4bad95	-0.049726088
32	0xbd19cb8f	-0.037547644
33	0xbd007121	-0.031357888
34	0x3bb612df	0.005556449
35	0xbd28b53b	-0.04118846
36	0xbd6dd89a	-0.058067895
37	0xbd8ad2b6	-0.06778471
38	0xbd118e4b	-0.03553609
39	0xbd267da1	-0.040647153
40	0xbcae8dcc	-0.021307848
41	0xbc758cec	-0.014987212
42	0xbcc324e1	-0.023821296
43	0xbccc3206	-0.024926197
44	0xbafe6f72	-0.0019411875
45	0xbd1656c0	-0.036703825
46	0xbd86cd99	-0.065821834
47	0xbd8ae6af	-0.06782281
48	0xbd2ac750	-0.041693985
49	0xbd0bbf9d	-0.034118284
50	0x3c162686	0.009164458
51	0xbcbd9107	-0.023140443
52	0xbc90afb4	-0.017661907
53	0x38762c08	5.8691978e-05
54	0xba666df8	-0.00087901903
55	0xbcafac5a	-0.021444488
56	0xbcb46b94	-0.022023953
57	0xbce602f9	-0.02807759
58	0xbca56e5f	-0.02019423
59	0xbcbde3e7	-0.023179961
60	0x3c1a8621	0.009431393
61	0xbb9345c7	-0.004494402
62	0xbc90ee8f	-0.017691879
63	0xbc5f4594	-0.013627429
64	0x3b95ccb1	0.0045715203
65	0xbc5d6dff	-0.013514995
66	0xbccb7ce8	-0.024839833
67	0xbced4653	-0.028964197
68	0xbbe189b4	-0.0068828706
69	0xbd229943	-0.039696943
70	0xbd17bd51	-0.03704578
71	0xbd1f5365	-0.03889789
72	0xbbd165fe	-0.0063903322
73	0xbcc47b0b	-0.023984453
74	0xbcb363e2	-0.021898214
75	0xbd2edc60	-0.042690635
76	0xbcf982d1	-0.030457886
77	0xbcae10e9	-0.021248298
78	0xbcf909b3	-0.030400133
79	0xbd75acf1	-0.059979383
80	0xbc990d3c	-0.018683068
81	0xbc8be77b	-0.017078152
82	0xbc7f2762	-0.015573354
83	0xbcf745b4	-0.030184604
84	0xbc8f35d3	-0.01748172
85	0xbd0f1a17	-0.03493699
86	0xbccdc4f5	-0.02511833
87	0xbd05f31c	-0.03270255
88	0xbca6308c	-0.02028682
89	0xbd54bbb4	-0.05193682
90	0xbc8a74c0	-0.016901374
91	0xbc9c1cdd	-0.019056732
92	0xbd2530ce	-0.040329747
93	0xbd59cce0	-0.0531739
94	0xbc884afe	-0.016637322
95	0xbcad87bb	-0.021182885
96	0xbc9daede	-0.019248422
97	0xbcdbb22a	-0.026818354
98	0xbd0bd09a	-0.034134485
99	0xbd319c97	-0.043362226
100	0x3d4c4930	0.049874485
101	0xb9bd69e5	-0.00036127787
102	0x3c6a29a7	0.014292157
103	0x3d065264	0.032793418
104	0x3c8ebffd	0.017425532
105	0x3a81a839	0.0009892053
106	0x3cb475fa	0.022028912
107	0x3ce38cd7	0.027777119
108	0x3c4204d1	0.011841969
109	0x3c1eb628	0.009686984
110	0x3d30fee5	0.043211836
111	0x3d1c1a38	0.03811094
112	0x3ca00ba8	0.019536808
113	0x3c5c2d2e	0.013438506
114	0x3d0036cf	0.03130227
115	0x3c165790	0.00917615
116	0xbd255e82	-0.040373333
117	0xbbb15bed	-0.0054125697
118	0x3d2485cd	0.040166665
119	0x3d3c46d6	0.045965992
120	0x3c0875b8	0.008328848
121	0x3c6276f7	0.013822309
122	0x3cbd7699	0.02312784
123	0xbc360bef	-0.011111244
124	0x3d1d5647	0.03841236
125	0x3ce5515b	0.027992895
126	0x3c0fb7c0	0.008771837
127	0x3bef8af2	0.0073102647
128	0x3d3059c9	0.043054376
129	0x3d30582f	0.04305285
130	0xbd52cf18	-0.05146703
131	0xbc972395	-0.018449584
132	0x3ce9b588	0.028528944
133	0xbd0e373c	-0.034720644
134	0x3c3b8794	0.011445899
135	0x3d58c313	0.052920412
136	0x3c647d88	0.013945945
137	0x3d3d40e0	0.046204448
138	0x3d3ad59d	0.045613874
139	0x3d86612c	0.06561503
140	0xbd9eadcd	-0.077479936
141	0xba8fd0f1	-0.0010972304
142	0xbbb82423	-0.005619542
143	0xbd269d68	-0.040677458
144	0xbd019dec	-0.031644747
145	0x3cd94931	0.026524158
146	0x3c0e3d22	0.008681567
147	0x3d18ae41	0.037275556
148	0x3d55804c	0.052124307
149	0x3d8cf0e8	0.06881887
150	0x3c147684	0.009061459
151	0x3c493258	0.012280069
152	0x3c9ea78d	0.019367004
153	0xbbd30481	-0.006439746
154	0xbc773580	-0.015088439
155	0xbc95e444	-0.018297322
156	0x3c171bfd	0.0092229815
157	0x3bc8da45	0.0061295354
158	0x3d2ae857	0.041725483
159	0x3d599b7f	0.05312681
160	0x3cd559a1	0.026043715
161	0xbc1c2aa8	-0.009531654
162	0x3b9e59eb	0.0048324964
163	0x3c32cf89	0.010913738
164	0x3b9fcf32	0.0048769945
165	0xbc5d89d7	-0.013521633
166	0xbc989e36	-0.018630128
167	0xbb4f6033	-0.0031643033
168	0xbb5b29ca	-0.0033441656
169	0x3bdfed29	0.0068336916
170	0x3beb2fa2	0.007177309
171	0x3d467697	0.04845294
172	0x3d1e4945	0.038644094
173	0x3d76cfa5	0.06025662
174	0x3cd2c9fd	0.025731081
175	0x3c51fc09	0.0128164375
176	0x3bb6ac34	0.0055747274
177	0x3d35808c	0.044312045
178	0x3d72f19b	0.059312444
179	0x3d48c06b	0.04901163
180	0x3b9738e4	0.004614936
181	0x3d9e6644	0.07734349
182	0x3d1a65af	0.03769463
183	0x3d18fc70	0.03735012
184	0x3d070393	0.032962393
185	0x3d1fb0ed	0.03898709
186	0x3d46387a	0.048393704
187	0x3d55c51d	0.052189935
188	0x3d842d5b	0.06453963
189	0x3d8b0385	0.06787781
190	0xbd292147	-0.0412915
191	0xbc8c02e5	-0.017091224
192	0xbcc6d1b1	-0.02426991
193	0xbd000ba1	-0.03126109
194	0xbcdecd02	-0.027197365
195	0xbb9e01e8	-0.0048220046
196	0xbb9777d3	-0.0046224385
197	0x3bbe82bf	0.005813926
198	0x3b09b924	0.0021014893
199	0xbc08786c	-0.008329492
200	0xbd2f7e87	-0.042845275
201	0xbc2561d5	-0.010094126
202	0x3c383491	0.011243002
203	0xbd2d0000	-0.042236328
204	0xbdf26174	-0.11834994
205	0xbdb4287e	-0.08796786
206	0xbc9bdacb	-0.019025227
207	0xbc5e9457	-0.013585172
208	0xbd6c27a4	-0.05765499
209	0xbd82e9a6	-0.06392221
210	0xbbeef965	-0.0072929137
211	0xbbfae569	-0.0076567424
212	0x3c84bf93	0.016204631
213	0xbd455391	-0.0481754
214	0xbd978315	-0.07398049
215	0xbda49880	-0.080368996
216	0xbba12b7d	-0.0049185143
217	0x3c271b86	0.010199433
218	0xbc0927bd	-0.008371291
219	0xbd19959f	-0.037496205
220	0xbcc568e9	-0.024097877
221	0xbc9c60bb	-0.019089093
222	0xbba6bc2b	-0.0050883493
223	0x3ac4266f	0.0014965067
224	0xbdc63676	-0.09678356
225	0xbe04c4d8	-0.12965715
226	0xbc7b7840	-0.015348494
227	0x3d73b506	0.05949881
228	0xbc8a5282	-0.016885046
229	0xbaa35e12	-0.0012463948
230	0xbc731e53	-0.014838773
231	0xbc4a9029	-0.012363472
232	0x3d186944	0.037209764
233	0x3d16a462	0.03677786
234	0xbda4ee62	-0.080532804
235	0xbda40a4b	-0.08009776
236	0x3da40d6c	0.080103725
237	0x3da6e2ae	0.081487045
238	0xbd3bba9b	-0.045832258
239	0xbd2c38ec	-0.042046472
240	0xbd41e086	-0.047333263
241	0xbbeb2315	-0.007175813
242	0x3a9a9f36	0.0011796716
243	0x3d475aa4	0.048670426
244	0xbd223859	-0.03960452
245	0xbd25f329	-0.0405151
246	0x3da9543d	0.0826802
247	0x3d6e662a	0.0582029
248	0xbdad0525	-0.08448247
249	0xbddb0101	-0.10693551
250	0xbd278eaa	-0.04090754
251	0xbbedd4c7	-0.007258031
252	0x3a9f0971	0.0012133551
253	0x3c05b99c	0.0081619285
254	0xbce5459a	-0.02798729
255	0xbd339f2c	-0.04385297

fc1.bias f4 [8]
0	0xbd079ee1	-0.033110503
1	0x3cbe7367	0.023248388
2	0x3c95032c	0.018189989
3	0xbcd46ae5	-0.025929878
4	0x3c3e259e	0.011605648
5	0x3c956a73	0.018239236
6	0x3bb2d5c6	0.0054576127
7	0xbb98afa4	-0.00465961

fc2.weight f4 [8, 3200]
0	0xbca6567a	-0.020304907
1	0xbcd7399b	-0.026272586
2	0xbbfb3237	-0.007665898
3	0xbcd2cd34	-0.025732614
4	0xb9293651	-0.0001613733
5	0xbc786d71	-0.015162812
6	0xbbf7f7fe	-0.007567405
7	0xbcbfedd8	-0.023428842
8	0xbcb13f45	-0.021636615
9	0xbd1dd87c	-0.038536534
10	0xbc0796cf	-0.008275702
11	0xbc62d72a	-0.013845244
12	0xbceb2c46	-0.028707635
13	0xbc2122ad	-0.0098349275
14	0xbce17647	-0.02752222
15	0xbc43a226	-0.011940515
16	0xbcc5b271	-0.024132939
17	0xbcc295d4	-0.023753084
18	0xbcea71d7	-0.028618736
19	0xbcc5f84f	-0.024166254
20	0xbcb6d18e	-0.02231672
21	0xbb231ff8	-0.002489088
22	0xbc7cf3dd	-0.015439001
23	0xbc332e2a	-0.010936299
24	0x39b9e8b0	0.00035459315
25	0xbc59b194	-0.013286967
26	0xbcf31bb9	-0.029676305
27	0x3b37f8ef	0.002807196
28	0xbc20f8bb	-0.009824927
29	0xbc73de6a	-0.014884571
30	0xbcc51b58	-0.02406089
31	0xbcb23984	-0.021755941
32	0xbcf400a3	-0.02978546
33	0xbc4f6242	-0.012657704
34	0xbbbfcde8	-0.0058534034
35	0xbbbe463f	-0.005806714
36	0x3aea621c	0.0017882022
37	0x39c96c01	0.00038418177
38	0xbcff3577	-0.031153424
39	0xbb86a029	-0.004108448
40	0xbcc9a52d	-0.024614895
41	0xbcbf2b0e	-0.02333596
42	0xbb935ae5	-0.0044969195
43	0xbc9a4bf0	-0.018835038
44	0xb9853fab	-0.00025415173
45	0xbc4be303	-0.0124442605
46	0xbcb00f31	-0.021491619
47	0xbc5e0cb3	-0.013552832
48	0xbc438d2a	-0.011935512
49	0xbba76402	-0.0051083574
50	0xbc551402	-0.0130052585
51	0x3b1fbd25	0.0024374214
52	0xbba9562a	-0.0051677423
53	0xba57bacd	-0.00082294346
54	0x3b8d31e0	0.004308924
55	0xbc04d059	-0.008106315
56	0xbcde3f5a	-0.027129818
57	0xbcabfffb	-0.020996084
58	0xbcc85c76	-0.024458151
59	0xbc930532	-0.017946813
60	0xbc08b3ee	-0.00834368
61	0xbcb5be56	-0.022185486
62	0xbc63d764	-0.013906334
63	0x3b3abb6b	0.0028493057
64	0xbc61897c	-0.013765689
65	0xbc947fbd	-0.018127317
66	0xbc9e2baa	-0.01930793
67	0xbbea00a2	-0.0071411887
68	0xbce39d9b	-0.027785113
69	0xbc977b6b	-0.018491467
70	0xbcbacbf7	-0.022802336
71	0xbcb93779	-0.02260946
72	0xbcaa0773	-0.020755505
73	0x3b50b9a9	0.0031848943
74	0xbc3ebe10	-0.011641994
75	0xbbf139e5	-0.007361638
76	0xbc986117	-0.018600984
77	0xbaea452d	-0.0017873399
78	0xbcc60013	-0.024169957
79	0xbccdb615	-0.025111238
80	0x3b97a7c6	0.0046281544
81	0xbb83e29f	-0.004024818
82	0xbc27366e	-0.010205848
83	0x3ab0483e	0.0013449264
84	0xbcd1aa99	-0.025594043
85	0xbc0e73f5	-0.0086946385
86	0xbc2ef984	-0.010679606
87	0xbcd170bd	-0.025566453
88	0x3b4d66d0	0.0031341799
89	0x3911ba3d	0.00013897657
90	0xbbab52c1	-0.005228371
91	0xbb711881	-0.0036788287
92	0xbc1630c3	-0.009166899
93	0xbc433ff4	-0.011917103
94	0x3b7548ce	0.0037427428
95	0xbcc0b8d4	-0.023525633
96	0xbcdb1113	-0.02674154
97	0x3b764442	0.0037577306
98	0xbc296335	-0.010338594
99	0xbcfd8691	-0.030947955
100	0xbbde014d	-0.0067750574
101	0xbc3ea951	-0.011637048
102	0x3c57ad9e	0.013163952
103	0x3938b3e6	0.00017614625
104	0xbc1f1f27	-0.009712017
105	0xbbee5af3	-0.0072740256
106	0xbc136584	-0.008996371
107	0xbbc195aa	-0.005907734
108	0x3c9808da	0.018558908
109	0x3ca94877	0.020664437
110	0xbc4c7338	-0.012478642
111	0x3999ac63	0.00029310872
112	0x3c8428b2	0.016132686
113	0x3c888bd0	0.01666823
114	0xbbbb36f1	-0.0057133366
115	0x3c7a3848	0.015272208
116	0x3bb1ed11	0.005429872
117	0xb957e68f	-0.00020589888
118	0xbbd28bde	-0.006425365
119	0xbb9656df	-0.0045879926
120	0xbc4f4791	-0.01265134
121	0xbc8dea47	-0.017323626
122	0xbc8c3503	-0.017115122
123	0x3c54f2a7	0.012997306
124	0x3c938e19	0.018012093
125	0xbc4dc416	-0.012558958
126	0xbc7ed195	-0.015552898
127	0xbad7065f	-0.0016405097
128	0xbaaeb0ff	-0.0013327895
129	0x3b71494f	0.0036817377
130	0x3ca2ffc9	0.019897358
131	0xbc825548	-0.015909806
132	0x3b7a1cfd	0.003816425
133	0xbc1c5dbc	-0.009543832
134	0xbc50dc91	-0.0127479
135	0xbc858a33	-0.01630125
136	0xbaa9f541	-0.0012966768
137	0x3b65c063	0.0035057298
138	0xbbb75a50	-0.005595483
139	0x3c64b355	0.013958772
140	0x3c28f605	0.010312562
141	0xba9a3905	-0.0011766261
142	0xb98f0f4d	-0.00027286485
143	0xbc591f1a	-0.013252044
144	0xbc783e1c	-0.015151527
145	0xbc1b96ee	-0.009496434
146	0x3c0e23f1	0.008675561
147	0x3c38d4c6	0.011281198
148	0xbc58e707	-0.013238675
149	0xbc753b8c	-0.01496781
150	0x3a4e447e	0.00078684825
151	0xbc32ac25	-0.0109053
152	0xbbe5db6e	-0.0070146834
153	0xbb209282	-0.0024501388
154	0xbbc74c73	-0.0060821115
155	0x3a7ef4b4	0.00097257947
156	0xbc95a651	-0.018267782
157	0xbc69efdf	-0.014278381
158	0xbc702e6c	-0.014659505
159	0xbc876362	-0.016526882
160	0x3b895afe	0.0041917553
161	0x3c2ec6b4	0.010667492
162	0xbc3da69b	-0.011575366
163	0x3c217e17	0.009856722
164	0xba6048c8	-0.0008555767
165	0x3c800064	0.015625186
166	0x3c5528a2	0.013010176
167	0xbbd81e20	-0.006595388
168	0xbc513822	-0.012769731
169	0xbc0b4baa	-0.008501926
170	0xbbc3f71f	-0.005980387
171	0xbc656709	-0.014001616
172	0xbc4e065c	-0.012574758
173	0x3c60e707	0.013726956
174	0x3c88d57b	0.016703358
175	0xbc4192eb	-0.011814813
176	0x3be913e3	0.0071129664
177	0xbbd593c2	-0.0065178582
178	0x3c2a0caf	0.010379001
179	0x3b34620f	0.0027524268
180	0xbb238b02	-0.0024954681
181	0x3aed1774	0.0018088655
182	0xbbb2dac0	-0.005458206
183	0xbc82abe0	-0.015951097
184	0xbc527b3b	-0.012846763
185	0x3b4929fb	0.0030695188
186	0xbc2b5eeb	-0.010459642
187	0x3b0aea59	0.002119681
188	0xbae6ea52	-0.001761744
189	0xbb25325f	-0.0025207025
190	0x3c74744e	0.014920307
191	0xbba6c5d7	-0.0050895023
192	0x3c7af882	0.015318038
193	0x3a9b9bd1	0.0011871998
194	0x3c902bde	0.017599043
195	0x39655a3c	0.00021872757
196	0x39a9f4df	0.00032416635
197	0xbc4f7c7b	-0.012663956
198	0xbc0690a4	-0.008213196
199	0xbbada217	-0.0052988636
200	0x3c43d2f7	0.011952153
201	0xbba186a9	-0.004929383
202	0x3ba04825	0.004891413
203	0x3c34d637	0.011037401
204	0x3c10300c	0.008800518
205	0x3c894748	0.016757622
206	0xbc6c4141	-0.014419855
207	0xbb36fec2	-0.0027922844
208	0xbc931f2f	-0.017959205
209	0xbc3dc635	-0.011582901
210	0xbc896eeb	-0.016776523
211	0x3b0f428f	0.002185974
212	0x3c18f0da	0.009334767
213	0xbc1c21fc	-0.009529587
214	0x3c18e861	0.009332747
215	0x3b952a63	0.004552172
216	0x3c029287	0.007969505
217	0x3bd7608f	0.00657279
218	0xbb3b3e21	-0.0028570967
219	0xbc558dd0	-0.013034299
220	0xbba92fe8	-0.0051631816
221	0xbc253b0c	-0.010084879
222	0xbc3fa3a4	-0.01169673
223	0xbbbccc38	-0.0057616495
224	0xbca5dfe1	-0.020248355
225	0xbc390be7	-0.011294342
226	0x3bd9bdf7	0.00664496
227	0xbc754e61	-0.0149723
228	0xbca98365	-0.020692537
229	0xbc07f9cc	-0.008299302
230	0x3be2b2f4	0.0069183055
231	0xbc26f6de	-0.010190694
232	0xb9b080c9	-0.00033665288
233	0x3c0ad683	0.008473995
234	0x3b14ad52	0.0022686315
235	0xbc400ddc	-0.011722054
236	0xbbb87184	-0.0056287665
237	0xbc43dbd4	-0.011954267
238	0xbc6961af	-0.014244481
239	0xbc0470aa	-0.008083502
240	0x3b85675e	0.00407116
241	0xbbe7382c	-0.0070562568
242	0xbb83f2a8	-0.0040267296
243	0xbc2d3fce	-0.010574294
244	0xbca8a11f	-0.020584641
245	0xbb78730a	-0.0037910365
246	0xbbafb7a1	-0.0053624664
247	0x3c6c7f88	0.014434703
248	0xbc91b325	-0.017785618
249	0xbc3a6cde	-0.011378495
250	0xbbf2f81d	-0.0074148313
251	0xbcbd09c5	-0.023075948
252	0x3937bc22	0.00017522325
253	0xbaaa608a	-0.0012998742
254	0xbb3ba34d	-0.002863127
255	0x3bc1f725	0.0059193545

fc2.bias f4 [8]
0	0xbc80a73d	-0.015704745
1	0xbc968b77	-0.018377049
2	0xbc0fb4c2	-0.008771123
3	0xbc0fbe8f	-0.00877346
4	0x3bb7d0ee	0.005609623
5	0x382c2ac2	4.1047817e-05
6	0x3a99aba3	0.0011724125
7	0xbc824b3f	-0.01590502
